def @main(%input_1:0: Tensor[(8, 224, 224, 3), float32]) -> Tensor[(8, 1000), float16] {
  %0 = cast(%input_1:0, dtype="float16") /* ty=Tensor[(8, 224, 224, 3), float16] */;
  %1 = @tvmgen_default_cutlass_main_0(%0, meta[relay.Constant][0] /* ty=Tensor[(24, 3, 3, 3), float16] */, meta[relay.Constant][1] /* ty=Tensor[(1, 1, 1, 24), float16] */) /* ty=Tensor[(8, 112, 112, 24), float16] */;
  %2 = @tvmgen_default_cutlass_main_3(%1, meta[relay.Constant][2] /* ty=Tensor[(24, 3, 3, 24), float16] */, meta[relay.Constant][3] /* ty=Tensor[(1, 1, 1, 24), float16] */) /* ty=Tensor[(8, 112, 112, 24), float16] */;
  %3 = @tvmgen_default_cutlass_main_7(%2, meta[relay.Constant][4] /* ty=Tensor[(24, 3, 3, 24), float16] */, meta[relay.Constant][5] /* ty=Tensor[(1, 1, 1, 24), float16] */) /* ty=Tensor[(8, 112, 112, 24), float16] */;
  %4 = @tvmgen_default_cutlass_main_11(%3, meta[relay.Constant][6] /* ty=Tensor[(24, 3, 3, 24), float16] */, meta[relay.Constant][7] /* ty=Tensor[(1, 1, 1, 24), float16] */) /* ty=Tensor[(8, 112, 112, 24), float16] */;
  %5 = @tvmgen_default_cutlass_main_15(%4, meta[relay.Constant][8] /* ty=Tensor[(96, 3, 3, 24), float16] */, meta[relay.Constant][9] /* ty=Tensor[(1, 1, 1, 96), float16] */) /* ty=Tensor[(8, 56, 56, 96), float16] */;
  %6 = @tvmgen_default_cutlass_main_18(%5, meta[relay.Constant][10] /* ty=Tensor[(48, 1, 1, 96), float16] */, meta[relay.Constant][11] /* ty=Tensor[(1, 1, 1, 48), float16] */) /* ty=Tensor[(8, 56, 56, 48), float16] */;
  %7 = @tvmgen_default_cutlass_main_21(%6, meta[relay.Constant][12] /* ty=Tensor[(192, 3, 3, 48), float16] */, meta[relay.Constant][13] /* ty=Tensor[(192), float16] */) /* ty=Tensor[(8, 56, 56, 192), float16] */;
  %8 = @tvmgen_default_cutlass_main_24(%7, meta[relay.Constant][14] /* ty=Tensor[(48, 1, 1, 192), float16] */, meta[relay.Constant][15] /* ty=Tensor[(1, 1, 1, 48), float16] */, %6) /* ty=Tensor[(8, 56, 56, 48), float16] */;
  %9 = @tvmgen_default_cutlass_main_28(%8, meta[relay.Constant][16] /* ty=Tensor[(192, 3, 3, 48), float16] */, meta[relay.Constant][17] /* ty=Tensor[(1, 1, 1, 192), float16] */) /* ty=Tensor[(8, 56, 56, 192), float16] */;
  %10 = @tvmgen_default_cutlass_main_31(%9, meta[relay.Constant][18] /* ty=Tensor[(48, 1, 1, 192), float16] */, meta[relay.Constant][19] /* ty=Tensor[(1, 1, 1, 48), float16] */, %8) /* ty=Tensor[(8, 56, 56, 48), float16] */;
  %11 = @tvmgen_default_cutlass_main_35(%10, meta[relay.Constant][20] /* ty=Tensor[(192, 3, 3, 48), float16] */, meta[relay.Constant][21] /* ty=Tensor[(1, 1, 1, 192), float16] */) /* ty=Tensor[(8, 56, 56, 192), float16] */;
  %12 = @tvmgen_default_cutlass_main_38(%11, meta[relay.Constant][22] /* ty=Tensor[(48, 1, 1, 192), float16] */, meta[relay.Constant][23] /* ty=Tensor[(1, 1, 1, 48), float16] */, %10) /* ty=Tensor[(8, 56, 56, 48), float16] */;
  %13 = @tvmgen_default_cutlass_main_42(%12, meta[relay.Constant][24] /* ty=Tensor[(192, 3, 3, 48), float16] */, meta[relay.Constant][25] /* ty=Tensor[(1, 1, 1, 192), float16] */) /* ty=Tensor[(8, 56, 56, 192), float16] */;
  %14 = @tvmgen_default_cutlass_main_45(%13, meta[relay.Constant][26] /* ty=Tensor[(48, 1, 1, 192), float16] */, meta[relay.Constant][27] /* ty=Tensor[(1, 1, 1, 48), float16] */, %12) /* ty=Tensor[(8, 56, 56, 48), float16] */;
  %15 = @tvmgen_default_cutlass_main_49(%14, meta[relay.Constant][28] /* ty=Tensor[(192, 3, 3, 48), float16] */, meta[relay.Constant][29] /* ty=Tensor[(1, 1, 1, 192), float16] */) /* ty=Tensor[(8, 28, 28, 192), float16] */;
  %16 = @tvmgen_default_cutlass_main_52(%15, meta[relay.Constant][30] /* ty=Tensor[(80, 1, 1, 192), float16] */, meta[relay.Constant][31] /* ty=Tensor[(1, 1, 1, 80), float16] */) /* ty=Tensor[(8, 28, 28, 80), float16] */;
  %17 = @tvmgen_default_cutlass_main_55(%16, meta[relay.Constant][32] /* ty=Tensor[(320, 3, 3, 80), float16] */, meta[relay.Constant][33] /* ty=Tensor[(320), float16] */) /* ty=Tensor[(8, 28, 28, 320), float16] */;
  %18 = @tvmgen_default_cutlass_main_58(%17, meta[relay.Constant][34] /* ty=Tensor[(80, 1, 1, 320), float16] */, meta[relay.Constant][35] /* ty=Tensor[(1, 1, 1, 80), float16] */, %16) /* ty=Tensor[(8, 28, 28, 80), float16] */;
  %19 = @tvmgen_default_cutlass_main_62(%18, meta[relay.Constant][36] /* ty=Tensor[(320, 3, 3, 80), float16] */, meta[relay.Constant][37] /* ty=Tensor[(1, 1, 1, 320), float16] */) /* ty=Tensor[(8, 28, 28, 320), float16] */;
  %20 = @tvmgen_default_cutlass_main_65(%19, meta[relay.Constant][38] /* ty=Tensor[(80, 1, 1, 320), float16] */, meta[relay.Constant][39] /* ty=Tensor[(1, 1, 1, 80), float16] */, %18) /* ty=Tensor[(8, 28, 28, 80), float16] */;
  %21 = @tvmgen_default_cutlass_main_69(%20, meta[relay.Constant][40] /* ty=Tensor[(320, 3, 3, 80), float16] */, meta[relay.Constant][41] /* ty=Tensor[(1, 1, 1, 320), float16] */) /* ty=Tensor[(8, 28, 28, 320), float16] */;
  %22 = @tvmgen_default_cutlass_main_72(%21, meta[relay.Constant][42] /* ty=Tensor[(80, 1, 1, 320), float16] */, meta[relay.Constant][43] /* ty=Tensor[(1, 1, 1, 80), float16] */, %20) /* ty=Tensor[(8, 28, 28, 80), float16] */;
  %23 = @tvmgen_default_cutlass_main_76(%22, meta[relay.Constant][44] /* ty=Tensor[(320, 3, 3, 80), float16] */, meta[relay.Constant][45] /* ty=Tensor[(1, 1, 1, 320), float16] */) /* ty=Tensor[(8, 28, 28, 320), float16] */;
  %24 = @tvmgen_default_cutlass_main_79(%23, meta[relay.Constant][46] /* ty=Tensor[(80, 1, 1, 320), float16] */, meta[relay.Constant][47] /* ty=Tensor[(1, 1, 1, 80), float16] */, %22) /* ty=Tensor[(8, 28, 28, 80), float16] */;
  %25 = @tvmgen_default_cutlass_main_83(%24, meta[relay.Constant][48] /* ty=Tensor[(320, 1, 1, 80), float16] */, meta[relay.Constant][49] /* ty=Tensor[(1, 1, 1, 320), float16] */) /* ty=Tensor[(8, 28, 28, 320), float16] */;
  %26 = layout_transform(meta[relay.Constant][50] /* ty=Tensor[(320, 3, 3, 1), float16] */, src_layout="OHWI", dst_layout="HWOI") /* ty=Tensor[(3, 3, 320, 1), float16] */;
  %27 = nn.conv2d(%25, %26, strides=[2, 2], padding=[0, 0, 1, 1], groups=320, channels=320, kernel_size=[3, 3], data_layout="NHWC", kernel_layout="HWOI", out_dtype="float16") /* ty=Tensor[(8, 14, 14, 320), float16] */;
  %28 = add(%27, meta[relay.Constant][51] /* ty=Tensor[(1, 1, 1, 320), float16] */) /* ty=Tensor[(8, 14, 14, 320), float16] */;
  %29 = sigmoid(%28) /* ty=Tensor[(8, 14, 14, 320), float16] */;
  %30 = multiply(%28, %29) /* ty=Tensor[(8, 14, 14, 320), float16] */;
  %31 = cast(%30, dtype="float32") /* ty=Tensor[(8, 14, 14, 320), float32] */;
  %32 = mean(%31, axis=[1, 2], keepdims=True) /* ty=Tensor[(8, 1, 1, 320), float32] */;
  %33 = cast(%32, dtype="float16") /* ty=Tensor[(8, 1, 1, 320), float16] */;
  %34 = @tvmgen_default_cutlass_main_86(%33, meta[relay.Constant][52] /* ty=Tensor[(20, 1, 1, 320), float16] */, meta[relay.Constant][53] /* ty=Tensor[(1, 1, 1, 20), float16] */) /* ty=Tensor[(8, 1, 1, 20), float16] */;
  %35 = @tvmgen_default_cutlass_main_89(%34, meta[relay.Constant][54] /* ty=Tensor[(320, 1, 1, 20), float16] */, meta[relay.Constant][55] /* ty=Tensor[(1, 1, 1, 320), float16] */) /* ty=Tensor[(8, 1, 1, 320), float16] */;
  %36 = multiply(%35, %30) /* ty=Tensor[(8, 14, 14, 320), float16] */;
  %37 = @tvmgen_default_cutlass_main_92(%36, meta[relay.Constant][56] /* ty=Tensor[(160, 1, 1, 320), float16] */, meta[relay.Constant][57] /* ty=Tensor[(1, 1, 1, 160), float16] */) /* ty=Tensor[(8, 14, 14, 160), float16] */;
  %38 = @tvmgen_default_cutlass_main_95(%37, meta[relay.Constant][58] /* ty=Tensor[(640, 1, 1, 160), float16] */, meta[relay.Constant][59] /* ty=Tensor[(640), float16] */) /* ty=Tensor[(8, 14, 14, 640), float16] */;
  %39 = layout_transform(meta[relay.Constant][60] /* ty=Tensor[(640, 3, 3, 1), float16] */, src_layout="OHWI", dst_layout="HWOI") /* ty=Tensor[(3, 3, 640, 1), float16] */;
  %40 = nn.conv2d(%38, %39, padding=[1, 1, 1, 1], groups=640, channels=640, kernel_size=[3, 3], data_layout="NHWC", kernel_layout="HWOI", out_dtype="float16") /* ty=Tensor[(8, 14, 14, 640), float16] */;
  %41 = add(%40, meta[relay.Constant][61] /* ty=Tensor[(1, 1, 1, 640), float16] */) /* ty=Tensor[(8, 14, 14, 640), float16] */;
  %42 = sigmoid(%41) /* ty=Tensor[(8, 14, 14, 640), float16] */;
  %43 = multiply(%41, %42) /* ty=Tensor[(8, 14, 14, 640), float16] */;
  %44 = cast(%43, dtype="float32") /* ty=Tensor[(8, 14, 14, 640), float32] */;
  %45 = mean(%44, axis=[1, 2], keepdims=True) /* ty=Tensor[(8, 1, 1, 640), float32] */;
  %46 = cast(%45, dtype="float16") /* ty=Tensor[(8, 1, 1, 640), float16] */;
  %47 = @tvmgen_default_cutlass_main_98(%46, meta[relay.Constant][62] /* ty=Tensor[(40, 1, 1, 640), float16] */, meta[relay.Constant][63] /* ty=Tensor[(1, 1, 1, 40), float16] */) /* ty=Tensor[(8, 1, 1, 40), float16] */;
  %48 = @tvmgen_default_cutlass_main_101(%47, meta[relay.Constant][64] /* ty=Tensor[(640, 1, 1, 40), float16] */, meta[relay.Constant][65] /* ty=Tensor[(1, 1, 1, 640), float16] */) /* ty=Tensor[(8, 1, 1, 640), float16] */;
  %49 = multiply(%48, %43) /* ty=Tensor[(8, 14, 14, 640), float16] */;
  %50 = @tvmgen_default_cutlass_main_104(%49, meta[relay.Constant][66] /* ty=Tensor[(160, 1, 1, 640), float16] */, meta[relay.Constant][67] /* ty=Tensor[(1, 1, 1, 160), float16] */, %37) /* ty=Tensor[(8, 14, 14, 160), float16] */;
  %51 = @tvmgen_default_cutlass_main_108(%50, meta[relay.Constant][68] /* ty=Tensor[(640, 1, 1, 160), float16] */, meta[relay.Constant][69] /* ty=Tensor[(1, 1, 1, 640), float16] */) /* ty=Tensor[(8, 14, 14, 640), float16] */;
  %52 = layout_transform(meta[relay.Constant][70] /* ty=Tensor[(640, 3, 3, 1), float16] */, src_layout="OHWI", dst_layout="HWOI") /* ty=Tensor[(3, 3, 640, 1), float16] */;
  %53 = nn.conv2d(%51, %52, padding=[1, 1, 1, 1], groups=640, channels=640, kernel_size=[3, 3], data_layout="NHWC", kernel_layout="HWOI", out_dtype="float16") /* ty=Tensor[(8, 14, 14, 640), float16] */;
  %54 = add(%53, meta[relay.Constant][71] /* ty=Tensor[(1, 1, 1, 640), float16] */) /* ty=Tensor[(8, 14, 14, 640), float16] */;
  %55 = sigmoid(%54) /* ty=Tensor[(8, 14, 14, 640), float16] */;
  %56 = multiply(%54, %55) /* ty=Tensor[(8, 14, 14, 640), float16] */;
  %57 = cast(%56, dtype="float32") /* ty=Tensor[(8, 14, 14, 640), float32] */;
  %58 = mean(%57, axis=[1, 2], keepdims=True) /* ty=Tensor[(8, 1, 1, 640), float32] */;
  %59 = cast(%58, dtype="float16") /* ty=Tensor[(8, 1, 1, 640), float16] */;
  %60 = @tvmgen_default_cutlass_main_111(%59, meta[relay.Constant][72] /* ty=Tensor[(40, 1, 1, 640), float16] */, meta[relay.Constant][73] /* ty=Tensor[(1, 1, 1, 40), float16] */) /* ty=Tensor[(8, 1, 1, 40), float16] */;
  %61 = @tvmgen_default_cutlass_main_114(%60, meta[relay.Constant][74] /* ty=Tensor[(640, 1, 1, 40), float16] */, meta[relay.Constant][75] /* ty=Tensor[(1, 1, 1, 640), float16] */) /* ty=Tensor[(8, 1, 1, 640), float16] */;
  %62 = multiply(%61, %56) /* ty=Tensor[(8, 14, 14, 640), float16] */;
  %63 = @tvmgen_default_cutlass_main_117(%62, meta[relay.Constant][76] /* ty=Tensor[(160, 1, 1, 640), float16] */, meta[relay.Constant][77] /* ty=Tensor[(1, 1, 1, 160), float16] */, %50) /* ty=Tensor[(8, 14, 14, 160), float16] */;
  %64 = @tvmgen_default_cutlass_main_121(%63, meta[relay.Constant][78] /* ty=Tensor[(640, 1, 1, 160), float16] */, meta[relay.Constant][79] /* ty=Tensor[(1, 1, 1, 640), float16] */) /* ty=Tensor[(8, 14, 14, 640), float16] */;
  %65 = layout_transform(meta[relay.Constant][80] /* ty=Tensor[(640, 3, 3, 1), float16] */, src_layout="OHWI", dst_layout="HWOI") /* ty=Tensor[(3, 3, 640, 1), float16] */;
  %66 = nn.conv2d(%64, %65, padding=[1, 1, 1, 1], groups=640, channels=640, kernel_size=[3, 3], data_layout="NHWC", kernel_layout="HWOI", out_dtype="float16") /* ty=Tensor[(8, 14, 14, 640), float16] */;
  %67 = add(%66, meta[relay.Constant][81] /* ty=Tensor[(1, 1, 1, 640), float16] */) /* ty=Tensor[(8, 14, 14, 640), float16] */;
  %68 = sigmoid(%67) /* ty=Tensor[(8, 14, 14, 640), float16] */;
  %69 = multiply(%67, %68) /* ty=Tensor[(8, 14, 14, 640), float16] */;
  %70 = cast(%69, dtype="float32") /* ty=Tensor[(8, 14, 14, 640), float32] */;
  %71 = mean(%70, axis=[1, 2], keepdims=True) /* ty=Tensor[(8, 1, 1, 640), float32] */;
  %72 = cast(%71, dtype="float16") /* ty=Tensor[(8, 1, 1, 640), float16] */;
  %73 = @tvmgen_default_cutlass_main_124(%72, meta[relay.Constant][82] /* ty=Tensor[(40, 1, 1, 640), float16] */, meta[relay.Constant][83] /* ty=Tensor[(1, 1, 1, 40), float16] */) /* ty=Tensor[(8, 1, 1, 40), float16] */;
  %74 = @tvmgen_default_cutlass_main_127(%73, meta[relay.Constant][84] /* ty=Tensor[(640, 1, 1, 40), float16] */, meta[relay.Constant][85] /* ty=Tensor[(1, 1, 1, 640), float16] */) /* ty=Tensor[(8, 1, 1, 640), float16] */;
  %75 = multiply(%74, %69) /* ty=Tensor[(8, 14, 14, 640), float16] */;
  %76 = @tvmgen_default_cutlass_main_130(%75, meta[relay.Constant][86] /* ty=Tensor[(160, 1, 1, 640), float16] */, meta[relay.Constant][87] /* ty=Tensor[(1, 1, 1, 160), float16] */, %63) /* ty=Tensor[(8, 14, 14, 160), float16] */;
  %77 = @tvmgen_default_cutlass_main_134(%76, meta[relay.Constant][88] /* ty=Tensor[(640, 1, 1, 160), float16] */, meta[relay.Constant][89] /* ty=Tensor[(1, 1, 1, 640), float16] */) /* ty=Tensor[(8, 14, 14, 640), float16] */;
  %78 = layout_transform(meta[relay.Constant][90] /* ty=Tensor[(640, 3, 3, 1), float16] */, src_layout="OHWI", dst_layout="HWOI") /* ty=Tensor[(3, 3, 640, 1), float16] */;
  %79 = nn.conv2d(%77, %78, padding=[1, 1, 1, 1], groups=640, channels=640, kernel_size=[3, 3], data_layout="NHWC", kernel_layout="HWOI", out_dtype="float16") /* ty=Tensor[(8, 14, 14, 640), float16] */;
  %80 = add(%79, meta[relay.Constant][91] /* ty=Tensor[(1, 1, 1, 640), float16] */) /* ty=Tensor[(8, 14, 14, 640), float16] */;
  %81 = sigmoid(%80) /* ty=Tensor[(8, 14, 14, 640), float16] */;
  %82 = multiply(%80, %81) /* ty=Tensor[(8, 14, 14, 640), float16] */;
  %83 = cast(%82, dtype="float32") /* ty=Tensor[(8, 14, 14, 640), float32] */;
  %84 = mean(%83, axis=[1, 2], keepdims=True) /* ty=Tensor[(8, 1, 1, 640), float32] */;
  %85 = cast(%84, dtype="float16") /* ty=Tensor[(8, 1, 1, 640), float16] */;
  %86 = @tvmgen_default_cutlass_main_137(%85, meta[relay.Constant][92] /* ty=Tensor[(40, 1, 1, 640), float16] */, meta[relay.Constant][93] /* ty=Tensor[(1, 1, 1, 40), float16] */) /* ty=Tensor[(8, 1, 1, 40), float16] */;
  %87 = @tvmgen_default_cutlass_main_140(%86, meta[relay.Constant][94] /* ty=Tensor[(640, 1, 1, 40), float16] */, meta[relay.Constant][95] /* ty=Tensor[(1, 1, 1, 640), float16] */) /* ty=Tensor[(8, 1, 1, 640), float16] */;
  %88 = multiply(%87, %82) /* ty=Tensor[(8, 14, 14, 640), float16] */;
  %89 = @tvmgen_default_cutlass_main_143(%88, meta[relay.Constant][96] /* ty=Tensor[(160, 1, 1, 640), float16] */, meta[relay.Constant][97] /* ty=Tensor[(1, 1, 1, 160), float16] */, %76) /* ty=Tensor[(8, 14, 14, 160), float16] */;
  %90 = @tvmgen_default_cutlass_main_147(%89, meta[relay.Constant][98] /* ty=Tensor[(640, 1, 1, 160), float16] */, meta[relay.Constant][99] /* ty=Tensor[(1, 1, 1, 640), float16] */) /* ty=Tensor[(8, 14, 14, 640), float16] */;
  %91 = layout_transform(meta[relay.Constant][100] /* ty=Tensor[(640, 3, 3, 1), float16] */, src_layout="OHWI", dst_layout="HWOI") /* ty=Tensor[(3, 3, 640, 1), float16] */;
  %92 = nn.conv2d(%90, %91, padding=[1, 1, 1, 1], groups=640, channels=640, kernel_size=[3, 3], data_layout="NHWC", kernel_layout="HWOI", out_dtype="float16") /* ty=Tensor[(8, 14, 14, 640), float16] */;
  %93 = add(%92, meta[relay.Constant][101] /* ty=Tensor[(1, 1, 1, 640), float16] */) /* ty=Tensor[(8, 14, 14, 640), float16] */;
  %94 = sigmoid(%93) /* ty=Tensor[(8, 14, 14, 640), float16] */;
  %95 = multiply(%93, %94) /* ty=Tensor[(8, 14, 14, 640), float16] */;
  %96 = cast(%95, dtype="float32") /* ty=Tensor[(8, 14, 14, 640), float32] */;
  %97 = mean(%96, axis=[1, 2], keepdims=True) /* ty=Tensor[(8, 1, 1, 640), float32] */;
  %98 = cast(%97, dtype="float16") /* ty=Tensor[(8, 1, 1, 640), float16] */;
  %99 = @tvmgen_default_cutlass_main_150(%98, meta[relay.Constant][102] /* ty=Tensor[(40, 1, 1, 640), float16] */, meta[relay.Constant][103] /* ty=Tensor[(1, 1, 1, 40), float16] */) /* ty=Tensor[(8, 1, 1, 40), float16] */;
  %100 = @tvmgen_default_cutlass_main_153(%99, meta[relay.Constant][104] /* ty=Tensor[(640, 1, 1, 40), float16] */, meta[relay.Constant][105] /* ty=Tensor[(1, 1, 1, 640), float16] */) /* ty=Tensor[(8, 1, 1, 640), float16] */;
  %101 = multiply(%100, %95) /* ty=Tensor[(8, 14, 14, 640), float16] */;
  %102 = @tvmgen_default_cutlass_main_156(%101, meta[relay.Constant][106] /* ty=Tensor[(160, 1, 1, 640), float16] */, meta[relay.Constant][107] /* ty=Tensor[(1, 1, 1, 160), float16] */, %89) /* ty=Tensor[(8, 14, 14, 160), float16] */;
  %103 = @tvmgen_default_cutlass_main_160(%102, meta[relay.Constant][108] /* ty=Tensor[(640, 1, 1, 160), float16] */, meta[relay.Constant][109] /* ty=Tensor[(1, 1, 1, 640), float16] */) /* ty=Tensor[(8, 14, 14, 640), float16] */;
  %104 = layout_transform(meta[relay.Constant][110] /* ty=Tensor[(640, 3, 3, 1), float16] */, src_layout="OHWI", dst_layout="HWOI") /* ty=Tensor[(3, 3, 640, 1), float16] */;
  %105 = nn.conv2d(%103, %104, padding=[1, 1, 1, 1], groups=640, channels=640, kernel_size=[3, 3], data_layout="NHWC", kernel_layout="HWOI", out_dtype="float16") /* ty=Tensor[(8, 14, 14, 640), float16] */;
  %106 = add(%105, meta[relay.Constant][111] /* ty=Tensor[(1, 1, 1, 640), float16] */) /* ty=Tensor[(8, 14, 14, 640), float16] */;
  %107 = sigmoid(%106) /* ty=Tensor[(8, 14, 14, 640), float16] */;
  %108 = multiply(%106, %107) /* ty=Tensor[(8, 14, 14, 640), float16] */;
  %109 = cast(%108, dtype="float32") /* ty=Tensor[(8, 14, 14, 640), float32] */;
  %110 = mean(%109, axis=[1, 2], keepdims=True) /* ty=Tensor[(8, 1, 1, 640), float32] */;
  %111 = cast(%110, dtype="float16") /* ty=Tensor[(8, 1, 1, 640), float16] */;
  %112 = @tvmgen_default_cutlass_main_163(%111, meta[relay.Constant][112] /* ty=Tensor[(40, 1, 1, 640), float16] */, meta[relay.Constant][113] /* ty=Tensor[(1, 1, 1, 40), float16] */) /* ty=Tensor[(8, 1, 1, 40), float16] */;
  %113 = @tvmgen_default_cutlass_main_166(%112, meta[relay.Constant][114] /* ty=Tensor[(640, 1, 1, 40), float16] */, meta[relay.Constant][115] /* ty=Tensor[(1, 1, 1, 640), float16] */) /* ty=Tensor[(8, 1, 1, 640), float16] */;
  %114 = multiply(%113, %108) /* ty=Tensor[(8, 14, 14, 640), float16] */;
  %115 = @tvmgen_default_cutlass_main_169(%114, meta[relay.Constant][116] /* ty=Tensor[(160, 1, 1, 640), float16] */, meta[relay.Constant][117] /* ty=Tensor[(1, 1, 1, 160), float16] */, %102) /* ty=Tensor[(8, 14, 14, 160), float16] */;
  %116 = @tvmgen_default_cutlass_main_173(%115, meta[relay.Constant][118] /* ty=Tensor[(960, 1, 1, 160), float16] */, meta[relay.Constant][119] /* ty=Tensor[(1, 1, 1, 960), float16] */) /* ty=Tensor[(8, 14, 14, 960), float16] */;
  %117 = layout_transform(meta[relay.Constant][120] /* ty=Tensor[(960, 3, 3, 1), float16] */, src_layout="OHWI", dst_layout="HWOI") /* ty=Tensor[(3, 3, 960, 1), float16] */;
  %118 = nn.conv2d(%116, %117, padding=[1, 1, 1, 1], groups=960, channels=960, kernel_size=[3, 3], data_layout="NHWC", kernel_layout="HWOI", out_dtype="float16") /* ty=Tensor[(8, 14, 14, 960), float16] */;
  %119 = add(%118, meta[relay.Constant][121] /* ty=Tensor[(1, 1, 1, 960), float16] */) /* ty=Tensor[(8, 14, 14, 960), float16] */;
  %120 = sigmoid(%119) /* ty=Tensor[(8, 14, 14, 960), float16] */;
  %121 = multiply(%119, %120) /* ty=Tensor[(8, 14, 14, 960), float16] */;
  %122 = cast(%121, dtype="float32") /* ty=Tensor[(8, 14, 14, 960), float32] */;
  %123 = mean(%122, axis=[1, 2], keepdims=True) /* ty=Tensor[(8, 1, 1, 960), float32] */;
  %124 = cast(%123, dtype="float16") /* ty=Tensor[(8, 1, 1, 960), float16] */;
  %125 = @tvmgen_default_cutlass_main_176(%124, meta[relay.Constant][122] /* ty=Tensor[(40, 1, 1, 960), float16] */, meta[relay.Constant][123] /* ty=Tensor[(1, 1, 1, 40), float16] */) /* ty=Tensor[(8, 1, 1, 40), float16] */;
  %126 = @tvmgen_default_cutlass_main_179(%125, meta[relay.Constant][124] /* ty=Tensor[(960, 1, 1, 40), float16] */, meta[relay.Constant][125] /* ty=Tensor[(1, 1, 1, 960), float16] */) /* ty=Tensor[(8, 1, 1, 960), float16] */;
  %127 = multiply(%126, %121) /* ty=Tensor[(8, 14, 14, 960), float16] */;
  %128 = @tvmgen_default_cutlass_main_182(%127, meta[relay.Constant][126] /* ty=Tensor[(176, 1, 1, 960), float16] */, meta[relay.Constant][127] /* ty=Tensor[(1, 1, 1, 176), float16] */) /* ty=Tensor[(8, 14, 14, 176), float16] */;
  %129 = @tvmgen_default_cutlass_main_185(%128, meta[relay.Constant][128] /* ty=Tensor[(1056, 1, 1, 176), float16] */, meta[relay.Constant][129] /* ty=Tensor[(1056), float16] */) /* ty=Tensor[(8, 14, 14, 1056), float16] */;
  %130 = layout_transform(meta[relay.Constant][130] /* ty=Tensor[(1056, 3, 3, 1), float16] */, src_layout="OHWI", dst_layout="HWOI") /* ty=Tensor[(3, 3, 1056, 1), float16] */;
  %131 = nn.conv2d(%129, %130, padding=[1, 1, 1, 1], groups=1056, channels=1056, kernel_size=[3, 3], data_layout="NHWC", kernel_layout="HWOI", out_dtype="float16") /* ty=Tensor[(8, 14, 14, 1056), float16] */;
  %132 = add(%131, meta[relay.Constant][131] /* ty=Tensor[(1, 1, 1, 1056), float16] */) /* ty=Tensor[(8, 14, 14, 1056), float16] */;
  %133 = sigmoid(%132) /* ty=Tensor[(8, 14, 14, 1056), float16] */;
  %134 = multiply(%132, %133) /* ty=Tensor[(8, 14, 14, 1056), float16] */;
  %135 = cast(%134, dtype="float32") /* ty=Tensor[(8, 14, 14, 1056), float32] */;
  %136 = mean(%135, axis=[1, 2], keepdims=True) /* ty=Tensor[(8, 1, 1, 1056), float32] */;
  %137 = cast(%136, dtype="float16") /* ty=Tensor[(8, 1, 1, 1056), float16] */;
  %138 = @tvmgen_default_cutlass_main_188(%137, meta[relay.Constant][132] /* ty=Tensor[(44, 1, 1, 1056), float16] */, meta[relay.Constant][133] /* ty=Tensor[(1, 1, 1, 44), float16] */) /* ty=Tensor[(8, 1, 1, 44), float16] */;
  %139 = @tvmgen_default_cutlass_main_191(%138, meta[relay.Constant][134] /* ty=Tensor[(1056, 1, 1, 44), float16] */, meta[relay.Constant][135] /* ty=Tensor[(1, 1, 1, 1056), float16] */) /* ty=Tensor[(8, 1, 1, 1056), float16] */;
  %140 = multiply(%139, %134) /* ty=Tensor[(8, 14, 14, 1056), float16] */;
  %141 = @tvmgen_default_cutlass_main_194(%140, meta[relay.Constant][136] /* ty=Tensor[(176, 1, 1, 1056), float16] */, meta[relay.Constant][137] /* ty=Tensor[(1, 1, 1, 176), float16] */, %128) /* ty=Tensor[(8, 14, 14, 176), float16] */;
  %142 = @tvmgen_default_cutlass_main_198(%141, meta[relay.Constant][138] /* ty=Tensor[(1056, 1, 1, 176), float16] */, meta[relay.Constant][139] /* ty=Tensor[(1, 1, 1, 1056), float16] */) /* ty=Tensor[(8, 14, 14, 1056), float16] */;
  %143 = layout_transform(meta[relay.Constant][140] /* ty=Tensor[(1056, 3, 3, 1), float16] */, src_layout="OHWI", dst_layout="HWOI") /* ty=Tensor[(3, 3, 1056, 1), float16] */;
  %144 = nn.conv2d(%142, %143, padding=[1, 1, 1, 1], groups=1056, channels=1056, kernel_size=[3, 3], data_layout="NHWC", kernel_layout="HWOI", out_dtype="float16") /* ty=Tensor[(8, 14, 14, 1056), float16] */;
  %145 = add(%144, meta[relay.Constant][141] /* ty=Tensor[(1, 1, 1, 1056), float16] */) /* ty=Tensor[(8, 14, 14, 1056), float16] */;
  %146 = sigmoid(%145) /* ty=Tensor[(8, 14, 14, 1056), float16] */;
  %147 = multiply(%145, %146) /* ty=Tensor[(8, 14, 14, 1056), float16] */;
  %148 = cast(%147, dtype="float32") /* ty=Tensor[(8, 14, 14, 1056), float32] */;
  %149 = mean(%148, axis=[1, 2], keepdims=True) /* ty=Tensor[(8, 1, 1, 1056), float32] */;
  %150 = cast(%149, dtype="float16") /* ty=Tensor[(8, 1, 1, 1056), float16] */;
  %151 = @tvmgen_default_cutlass_main_201(%150, meta[relay.Constant][142] /* ty=Tensor[(44, 1, 1, 1056), float16] */, meta[relay.Constant][143] /* ty=Tensor[(1, 1, 1, 44), float16] */) /* ty=Tensor[(8, 1, 1, 44), float16] */;
  %152 = @tvmgen_default_cutlass_main_204(%151, meta[relay.Constant][144] /* ty=Tensor[(1056, 1, 1, 44), float16] */, meta[relay.Constant][145] /* ty=Tensor[(1, 1, 1, 1056), float16] */) /* ty=Tensor[(8, 1, 1, 1056), float16] */;
  %153 = multiply(%152, %147) /* ty=Tensor[(8, 14, 14, 1056), float16] */;
  %154 = @tvmgen_default_cutlass_main_207(%153, meta[relay.Constant][146] /* ty=Tensor[(176, 1, 1, 1056), float16] */, meta[relay.Constant][147] /* ty=Tensor[(1, 1, 1, 176), float16] */, %141) /* ty=Tensor[(8, 14, 14, 176), float16] */;
  %155 = @tvmgen_default_cutlass_main_211(%154, meta[relay.Constant][148] /* ty=Tensor[(1056, 1, 1, 176), float16] */, meta[relay.Constant][149] /* ty=Tensor[(1, 1, 1, 1056), float16] */) /* ty=Tensor[(8, 14, 14, 1056), float16] */;
  %156 = layout_transform(meta[relay.Constant][150] /* ty=Tensor[(1056, 3, 3, 1), float16] */, src_layout="OHWI", dst_layout="HWOI") /* ty=Tensor[(3, 3, 1056, 1), float16] */;
  %157 = nn.conv2d(%155, %156, padding=[1, 1, 1, 1], groups=1056, channels=1056, kernel_size=[3, 3], data_layout="NHWC", kernel_layout="HWOI", out_dtype="float16") /* ty=Tensor[(8, 14, 14, 1056), float16] */;
  %158 = add(%157, meta[relay.Constant][151] /* ty=Tensor[(1, 1, 1, 1056), float16] */) /* ty=Tensor[(8, 14, 14, 1056), float16] */;
  %159 = sigmoid(%158) /* ty=Tensor[(8, 14, 14, 1056), float16] */;
  %160 = multiply(%158, %159) /* ty=Tensor[(8, 14, 14, 1056), float16] */;
  %161 = cast(%160, dtype="float32") /* ty=Tensor[(8, 14, 14, 1056), float32] */;
  %162 = mean(%161, axis=[1, 2], keepdims=True) /* ty=Tensor[(8, 1, 1, 1056), float32] */;
  %163 = cast(%162, dtype="float16") /* ty=Tensor[(8, 1, 1, 1056), float16] */;
  %164 = @tvmgen_default_cutlass_main_214(%163, meta[relay.Constant][152] /* ty=Tensor[(44, 1, 1, 1056), float16] */, meta[relay.Constant][153] /* ty=Tensor[(1, 1, 1, 44), float16] */) /* ty=Tensor[(8, 1, 1, 44), float16] */;
  %165 = @tvmgen_default_cutlass_main_217(%164, meta[relay.Constant][154] /* ty=Tensor[(1056, 1, 1, 44), float16] */, meta[relay.Constant][155] /* ty=Tensor[(1, 1, 1, 1056), float16] */) /* ty=Tensor[(8, 1, 1, 1056), float16] */;
  %166 = multiply(%165, %160) /* ty=Tensor[(8, 14, 14, 1056), float16] */;
  %167 = @tvmgen_default_cutlass_main_220(%166, meta[relay.Constant][156] /* ty=Tensor[(176, 1, 1, 1056), float16] */, meta[relay.Constant][157] /* ty=Tensor[(1, 1, 1, 176), float16] */, %154) /* ty=Tensor[(8, 14, 14, 176), float16] */;
  %168 = @tvmgen_default_cutlass_main_224(%167, meta[relay.Constant][158] /* ty=Tensor[(1056, 1, 1, 176), float16] */, meta[relay.Constant][159] /* ty=Tensor[(1, 1, 1, 1056), float16] */) /* ty=Tensor[(8, 14, 14, 1056), float16] */;
  %169 = layout_transform(meta[relay.Constant][160] /* ty=Tensor[(1056, 3, 3, 1), float16] */, src_layout="OHWI", dst_layout="HWOI") /* ty=Tensor[(3, 3, 1056, 1), float16] */;
  %170 = nn.conv2d(%168, %169, padding=[1, 1, 1, 1], groups=1056, channels=1056, kernel_size=[3, 3], data_layout="NHWC", kernel_layout="HWOI", out_dtype="float16") /* ty=Tensor[(8, 14, 14, 1056), float16] */;
  %171 = add(%170, meta[relay.Constant][161] /* ty=Tensor[(1, 1, 1, 1056), float16] */) /* ty=Tensor[(8, 14, 14, 1056), float16] */;
  %172 = sigmoid(%171) /* ty=Tensor[(8, 14, 14, 1056), float16] */;
  %173 = multiply(%171, %172) /* ty=Tensor[(8, 14, 14, 1056), float16] */;
  %174 = cast(%173, dtype="float32") /* ty=Tensor[(8, 14, 14, 1056), float32] */;
  %175 = mean(%174, axis=[1, 2], keepdims=True) /* ty=Tensor[(8, 1, 1, 1056), float32] */;
  %176 = cast(%175, dtype="float16") /* ty=Tensor[(8, 1, 1, 1056), float16] */;
  %177 = @tvmgen_default_cutlass_main_227(%176, meta[relay.Constant][162] /* ty=Tensor[(44, 1, 1, 1056), float16] */, meta[relay.Constant][163] /* ty=Tensor[(1, 1, 1, 44), float16] */) /* ty=Tensor[(8, 1, 1, 44), float16] */;
  %178 = @tvmgen_default_cutlass_main_230(%177, meta[relay.Constant][164] /* ty=Tensor[(1056, 1, 1, 44), float16] */, meta[relay.Constant][165] /* ty=Tensor[(1, 1, 1, 1056), float16] */) /* ty=Tensor[(8, 1, 1, 1056), float16] */;
  %179 = multiply(%178, %173) /* ty=Tensor[(8, 14, 14, 1056), float16] */;
  %180 = @tvmgen_default_cutlass_main_233(%179, meta[relay.Constant][166] /* ty=Tensor[(176, 1, 1, 1056), float16] */, meta[relay.Constant][167] /* ty=Tensor[(1, 1, 1, 176), float16] */, %167) /* ty=Tensor[(8, 14, 14, 176), float16] */;
  %181 = @tvmgen_default_cutlass_main_237(%180, meta[relay.Constant][168] /* ty=Tensor[(1056, 1, 1, 176), float16] */, meta[relay.Constant][169] /* ty=Tensor[(1, 1, 1, 1056), float16] */) /* ty=Tensor[(8, 14, 14, 1056), float16] */;
  %182 = layout_transform(meta[relay.Constant][170] /* ty=Tensor[(1056, 3, 3, 1), float16] */, src_layout="OHWI", dst_layout="HWOI") /* ty=Tensor[(3, 3, 1056, 1), float16] */;
  %183 = nn.conv2d(%181, %182, padding=[1, 1, 1, 1], groups=1056, channels=1056, kernel_size=[3, 3], data_layout="NHWC", kernel_layout="HWOI", out_dtype="float16") /* ty=Tensor[(8, 14, 14, 1056), float16] */;
  %184 = add(%183, meta[relay.Constant][171] /* ty=Tensor[(1, 1, 1, 1056), float16] */) /* ty=Tensor[(8, 14, 14, 1056), float16] */;
  %185 = sigmoid(%184) /* ty=Tensor[(8, 14, 14, 1056), float16] */;
  %186 = multiply(%184, %185) /* ty=Tensor[(8, 14, 14, 1056), float16] */;
  %187 = cast(%186, dtype="float32") /* ty=Tensor[(8, 14, 14, 1056), float32] */;
  %188 = mean(%187, axis=[1, 2], keepdims=True) /* ty=Tensor[(8, 1, 1, 1056), float32] */;
  %189 = cast(%188, dtype="float16") /* ty=Tensor[(8, 1, 1, 1056), float16] */;
  %190 = @tvmgen_default_cutlass_main_240(%189, meta[relay.Constant][172] /* ty=Tensor[(44, 1, 1, 1056), float16] */, meta[relay.Constant][173] /* ty=Tensor[(1, 1, 1, 44), float16] */) /* ty=Tensor[(8, 1, 1, 44), float16] */;
  %191 = @tvmgen_default_cutlass_main_243(%190, meta[relay.Constant][174] /* ty=Tensor[(1056, 1, 1, 44), float16] */, meta[relay.Constant][175] /* ty=Tensor[(1, 1, 1, 1056), float16] */) /* ty=Tensor[(8, 1, 1, 1056), float16] */;
  %192 = multiply(%191, %186) /* ty=Tensor[(8, 14, 14, 1056), float16] */;
  %193 = @tvmgen_default_cutlass_main_246(%192, meta[relay.Constant][176] /* ty=Tensor[(176, 1, 1, 1056), float16] */, meta[relay.Constant][177] /* ty=Tensor[(1, 1, 1, 176), float16] */, %180) /* ty=Tensor[(8, 14, 14, 176), float16] */;
  %194 = @tvmgen_default_cutlass_main_250(%193, meta[relay.Constant][178] /* ty=Tensor[(1056, 1, 1, 176), float16] */, meta[relay.Constant][179] /* ty=Tensor[(1, 1, 1, 1056), float16] */) /* ty=Tensor[(8, 14, 14, 1056), float16] */;
  %195 = layout_transform(meta[relay.Constant][180] /* ty=Tensor[(1056, 3, 3, 1), float16] */, src_layout="OHWI", dst_layout="HWOI") /* ty=Tensor[(3, 3, 1056, 1), float16] */;
  %196 = nn.conv2d(%194, %195, padding=[1, 1, 1, 1], groups=1056, channels=1056, kernel_size=[3, 3], data_layout="NHWC", kernel_layout="HWOI", out_dtype="float16") /* ty=Tensor[(8, 14, 14, 1056), float16] */;
  %197 = add(%196, meta[relay.Constant][181] /* ty=Tensor[(1, 1, 1, 1056), float16] */) /* ty=Tensor[(8, 14, 14, 1056), float16] */;
  %198 = sigmoid(%197) /* ty=Tensor[(8, 14, 14, 1056), float16] */;
  %199 = multiply(%197, %198) /* ty=Tensor[(8, 14, 14, 1056), float16] */;
  %200 = cast(%199, dtype="float32") /* ty=Tensor[(8, 14, 14, 1056), float32] */;
  %201 = mean(%200, axis=[1, 2], keepdims=True) /* ty=Tensor[(8, 1, 1, 1056), float32] */;
  %202 = cast(%201, dtype="float16") /* ty=Tensor[(8, 1, 1, 1056), float16] */;
  %203 = @tvmgen_default_cutlass_main_253(%202, meta[relay.Constant][182] /* ty=Tensor[(44, 1, 1, 1056), float16] */, meta[relay.Constant][183] /* ty=Tensor[(1, 1, 1, 44), float16] */) /* ty=Tensor[(8, 1, 1, 44), float16] */;
  %204 = @tvmgen_default_cutlass_main_256(%203, meta[relay.Constant][184] /* ty=Tensor[(1056, 1, 1, 44), float16] */, meta[relay.Constant][185] /* ty=Tensor[(1, 1, 1, 1056), float16] */) /* ty=Tensor[(8, 1, 1, 1056), float16] */;
  %205 = multiply(%204, %199) /* ty=Tensor[(8, 14, 14, 1056), float16] */;
  %206 = @tvmgen_default_cutlass_main_259(%205, meta[relay.Constant][186] /* ty=Tensor[(176, 1, 1, 1056), float16] */, meta[relay.Constant][187] /* ty=Tensor[(1, 1, 1, 176), float16] */, %193) /* ty=Tensor[(8, 14, 14, 176), float16] */;
  %207 = @tvmgen_default_cutlass_main_263(%206, meta[relay.Constant][188] /* ty=Tensor[(1056, 1, 1, 176), float16] */, meta[relay.Constant][189] /* ty=Tensor[(1, 1, 1, 1056), float16] */) /* ty=Tensor[(8, 14, 14, 1056), float16] */;
  %208 = layout_transform(meta[relay.Constant][190] /* ty=Tensor[(1056, 3, 3, 1), float16] */, src_layout="OHWI", dst_layout="HWOI") /* ty=Tensor[(3, 3, 1056, 1), float16] */;
  %209 = nn.conv2d(%207, %208, padding=[1, 1, 1, 1], groups=1056, channels=1056, kernel_size=[3, 3], data_layout="NHWC", kernel_layout="HWOI", out_dtype="float16") /* ty=Tensor[(8, 14, 14, 1056), float16] */;
  %210 = add(%209, meta[relay.Constant][191] /* ty=Tensor[(1, 1, 1, 1056), float16] */) /* ty=Tensor[(8, 14, 14, 1056), float16] */;
  %211 = sigmoid(%210) /* ty=Tensor[(8, 14, 14, 1056), float16] */;
  %212 = multiply(%210, %211) /* ty=Tensor[(8, 14, 14, 1056), float16] */;
  %213 = cast(%212, dtype="float32") /* ty=Tensor[(8, 14, 14, 1056), float32] */;
  %214 = mean(%213, axis=[1, 2], keepdims=True) /* ty=Tensor[(8, 1, 1, 1056), float32] */;
  %215 = cast(%214, dtype="float16") /* ty=Tensor[(8, 1, 1, 1056), float16] */;
  %216 = @tvmgen_default_cutlass_main_266(%215, meta[relay.Constant][192] /* ty=Tensor[(44, 1, 1, 1056), float16] */, meta[relay.Constant][193] /* ty=Tensor[(1, 1, 1, 44), float16] */) /* ty=Tensor[(8, 1, 1, 44), float16] */;
  %217 = @tvmgen_default_cutlass_main_269(%216, meta[relay.Constant][194] /* ty=Tensor[(1056, 1, 1, 44), float16] */, meta[relay.Constant][195] /* ty=Tensor[(1, 1, 1, 1056), float16] */) /* ty=Tensor[(8, 1, 1, 1056), float16] */;
  %218 = multiply(%217, %212) /* ty=Tensor[(8, 14, 14, 1056), float16] */;
  %219 = @tvmgen_default_cutlass_main_272(%218, meta[relay.Constant][196] /* ty=Tensor[(176, 1, 1, 1056), float16] */, meta[relay.Constant][197] /* ty=Tensor[(1, 1, 1, 176), float16] */, %206) /* ty=Tensor[(8, 14, 14, 176), float16] */;
  %220 = @tvmgen_default_cutlass_main_276(%219, meta[relay.Constant][198] /* ty=Tensor[(1056, 1, 1, 176), float16] */, meta[relay.Constant][199] /* ty=Tensor[(1, 1, 1, 1056), float16] */) /* ty=Tensor[(8, 14, 14, 1056), float16] */;
  %221 = layout_transform(meta[relay.Constant][200] /* ty=Tensor[(1056, 3, 3, 1), float16] */, src_layout="OHWI", dst_layout="HWOI") /* ty=Tensor[(3, 3, 1056, 1), float16] */;
  %222 = nn.conv2d(%220, %221, padding=[1, 1, 1, 1], groups=1056, channels=1056, kernel_size=[3, 3], data_layout="NHWC", kernel_layout="HWOI", out_dtype="float16") /* ty=Tensor[(8, 14, 14, 1056), float16] */;
  %223 = add(%222, meta[relay.Constant][201] /* ty=Tensor[(1, 1, 1, 1056), float16] */) /* ty=Tensor[(8, 14, 14, 1056), float16] */;
  %224 = sigmoid(%223) /* ty=Tensor[(8, 14, 14, 1056), float16] */;
  %225 = multiply(%223, %224) /* ty=Tensor[(8, 14, 14, 1056), float16] */;
  %226 = cast(%225, dtype="float32") /* ty=Tensor[(8, 14, 14, 1056), float32] */;
  %227 = mean(%226, axis=[1, 2], keepdims=True) /* ty=Tensor[(8, 1, 1, 1056), float32] */;
  %228 = cast(%227, dtype="float16") /* ty=Tensor[(8, 1, 1, 1056), float16] */;
  %229 = @tvmgen_default_cutlass_main_279(%228, meta[relay.Constant][202] /* ty=Tensor[(44, 1, 1, 1056), float16] */, meta[relay.Constant][203] /* ty=Tensor[(1, 1, 1, 44), float16] */) /* ty=Tensor[(8, 1, 1, 44), float16] */;
  %230 = @tvmgen_default_cutlass_main_282(%229, meta[relay.Constant][204] /* ty=Tensor[(1056, 1, 1, 44), float16] */, meta[relay.Constant][205] /* ty=Tensor[(1, 1, 1, 1056), float16] */) /* ty=Tensor[(8, 1, 1, 1056), float16] */;
  %231 = multiply(%230, %225) /* ty=Tensor[(8, 14, 14, 1056), float16] */;
  %232 = @tvmgen_default_cutlass_main_285(%231, meta[relay.Constant][206] /* ty=Tensor[(176, 1, 1, 1056), float16] */, meta[relay.Constant][207] /* ty=Tensor[(1, 1, 1, 176), float16] */, %219) /* ty=Tensor[(8, 14, 14, 176), float16] */;
  %233 = @tvmgen_default_cutlass_main_289(%232, meta[relay.Constant][208] /* ty=Tensor[(1056, 1, 1, 176), float16] */, meta[relay.Constant][209] /* ty=Tensor[(1, 1, 1, 1056), float16] */) /* ty=Tensor[(8, 14, 14, 1056), float16] */;
  %234 = layout_transform(meta[relay.Constant][210] /* ty=Tensor[(1056, 3, 3, 1), float16] */, src_layout="OHWI", dst_layout="HWOI") /* ty=Tensor[(3, 3, 1056, 1), float16] */;
  %235 = nn.conv2d(%233, %234, padding=[1, 1, 1, 1], groups=1056, channels=1056, kernel_size=[3, 3], data_layout="NHWC", kernel_layout="HWOI", out_dtype="float16") /* ty=Tensor[(8, 14, 14, 1056), float16] */;
  %236 = add(%235, meta[relay.Constant][211] /* ty=Tensor[(1, 1, 1, 1056), float16] */) /* ty=Tensor[(8, 14, 14, 1056), float16] */;
  %237 = sigmoid(%236) /* ty=Tensor[(8, 14, 14, 1056), float16] */;
  %238 = multiply(%236, %237) /* ty=Tensor[(8, 14, 14, 1056), float16] */;
  %239 = cast(%238, dtype="float32") /* ty=Tensor[(8, 14, 14, 1056), float32] */;
  %240 = mean(%239, axis=[1, 2], keepdims=True) /* ty=Tensor[(8, 1, 1, 1056), float32] */;
  %241 = cast(%240, dtype="float16") /* ty=Tensor[(8, 1, 1, 1056), float16] */;
  %242 = @tvmgen_default_cutlass_main_292(%241, meta[relay.Constant][212] /* ty=Tensor[(44, 1, 1, 1056), float16] */, meta[relay.Constant][213] /* ty=Tensor[(1, 1, 1, 44), float16] */) /* ty=Tensor[(8, 1, 1, 44), float16] */;
  %243 = @tvmgen_default_cutlass_main_295(%242, meta[relay.Constant][214] /* ty=Tensor[(1056, 1, 1, 44), float16] */, meta[relay.Constant][215] /* ty=Tensor[(1, 1, 1, 1056), float16] */) /* ty=Tensor[(8, 1, 1, 1056), float16] */;
  %244 = multiply(%243, %238) /* ty=Tensor[(8, 14, 14, 1056), float16] */;
  %245 = @tvmgen_default_cutlass_main_298(%244, meta[relay.Constant][216] /* ty=Tensor[(176, 1, 1, 1056), float16] */, meta[relay.Constant][217] /* ty=Tensor[(1, 1, 1, 176), float16] */, %232) /* ty=Tensor[(8, 14, 14, 176), float16] */;
  %246 = @tvmgen_default_cutlass_main_302(%245, meta[relay.Constant][218] /* ty=Tensor[(1056, 1, 1, 176), float16] */, meta[relay.Constant][219] /* ty=Tensor[(1, 1, 1, 1056), float16] */) /* ty=Tensor[(8, 14, 14, 1056), float16] */;
  %247 = layout_transform(meta[relay.Constant][220] /* ty=Tensor[(1056, 3, 3, 1), float16] */, src_layout="OHWI", dst_layout="HWOI") /* ty=Tensor[(3, 3, 1056, 1), float16] */;
  %248 = nn.conv2d(%246, %247, padding=[1, 1, 1, 1], groups=1056, channels=1056, kernel_size=[3, 3], data_layout="NHWC", kernel_layout="HWOI", out_dtype="float16") /* ty=Tensor[(8, 14, 14, 1056), float16] */;
  %249 = add(%248, meta[relay.Constant][221] /* ty=Tensor[(1, 1, 1, 1056), float16] */) /* ty=Tensor[(8, 14, 14, 1056), float16] */;
  %250 = sigmoid(%249) /* ty=Tensor[(8, 14, 14, 1056), float16] */;
  %251 = multiply(%249, %250) /* ty=Tensor[(8, 14, 14, 1056), float16] */;
  %252 = cast(%251, dtype="float32") /* ty=Tensor[(8, 14, 14, 1056), float32] */;
  %253 = mean(%252, axis=[1, 2], keepdims=True) /* ty=Tensor[(8, 1, 1, 1056), float32] */;
  %254 = cast(%253, dtype="float16") /* ty=Tensor[(8, 1, 1, 1056), float16] */;
  %255 = @tvmgen_default_cutlass_main_305(%254, meta[relay.Constant][222] /* ty=Tensor[(44, 1, 1, 1056), float16] */, meta[relay.Constant][223] /* ty=Tensor[(1, 1, 1, 44), float16] */) /* ty=Tensor[(8, 1, 1, 44), float16] */;
  %256 = @tvmgen_default_cutlass_main_308(%255, meta[relay.Constant][224] /* ty=Tensor[(1056, 1, 1, 44), float16] */, meta[relay.Constant][225] /* ty=Tensor[(1, 1, 1, 1056), float16] */) /* ty=Tensor[(8, 1, 1, 1056), float16] */;
  %257 = multiply(%256, %251) /* ty=Tensor[(8, 14, 14, 1056), float16] */;
  %258 = @tvmgen_default_cutlass_main_311(%257, meta[relay.Constant][226] /* ty=Tensor[(176, 1, 1, 1056), float16] */, meta[relay.Constant][227] /* ty=Tensor[(1, 1, 1, 176), float16] */, %245) /* ty=Tensor[(8, 14, 14, 176), float16] */;
  %259 = @tvmgen_default_cutlass_main_315(%258, meta[relay.Constant][228] /* ty=Tensor[(1056, 1, 1, 176), float16] */, meta[relay.Constant][229] /* ty=Tensor[(1, 1, 1, 1056), float16] */) /* ty=Tensor[(8, 14, 14, 1056), float16] */;
  %260 = layout_transform(meta[relay.Constant][230] /* ty=Tensor[(1056, 3, 3, 1), float16] */, src_layout="OHWI", dst_layout="HWOI") /* ty=Tensor[(3, 3, 1056, 1), float16] */;
  %261 = nn.conv2d(%259, %260, padding=[1, 1, 1, 1], groups=1056, channels=1056, kernel_size=[3, 3], data_layout="NHWC", kernel_layout="HWOI", out_dtype="float16") /* ty=Tensor[(8, 14, 14, 1056), float16] */;
  %262 = add(%261, meta[relay.Constant][231] /* ty=Tensor[(1, 1, 1, 1056), float16] */) /* ty=Tensor[(8, 14, 14, 1056), float16] */;
  %263 = sigmoid(%262) /* ty=Tensor[(8, 14, 14, 1056), float16] */;
  %264 = multiply(%262, %263) /* ty=Tensor[(8, 14, 14, 1056), float16] */;
  %265 = cast(%264, dtype="float32") /* ty=Tensor[(8, 14, 14, 1056), float32] */;
  %266 = mean(%265, axis=[1, 2], keepdims=True) /* ty=Tensor[(8, 1, 1, 1056), float32] */;
  %267 = cast(%266, dtype="float16") /* ty=Tensor[(8, 1, 1, 1056), float16] */;
  %268 = @tvmgen_default_cutlass_main_318(%267, meta[relay.Constant][232] /* ty=Tensor[(44, 1, 1, 1056), float16] */, meta[relay.Constant][233] /* ty=Tensor[(1, 1, 1, 44), float16] */) /* ty=Tensor[(8, 1, 1, 44), float16] */;
  %269 = @tvmgen_default_cutlass_main_321(%268, meta[relay.Constant][234] /* ty=Tensor[(1056, 1, 1, 44), float16] */, meta[relay.Constant][235] /* ty=Tensor[(1, 1, 1, 1056), float16] */) /* ty=Tensor[(8, 1, 1, 1056), float16] */;
  %270 = multiply(%269, %264) /* ty=Tensor[(8, 14, 14, 1056), float16] */;
  %271 = @tvmgen_default_cutlass_main_324(%270, meta[relay.Constant][236] /* ty=Tensor[(176, 1, 1, 1056), float16] */, meta[relay.Constant][237] /* ty=Tensor[(1, 1, 1, 176), float16] */, %258) /* ty=Tensor[(8, 14, 14, 176), float16] */;
  %272 = @tvmgen_default_cutlass_main_328(%271, meta[relay.Constant][238] /* ty=Tensor[(1056, 1, 1, 176), float16] */, meta[relay.Constant][239] /* ty=Tensor[(1, 1, 1, 1056), float16] */) /* ty=Tensor[(8, 14, 14, 1056), float16] */;
  %273 = layout_transform(meta[relay.Constant][240] /* ty=Tensor[(1056, 3, 3, 1), float16] */, src_layout="OHWI", dst_layout="HWOI") /* ty=Tensor[(3, 3, 1056, 1), float16] */;
  %274 = nn.conv2d(%272, %273, padding=[1, 1, 1, 1], groups=1056, channels=1056, kernel_size=[3, 3], data_layout="NHWC", kernel_layout="HWOI", out_dtype="float16") /* ty=Tensor[(8, 14, 14, 1056), float16] */;
  %275 = add(%274, meta[relay.Constant][241] /* ty=Tensor[(1, 1, 1, 1056), float16] */) /* ty=Tensor[(8, 14, 14, 1056), float16] */;
  %276 = sigmoid(%275) /* ty=Tensor[(8, 14, 14, 1056), float16] */;
  %277 = multiply(%275, %276) /* ty=Tensor[(8, 14, 14, 1056), float16] */;
  %278 = cast(%277, dtype="float32") /* ty=Tensor[(8, 14, 14, 1056), float32] */;
  %279 = mean(%278, axis=[1, 2], keepdims=True) /* ty=Tensor[(8, 1, 1, 1056), float32] */;
  %280 = cast(%279, dtype="float16") /* ty=Tensor[(8, 1, 1, 1056), float16] */;
  %281 = @tvmgen_default_cutlass_main_331(%280, meta[relay.Constant][242] /* ty=Tensor[(44, 1, 1, 1056), float16] */, meta[relay.Constant][243] /* ty=Tensor[(1, 1, 1, 44), float16] */) /* ty=Tensor[(8, 1, 1, 44), float16] */;
  %282 = @tvmgen_default_cutlass_main_334(%281, meta[relay.Constant][244] /* ty=Tensor[(1056, 1, 1, 44), float16] */, meta[relay.Constant][245] /* ty=Tensor[(1, 1, 1, 1056), float16] */) /* ty=Tensor[(8, 1, 1, 1056), float16] */;
  %283 = multiply(%282, %277) /* ty=Tensor[(8, 14, 14, 1056), float16] */;
  %284 = @tvmgen_default_cutlass_main_337(%283, meta[relay.Constant][246] /* ty=Tensor[(176, 1, 1, 1056), float16] */, meta[relay.Constant][247] /* ty=Tensor[(1, 1, 1, 176), float16] */, %271) /* ty=Tensor[(8, 14, 14, 176), float16] */;
  %285 = @tvmgen_default_cutlass_main_341(%284, meta[relay.Constant][248] /* ty=Tensor[(1056, 1, 1, 176), float16] */, meta[relay.Constant][249] /* ty=Tensor[(1, 1, 1, 1056), float16] */) /* ty=Tensor[(8, 14, 14, 1056), float16] */;
  %286 = layout_transform(meta[relay.Constant][250] /* ty=Tensor[(1056, 3, 3, 1), float16] */, src_layout="OHWI", dst_layout="HWOI") /* ty=Tensor[(3, 3, 1056, 1), float16] */;
  %287 = nn.conv2d(%285, %286, padding=[1, 1, 1, 1], groups=1056, channels=1056, kernel_size=[3, 3], data_layout="NHWC", kernel_layout="HWOI", out_dtype="float16") /* ty=Tensor[(8, 14, 14, 1056), float16] */;
  %288 = add(%287, meta[relay.Constant][251] /* ty=Tensor[(1, 1, 1, 1056), float16] */) /* ty=Tensor[(8, 14, 14, 1056), float16] */;
  %289 = sigmoid(%288) /* ty=Tensor[(8, 14, 14, 1056), float16] */;
  %290 = multiply(%288, %289) /* ty=Tensor[(8, 14, 14, 1056), float16] */;
  %291 = cast(%290, dtype="float32") /* ty=Tensor[(8, 14, 14, 1056), float32] */;
  %292 = mean(%291, axis=[1, 2], keepdims=True) /* ty=Tensor[(8, 1, 1, 1056), float32] */;
  %293 = cast(%292, dtype="float16") /* ty=Tensor[(8, 1, 1, 1056), float16] */;
  %294 = @tvmgen_default_cutlass_main_344(%293, meta[relay.Constant][252] /* ty=Tensor[(44, 1, 1, 1056), float16] */, meta[relay.Constant][253] /* ty=Tensor[(1, 1, 1, 44), float16] */) /* ty=Tensor[(8, 1, 1, 44), float16] */;
  %295 = @tvmgen_default_cutlass_main_347(%294, meta[relay.Constant][254] /* ty=Tensor[(1056, 1, 1, 44), float16] */, meta[relay.Constant][255] /* ty=Tensor[(1, 1, 1, 1056), float16] */) /* ty=Tensor[(8, 1, 1, 1056), float16] */;
  %296 = multiply(%295, %290) /* ty=Tensor[(8, 14, 14, 1056), float16] */;
  %297 = @tvmgen_default_cutlass_main_350(%296, meta[relay.Constant][256] /* ty=Tensor[(176, 1, 1, 1056), float16] */, meta[relay.Constant][257] /* ty=Tensor[(1, 1, 1, 176), float16] */, %284) /* ty=Tensor[(8, 14, 14, 176), float16] */;
  %298 = @tvmgen_default_cutlass_main_354(%297, meta[relay.Constant][258] /* ty=Tensor[(1056, 1, 1, 176), float16] */, meta[relay.Constant][259] /* ty=Tensor[(1, 1, 1, 1056), float16] */) /* ty=Tensor[(8, 14, 14, 1056), float16] */;
  %299 = layout_transform(meta[relay.Constant][260] /* ty=Tensor[(1056, 3, 3, 1), float16] */, src_layout="OHWI", dst_layout="HWOI") /* ty=Tensor[(3, 3, 1056, 1), float16] */;
  %300 = nn.conv2d(%298, %299, strides=[2, 2], padding=[0, 0, 1, 1], groups=1056, channels=1056, kernel_size=[3, 3], data_layout="NHWC", kernel_layout="HWOI", out_dtype="float16") /* ty=Tensor[(8, 7, 7, 1056), float16] */;
  %301 = add(%300, meta[relay.Constant][261] /* ty=Tensor[(1, 1, 1, 1056), float16] */) /* ty=Tensor[(8, 7, 7, 1056), float16] */;
  %302 = sigmoid(%301) /* ty=Tensor[(8, 7, 7, 1056), float16] */;
  %303 = multiply(%301, %302) /* ty=Tensor[(8, 7, 7, 1056), float16] */;
  %304 = cast(%303, dtype="float32") /* ty=Tensor[(8, 7, 7, 1056), float32] */;
  %305 = mean(%304, axis=[1, 2], keepdims=True) /* ty=Tensor[(8, 1, 1, 1056), float32] */;
  %306 = cast(%305, dtype="float16") /* ty=Tensor[(8, 1, 1, 1056), float16] */;
  %307 = @tvmgen_default_cutlass_main_357(%306, meta[relay.Constant][262] /* ty=Tensor[(44, 1, 1, 1056), float16] */, meta[relay.Constant][263] /* ty=Tensor[(1, 1, 1, 44), float16] */) /* ty=Tensor[(8, 1, 1, 44), float16] */;
  %308 = @tvmgen_default_cutlass_main_360(%307, meta[relay.Constant][264] /* ty=Tensor[(1056, 1, 1, 44), float16] */, meta[relay.Constant][265] /* ty=Tensor[(1, 1, 1, 1056), float16] */) /* ty=Tensor[(8, 1, 1, 1056), float16] */;
  %309 = multiply(%308, %303) /* ty=Tensor[(8, 7, 7, 1056), float16] */;
  %310 = @tvmgen_default_cutlass_main_363(%309, meta[relay.Constant][266] /* ty=Tensor[(304, 1, 1, 1056), float16] */, meta[relay.Constant][267] /* ty=Tensor[(1, 1, 1, 304), float16] */) /* ty=Tensor[(8, 7, 7, 304), float16] */;
  %311 = @tvmgen_default_cutlass_main_366(%310, meta[relay.Constant][268] /* ty=Tensor[(1824, 1, 1, 304), float16] */, meta[relay.Constant][269] /* ty=Tensor[(1824), float16] */) /* ty=Tensor[(8, 7, 7, 1824), float16] */;
  %312 = layout_transform(meta[relay.Constant][270] /* ty=Tensor[(1824, 3, 3, 1), float16] */, src_layout="OHWI", dst_layout="HWOI") /* ty=Tensor[(3, 3, 1824, 1), float16] */;
  %313 = nn.conv2d(%311, %312, padding=[1, 1, 1, 1], groups=1824, channels=1824, kernel_size=[3, 3], data_layout="NHWC", kernel_layout="HWOI", out_dtype="float16") /* ty=Tensor[(8, 7, 7, 1824), float16] */;
  %314 = add(%313, meta[relay.Constant][271] /* ty=Tensor[(1, 1, 1, 1824), float16] */) /* ty=Tensor[(8, 7, 7, 1824), float16] */;
  %315 = sigmoid(%314) /* ty=Tensor[(8, 7, 7, 1824), float16] */;
  %316 = multiply(%314, %315) /* ty=Tensor[(8, 7, 7, 1824), float16] */;
  %317 = cast(%316, dtype="float32") /* ty=Tensor[(8, 7, 7, 1824), float32] */;
  %318 = mean(%317, axis=[1, 2], keepdims=True) /* ty=Tensor[(8, 1, 1, 1824), float32] */;
  %319 = cast(%318, dtype="float16") /* ty=Tensor[(8, 1, 1, 1824), float16] */;
  %320 = @tvmgen_default_cutlass_main_369(%319, meta[relay.Constant][272] /* ty=Tensor[(76, 1, 1, 1824), float16] */, meta[relay.Constant][273] /* ty=Tensor[(1, 1, 1, 76), float16] */) /* ty=Tensor[(8, 1, 1, 76), float16] */;
  %321 = @tvmgen_default_cutlass_main_372(%320, meta[relay.Constant][274] /* ty=Tensor[(1824, 1, 1, 76), float16] */, meta[relay.Constant][275] /* ty=Tensor[(1, 1, 1, 1824), float16] */) /* ty=Tensor[(8, 1, 1, 1824), float16] */;
  %322 = multiply(%321, %316) /* ty=Tensor[(8, 7, 7, 1824), float16] */;
  %323 = @tvmgen_default_cutlass_main_375(%322, meta[relay.Constant][276] /* ty=Tensor[(304, 1, 1, 1824), float16] */, meta[relay.Constant][277] /* ty=Tensor[(1, 1, 1, 304), float16] */, %310) /* ty=Tensor[(8, 7, 7, 304), float16] */;
  %324 = @tvmgen_default_cutlass_main_379(%323, meta[relay.Constant][278] /* ty=Tensor[(1824, 1, 1, 304), float16] */, meta[relay.Constant][279] /* ty=Tensor[(1, 1, 1, 1824), float16] */) /* ty=Tensor[(8, 7, 7, 1824), float16] */;
  %325 = layout_transform(meta[relay.Constant][280] /* ty=Tensor[(1824, 3, 3, 1), float16] */, src_layout="OHWI", dst_layout="HWOI") /* ty=Tensor[(3, 3, 1824, 1), float16] */;
  %326 = nn.conv2d(%324, %325, padding=[1, 1, 1, 1], groups=1824, channels=1824, kernel_size=[3, 3], data_layout="NHWC", kernel_layout="HWOI", out_dtype="float16") /* ty=Tensor[(8, 7, 7, 1824), float16] */;
  %327 = add(%326, meta[relay.Constant][281] /* ty=Tensor[(1, 1, 1, 1824), float16] */) /* ty=Tensor[(8, 7, 7, 1824), float16] */;
  %328 = sigmoid(%327) /* ty=Tensor[(8, 7, 7, 1824), float16] */;
  %329 = multiply(%327, %328) /* ty=Tensor[(8, 7, 7, 1824), float16] */;
  %330 = cast(%329, dtype="float32") /* ty=Tensor[(8, 7, 7, 1824), float32] */;
  %331 = mean(%330, axis=[1, 2], keepdims=True) /* ty=Tensor[(8, 1, 1, 1824), float32] */;
  %332 = cast(%331, dtype="float16") /* ty=Tensor[(8, 1, 1, 1824), float16] */;
  %333 = @tvmgen_default_cutlass_main_382(%332, meta[relay.Constant][282] /* ty=Tensor[(76, 1, 1, 1824), float16] */, meta[relay.Constant][283] /* ty=Tensor[(1, 1, 1, 76), float16] */) /* ty=Tensor[(8, 1, 1, 76), float16] */;
  %334 = @tvmgen_default_cutlass_main_385(%333, meta[relay.Constant][284] /* ty=Tensor[(1824, 1, 1, 76), float16] */, meta[relay.Constant][285] /* ty=Tensor[(1, 1, 1, 1824), float16] */) /* ty=Tensor[(8, 1, 1, 1824), float16] */;
  %335 = multiply(%334, %329) /* ty=Tensor[(8, 7, 7, 1824), float16] */;
  %336 = @tvmgen_default_cutlass_main_388(%335, meta[relay.Constant][286] /* ty=Tensor[(304, 1, 1, 1824), float16] */, meta[relay.Constant][287] /* ty=Tensor[(1, 1, 1, 304), float16] */, %323) /* ty=Tensor[(8, 7, 7, 304), float16] */;
  %337 = @tvmgen_default_cutlass_main_392(%336, meta[relay.Constant][288] /* ty=Tensor[(1824, 1, 1, 304), float16] */, meta[relay.Constant][289] /* ty=Tensor[(1, 1, 1, 1824), float16] */) /* ty=Tensor[(8, 7, 7, 1824), float16] */;
  %338 = layout_transform(meta[relay.Constant][290] /* ty=Tensor[(1824, 3, 3, 1), float16] */, src_layout="OHWI", dst_layout="HWOI") /* ty=Tensor[(3, 3, 1824, 1), float16] */;
  %339 = nn.conv2d(%337, %338, padding=[1, 1, 1, 1], groups=1824, channels=1824, kernel_size=[3, 3], data_layout="NHWC", kernel_layout="HWOI", out_dtype="float16") /* ty=Tensor[(8, 7, 7, 1824), float16] */;
  %340 = add(%339, meta[relay.Constant][291] /* ty=Tensor[(1, 1, 1, 1824), float16] */) /* ty=Tensor[(8, 7, 7, 1824), float16] */;
  %341 = sigmoid(%340) /* ty=Tensor[(8, 7, 7, 1824), float16] */;
  %342 = multiply(%340, %341) /* ty=Tensor[(8, 7, 7, 1824), float16] */;
  %343 = cast(%342, dtype="float32") /* ty=Tensor[(8, 7, 7, 1824), float32] */;
  %344 = mean(%343, axis=[1, 2], keepdims=True) /* ty=Tensor[(8, 1, 1, 1824), float32] */;
  %345 = cast(%344, dtype="float16") /* ty=Tensor[(8, 1, 1, 1824), float16] */;
  %346 = @tvmgen_default_cutlass_main_395(%345, meta[relay.Constant][292] /* ty=Tensor[(76, 1, 1, 1824), float16] */, meta[relay.Constant][293] /* ty=Tensor[(1, 1, 1, 76), float16] */) /* ty=Tensor[(8, 1, 1, 76), float16] */;
  %347 = @tvmgen_default_cutlass_main_398(%346, meta[relay.Constant][294] /* ty=Tensor[(1824, 1, 1, 76), float16] */, meta[relay.Constant][295] /* ty=Tensor[(1, 1, 1, 1824), float16] */) /* ty=Tensor[(8, 1, 1, 1824), float16] */;
  %348 = multiply(%347, %342) /* ty=Tensor[(8, 7, 7, 1824), float16] */;
  %349 = @tvmgen_default_cutlass_main_401(%348, meta[relay.Constant][296] /* ty=Tensor[(304, 1, 1, 1824), float16] */, meta[relay.Constant][297] /* ty=Tensor[(1, 1, 1, 304), float16] */, %336) /* ty=Tensor[(8, 7, 7, 304), float16] */;
  %350 = @tvmgen_default_cutlass_main_405(%349, meta[relay.Constant][298] /* ty=Tensor[(1824, 1, 1, 304), float16] */, meta[relay.Constant][299] /* ty=Tensor[(1, 1, 1, 1824), float16] */) /* ty=Tensor[(8, 7, 7, 1824), float16] */;
  %351 = layout_transform(meta[relay.Constant][300] /* ty=Tensor[(1824, 3, 3, 1), float16] */, src_layout="OHWI", dst_layout="HWOI") /* ty=Tensor[(3, 3, 1824, 1), float16] */;
  %352 = nn.conv2d(%350, %351, padding=[1, 1, 1, 1], groups=1824, channels=1824, kernel_size=[3, 3], data_layout="NHWC", kernel_layout="HWOI", out_dtype="float16") /* ty=Tensor[(8, 7, 7, 1824), float16] */;
  %353 = add(%352, meta[relay.Constant][301] /* ty=Tensor[(1, 1, 1, 1824), float16] */) /* ty=Tensor[(8, 7, 7, 1824), float16] */;
  %354 = sigmoid(%353) /* ty=Tensor[(8, 7, 7, 1824), float16] */;
  %355 = multiply(%353, %354) /* ty=Tensor[(8, 7, 7, 1824), float16] */;
  %356 = cast(%355, dtype="float32") /* ty=Tensor[(8, 7, 7, 1824), float32] */;
  %357 = mean(%356, axis=[1, 2], keepdims=True) /* ty=Tensor[(8, 1, 1, 1824), float32] */;
  %358 = cast(%357, dtype="float16") /* ty=Tensor[(8, 1, 1, 1824), float16] */;
  %359 = @tvmgen_default_cutlass_main_408(%358, meta[relay.Constant][302] /* ty=Tensor[(76, 1, 1, 1824), float16] */, meta[relay.Constant][303] /* ty=Tensor[(1, 1, 1, 76), float16] */) /* ty=Tensor[(8, 1, 1, 76), float16] */;
  %360 = @tvmgen_default_cutlass_main_411(%359, meta[relay.Constant][304] /* ty=Tensor[(1824, 1, 1, 76), float16] */, meta[relay.Constant][305] /* ty=Tensor[(1, 1, 1, 1824), float16] */) /* ty=Tensor[(8, 1, 1, 1824), float16] */;
  %361 = multiply(%360, %355) /* ty=Tensor[(8, 7, 7, 1824), float16] */;
  %362 = @tvmgen_default_cutlass_main_414(%361, meta[relay.Constant][306] /* ty=Tensor[(304, 1, 1, 1824), float16] */, meta[relay.Constant][307] /* ty=Tensor[(1, 1, 1, 304), float16] */, %349) /* ty=Tensor[(8, 7, 7, 304), float16] */;
  %363 = @tvmgen_default_cutlass_main_418(%362, meta[relay.Constant][308] /* ty=Tensor[(1824, 1, 1, 304), float16] */, meta[relay.Constant][309] /* ty=Tensor[(1, 1, 1, 1824), float16] */) /* ty=Tensor[(8, 7, 7, 1824), float16] */;
  %364 = layout_transform(meta[relay.Constant][310] /* ty=Tensor[(1824, 3, 3, 1), float16] */, src_layout="OHWI", dst_layout="HWOI") /* ty=Tensor[(3, 3, 1824, 1), float16] */;
  %365 = nn.conv2d(%363, %364, padding=[1, 1, 1, 1], groups=1824, channels=1824, kernel_size=[3, 3], data_layout="NHWC", kernel_layout="HWOI", out_dtype="float16") /* ty=Tensor[(8, 7, 7, 1824), float16] */;
  %366 = add(%365, meta[relay.Constant][311] /* ty=Tensor[(1, 1, 1, 1824), float16] */) /* ty=Tensor[(8, 7, 7, 1824), float16] */;
  %367 = sigmoid(%366) /* ty=Tensor[(8, 7, 7, 1824), float16] */;
  %368 = multiply(%366, %367) /* ty=Tensor[(8, 7, 7, 1824), float16] */;
  %369 = cast(%368, dtype="float32") /* ty=Tensor[(8, 7, 7, 1824), float32] */;
  %370 = mean(%369, axis=[1, 2], keepdims=True) /* ty=Tensor[(8, 1, 1, 1824), float32] */;
  %371 = cast(%370, dtype="float16") /* ty=Tensor[(8, 1, 1, 1824), float16] */;
  %372 = @tvmgen_default_cutlass_main_421(%371, meta[relay.Constant][312] /* ty=Tensor[(76, 1, 1, 1824), float16] */, meta[relay.Constant][313] /* ty=Tensor[(1, 1, 1, 76), float16] */) /* ty=Tensor[(8, 1, 1, 76), float16] */;
  %373 = @tvmgen_default_cutlass_main_424(%372, meta[relay.Constant][314] /* ty=Tensor[(1824, 1, 1, 76), float16] */, meta[relay.Constant][315] /* ty=Tensor[(1, 1, 1, 1824), float16] */) /* ty=Tensor[(8, 1, 1, 1824), float16] */;
  %374 = multiply(%373, %368) /* ty=Tensor[(8, 7, 7, 1824), float16] */;
  %375 = @tvmgen_default_cutlass_main_427(%374, meta[relay.Constant][316] /* ty=Tensor[(304, 1, 1, 1824), float16] */, meta[relay.Constant][317] /* ty=Tensor[(1, 1, 1, 304), float16] */, %362) /* ty=Tensor[(8, 7, 7, 304), float16] */;
  %376 = @tvmgen_default_cutlass_main_431(%375, meta[relay.Constant][318] /* ty=Tensor[(1824, 1, 1, 304), float16] */, meta[relay.Constant][319] /* ty=Tensor[(1, 1, 1, 1824), float16] */) /* ty=Tensor[(8, 7, 7, 1824), float16] */;
  %377 = layout_transform(meta[relay.Constant][320] /* ty=Tensor[(1824, 3, 3, 1), float16] */, src_layout="OHWI", dst_layout="HWOI") /* ty=Tensor[(3, 3, 1824, 1), float16] */;
  %378 = nn.conv2d(%376, %377, padding=[1, 1, 1, 1], groups=1824, channels=1824, kernel_size=[3, 3], data_layout="NHWC", kernel_layout="HWOI", out_dtype="float16") /* ty=Tensor[(8, 7, 7, 1824), float16] */;
  %379 = add(%378, meta[relay.Constant][321] /* ty=Tensor[(1, 1, 1, 1824), float16] */) /* ty=Tensor[(8, 7, 7, 1824), float16] */;
  %380 = sigmoid(%379) /* ty=Tensor[(8, 7, 7, 1824), float16] */;
  %381 = multiply(%379, %380) /* ty=Tensor[(8, 7, 7, 1824), float16] */;
  %382 = cast(%381, dtype="float32") /* ty=Tensor[(8, 7, 7, 1824), float32] */;
  %383 = mean(%382, axis=[1, 2], keepdims=True) /* ty=Tensor[(8, 1, 1, 1824), float32] */;
  %384 = cast(%383, dtype="float16") /* ty=Tensor[(8, 1, 1, 1824), float16] */;
  %385 = @tvmgen_default_cutlass_main_434(%384, meta[relay.Constant][322] /* ty=Tensor[(76, 1, 1, 1824), float16] */, meta[relay.Constant][323] /* ty=Tensor[(1, 1, 1, 76), float16] */) /* ty=Tensor[(8, 1, 1, 76), float16] */;
  %386 = @tvmgen_default_cutlass_main_437(%385, meta[relay.Constant][324] /* ty=Tensor[(1824, 1, 1, 76), float16] */, meta[relay.Constant][325] /* ty=Tensor[(1, 1, 1, 1824), float16] */) /* ty=Tensor[(8, 1, 1, 1824), float16] */;
  %387 = multiply(%386, %381) /* ty=Tensor[(8, 7, 7, 1824), float16] */;
  %388 = @tvmgen_default_cutlass_main_440(%387, meta[relay.Constant][326] /* ty=Tensor[(304, 1, 1, 1824), float16] */, meta[relay.Constant][327] /* ty=Tensor[(1, 1, 1, 304), float16] */, %375) /* ty=Tensor[(8, 7, 7, 304), float16] */;
  %389 = @tvmgen_default_cutlass_main_444(%388, meta[relay.Constant][328] /* ty=Tensor[(1824, 1, 1, 304), float16] */, meta[relay.Constant][329] /* ty=Tensor[(1, 1, 1, 1824), float16] */) /* ty=Tensor[(8, 7, 7, 1824), float16] */;
  %390 = layout_transform(meta[relay.Constant][330] /* ty=Tensor[(1824, 3, 3, 1), float16] */, src_layout="OHWI", dst_layout="HWOI") /* ty=Tensor[(3, 3, 1824, 1), float16] */;
  %391 = nn.conv2d(%389, %390, padding=[1, 1, 1, 1], groups=1824, channels=1824, kernel_size=[3, 3], data_layout="NHWC", kernel_layout="HWOI", out_dtype="float16") /* ty=Tensor[(8, 7, 7, 1824), float16] */;
  %392 = add(%391, meta[relay.Constant][331] /* ty=Tensor[(1, 1, 1, 1824), float16] */) /* ty=Tensor[(8, 7, 7, 1824), float16] */;
  %393 = sigmoid(%392) /* ty=Tensor[(8, 7, 7, 1824), float16] */;
  %394 = multiply(%392, %393) /* ty=Tensor[(8, 7, 7, 1824), float16] */;
  %395 = cast(%394, dtype="float32") /* ty=Tensor[(8, 7, 7, 1824), float32] */;
  %396 = mean(%395, axis=[1, 2], keepdims=True) /* ty=Tensor[(8, 1, 1, 1824), float32] */;
  %397 = cast(%396, dtype="float16") /* ty=Tensor[(8, 1, 1, 1824), float16] */;
  %398 = @tvmgen_default_cutlass_main_447(%397, meta[relay.Constant][332] /* ty=Tensor[(76, 1, 1, 1824), float16] */, meta[relay.Constant][333] /* ty=Tensor[(1, 1, 1, 76), float16] */) /* ty=Tensor[(8, 1, 1, 76), float16] */;
  %399 = @tvmgen_default_cutlass_main_450(%398, meta[relay.Constant][334] /* ty=Tensor[(1824, 1, 1, 76), float16] */, meta[relay.Constant][335] /* ty=Tensor[(1, 1, 1, 1824), float16] */) /* ty=Tensor[(8, 1, 1, 1824), float16] */;
  %400 = multiply(%399, %394) /* ty=Tensor[(8, 7, 7, 1824), float16] */;
  %401 = @tvmgen_default_cutlass_main_453(%400, meta[relay.Constant][336] /* ty=Tensor[(304, 1, 1, 1824), float16] */, meta[relay.Constant][337] /* ty=Tensor[(1, 1, 1, 304), float16] */, %388) /* ty=Tensor[(8, 7, 7, 304), float16] */;
  %402 = @tvmgen_default_cutlass_main_457(%401, meta[relay.Constant][338] /* ty=Tensor[(1824, 1, 1, 304), float16] */, meta[relay.Constant][339] /* ty=Tensor[(1, 1, 1, 1824), float16] */) /* ty=Tensor[(8, 7, 7, 1824), float16] */;
  %403 = layout_transform(meta[relay.Constant][340] /* ty=Tensor[(1824, 3, 3, 1), float16] */, src_layout="OHWI", dst_layout="HWOI") /* ty=Tensor[(3, 3, 1824, 1), float16] */;
  %404 = nn.conv2d(%402, %403, padding=[1, 1, 1, 1], groups=1824, channels=1824, kernel_size=[3, 3], data_layout="NHWC", kernel_layout="HWOI", out_dtype="float16") /* ty=Tensor[(8, 7, 7, 1824), float16] */;
  %405 = add(%404, meta[relay.Constant][341] /* ty=Tensor[(1, 1, 1, 1824), float16] */) /* ty=Tensor[(8, 7, 7, 1824), float16] */;
  %406 = sigmoid(%405) /* ty=Tensor[(8, 7, 7, 1824), float16] */;
  %407 = multiply(%405, %406) /* ty=Tensor[(8, 7, 7, 1824), float16] */;
  %408 = cast(%407, dtype="float32") /* ty=Tensor[(8, 7, 7, 1824), float32] */;
  %409 = mean(%408, axis=[1, 2], keepdims=True) /* ty=Tensor[(8, 1, 1, 1824), float32] */;
  %410 = cast(%409, dtype="float16") /* ty=Tensor[(8, 1, 1, 1824), float16] */;
  %411 = @tvmgen_default_cutlass_main_460(%410, meta[relay.Constant][342] /* ty=Tensor[(76, 1, 1, 1824), float16] */, meta[relay.Constant][343] /* ty=Tensor[(1, 1, 1, 76), float16] */) /* ty=Tensor[(8, 1, 1, 76), float16] */;
  %412 = @tvmgen_default_cutlass_main_463(%411, meta[relay.Constant][344] /* ty=Tensor[(1824, 1, 1, 76), float16] */, meta[relay.Constant][345] /* ty=Tensor[(1, 1, 1, 1824), float16] */) /* ty=Tensor[(8, 1, 1, 1824), float16] */;
  %413 = multiply(%412, %407) /* ty=Tensor[(8, 7, 7, 1824), float16] */;
  %414 = @tvmgen_default_cutlass_main_466(%413, meta[relay.Constant][346] /* ty=Tensor[(304, 1, 1, 1824), float16] */, meta[relay.Constant][347] /* ty=Tensor[(1, 1, 1, 304), float16] */, %401) /* ty=Tensor[(8, 7, 7, 304), float16] */;
  %415 = @tvmgen_default_cutlass_main_470(%414, meta[relay.Constant][348] /* ty=Tensor[(1824, 1, 1, 304), float16] */, meta[relay.Constant][349] /* ty=Tensor[(1, 1, 1, 1824), float16] */) /* ty=Tensor[(8, 7, 7, 1824), float16] */;
  %416 = layout_transform(meta[relay.Constant][350] /* ty=Tensor[(1824, 3, 3, 1), float16] */, src_layout="OHWI", dst_layout="HWOI") /* ty=Tensor[(3, 3, 1824, 1), float16] */;
  %417 = nn.conv2d(%415, %416, padding=[1, 1, 1, 1], groups=1824, channels=1824, kernel_size=[3, 3], data_layout="NHWC", kernel_layout="HWOI", out_dtype="float16") /* ty=Tensor[(8, 7, 7, 1824), float16] */;
  %418 = add(%417, meta[relay.Constant][351] /* ty=Tensor[(1, 1, 1, 1824), float16] */) /* ty=Tensor[(8, 7, 7, 1824), float16] */;
  %419 = sigmoid(%418) /* ty=Tensor[(8, 7, 7, 1824), float16] */;
  %420 = multiply(%418, %419) /* ty=Tensor[(8, 7, 7, 1824), float16] */;
  %421 = cast(%420, dtype="float32") /* ty=Tensor[(8, 7, 7, 1824), float32] */;
  %422 = mean(%421, axis=[1, 2], keepdims=True) /* ty=Tensor[(8, 1, 1, 1824), float32] */;
  %423 = cast(%422, dtype="float16") /* ty=Tensor[(8, 1, 1, 1824), float16] */;
  %424 = @tvmgen_default_cutlass_main_473(%423, meta[relay.Constant][352] /* ty=Tensor[(76, 1, 1, 1824), float16] */, meta[relay.Constant][353] /* ty=Tensor[(1, 1, 1, 76), float16] */) /* ty=Tensor[(8, 1, 1, 76), float16] */;
  %425 = @tvmgen_default_cutlass_main_476(%424, meta[relay.Constant][354] /* ty=Tensor[(1824, 1, 1, 76), float16] */, meta[relay.Constant][355] /* ty=Tensor[(1, 1, 1, 1824), float16] */) /* ty=Tensor[(8, 1, 1, 1824), float16] */;
  %426 = multiply(%425, %420) /* ty=Tensor[(8, 7, 7, 1824), float16] */;
  %427 = @tvmgen_default_cutlass_main_479(%426, meta[relay.Constant][356] /* ty=Tensor[(304, 1, 1, 1824), float16] */, meta[relay.Constant][357] /* ty=Tensor[(1, 1, 1, 304), float16] */, %414) /* ty=Tensor[(8, 7, 7, 304), float16] */;
  %428 = @tvmgen_default_cutlass_main_483(%427, meta[relay.Constant][358] /* ty=Tensor[(1824, 1, 1, 304), float16] */, meta[relay.Constant][359] /* ty=Tensor[(1, 1, 1, 1824), float16] */) /* ty=Tensor[(8, 7, 7, 1824), float16] */;
  %429 = layout_transform(meta[relay.Constant][360] /* ty=Tensor[(1824, 3, 3, 1), float16] */, src_layout="OHWI", dst_layout="HWOI") /* ty=Tensor[(3, 3, 1824, 1), float16] */;
  %430 = nn.conv2d(%428, %429, padding=[1, 1, 1, 1], groups=1824, channels=1824, kernel_size=[3, 3], data_layout="NHWC", kernel_layout="HWOI", out_dtype="float16") /* ty=Tensor[(8, 7, 7, 1824), float16] */;
  %431 = add(%430, meta[relay.Constant][361] /* ty=Tensor[(1, 1, 1, 1824), float16] */) /* ty=Tensor[(8, 7, 7, 1824), float16] */;
  %432 = sigmoid(%431) /* ty=Tensor[(8, 7, 7, 1824), float16] */;
  %433 = multiply(%431, %432) /* ty=Tensor[(8, 7, 7, 1824), float16] */;
  %434 = cast(%433, dtype="float32") /* ty=Tensor[(8, 7, 7, 1824), float32] */;
  %435 = mean(%434, axis=[1, 2], keepdims=True) /* ty=Tensor[(8, 1, 1, 1824), float32] */;
  %436 = cast(%435, dtype="float16") /* ty=Tensor[(8, 1, 1, 1824), float16] */;
  %437 = @tvmgen_default_cutlass_main_486(%436, meta[relay.Constant][362] /* ty=Tensor[(76, 1, 1, 1824), float16] */, meta[relay.Constant][363] /* ty=Tensor[(1, 1, 1, 76), float16] */) /* ty=Tensor[(8, 1, 1, 76), float16] */;
  %438 = @tvmgen_default_cutlass_main_489(%437, meta[relay.Constant][364] /* ty=Tensor[(1824, 1, 1, 76), float16] */, meta[relay.Constant][365] /* ty=Tensor[(1, 1, 1, 1824), float16] */) /* ty=Tensor[(8, 1, 1, 1824), float16] */;
  %439 = multiply(%438, %433) /* ty=Tensor[(8, 7, 7, 1824), float16] */;
  %440 = @tvmgen_default_cutlass_main_492(%439, meta[relay.Constant][366] /* ty=Tensor[(304, 1, 1, 1824), float16] */, meta[relay.Constant][367] /* ty=Tensor[(1, 1, 1, 304), float16] */, %427) /* ty=Tensor[(8, 7, 7, 304), float16] */;
  %441 = @tvmgen_default_cutlass_main_496(%440, meta[relay.Constant][368] /* ty=Tensor[(1824, 1, 1, 304), float16] */, meta[relay.Constant][369] /* ty=Tensor[(1, 1, 1, 1824), float16] */) /* ty=Tensor[(8, 7, 7, 1824), float16] */;
  %442 = layout_transform(meta[relay.Constant][370] /* ty=Tensor[(1824, 3, 3, 1), float16] */, src_layout="OHWI", dst_layout="HWOI") /* ty=Tensor[(3, 3, 1824, 1), float16] */;
  %443 = nn.conv2d(%441, %442, padding=[1, 1, 1, 1], groups=1824, channels=1824, kernel_size=[3, 3], data_layout="NHWC", kernel_layout="HWOI", out_dtype="float16") /* ty=Tensor[(8, 7, 7, 1824), float16] */;
  %444 = add(%443, meta[relay.Constant][371] /* ty=Tensor[(1, 1, 1, 1824), float16] */) /* ty=Tensor[(8, 7, 7, 1824), float16] */;
  %445 = sigmoid(%444) /* ty=Tensor[(8, 7, 7, 1824), float16] */;
  %446 = multiply(%444, %445) /* ty=Tensor[(8, 7, 7, 1824), float16] */;
  %447 = cast(%446, dtype="float32") /* ty=Tensor[(8, 7, 7, 1824), float32] */;
  %448 = mean(%447, axis=[1, 2], keepdims=True) /* ty=Tensor[(8, 1, 1, 1824), float32] */;
  %449 = cast(%448, dtype="float16") /* ty=Tensor[(8, 1, 1, 1824), float16] */;
  %450 = @tvmgen_default_cutlass_main_499(%449, meta[relay.Constant][372] /* ty=Tensor[(76, 1, 1, 1824), float16] */, meta[relay.Constant][373] /* ty=Tensor[(1, 1, 1, 76), float16] */) /* ty=Tensor[(8, 1, 1, 76), float16] */;
  %451 = @tvmgen_default_cutlass_main_502(%450, meta[relay.Constant][374] /* ty=Tensor[(1824, 1, 1, 76), float16] */, meta[relay.Constant][375] /* ty=Tensor[(1, 1, 1, 1824), float16] */) /* ty=Tensor[(8, 1, 1, 1824), float16] */;
  %452 = multiply(%451, %446) /* ty=Tensor[(8, 7, 7, 1824), float16] */;
  %453 = @tvmgen_default_cutlass_main_505(%452, meta[relay.Constant][376] /* ty=Tensor[(304, 1, 1, 1824), float16] */, meta[relay.Constant][377] /* ty=Tensor[(1, 1, 1, 304), float16] */, %440) /* ty=Tensor[(8, 7, 7, 304), float16] */;
  %454 = @tvmgen_default_cutlass_main_509(%453, meta[relay.Constant][378] /* ty=Tensor[(1824, 1, 1, 304), float16] */, meta[relay.Constant][379] /* ty=Tensor[(1, 1, 1, 1824), float16] */) /* ty=Tensor[(8, 7, 7, 1824), float16] */;
  %455 = layout_transform(meta[relay.Constant][380] /* ty=Tensor[(1824, 3, 3, 1), float16] */, src_layout="OHWI", dst_layout="HWOI") /* ty=Tensor[(3, 3, 1824, 1), float16] */;
  %456 = nn.conv2d(%454, %455, padding=[1, 1, 1, 1], groups=1824, channels=1824, kernel_size=[3, 3], data_layout="NHWC", kernel_layout="HWOI", out_dtype="float16") /* ty=Tensor[(8, 7, 7, 1824), float16] */;
  %457 = add(%456, meta[relay.Constant][381] /* ty=Tensor[(1, 1, 1, 1824), float16] */) /* ty=Tensor[(8, 7, 7, 1824), float16] */;
  %458 = sigmoid(%457) /* ty=Tensor[(8, 7, 7, 1824), float16] */;
  %459 = multiply(%457, %458) /* ty=Tensor[(8, 7, 7, 1824), float16] */;
  %460 = cast(%459, dtype="float32") /* ty=Tensor[(8, 7, 7, 1824), float32] */;
  %461 = mean(%460, axis=[1, 2], keepdims=True) /* ty=Tensor[(8, 1, 1, 1824), float32] */;
  %462 = cast(%461, dtype="float16") /* ty=Tensor[(8, 1, 1, 1824), float16] */;
  %463 = @tvmgen_default_cutlass_main_512(%462, meta[relay.Constant][382] /* ty=Tensor[(76, 1, 1, 1824), float16] */, meta[relay.Constant][383] /* ty=Tensor[(1, 1, 1, 76), float16] */) /* ty=Tensor[(8, 1, 1, 76), float16] */;
  %464 = @tvmgen_default_cutlass_main_515(%463, meta[relay.Constant][384] /* ty=Tensor[(1824, 1, 1, 76), float16] */, meta[relay.Constant][385] /* ty=Tensor[(1, 1, 1, 1824), float16] */) /* ty=Tensor[(8, 1, 1, 1824), float16] */;
  %465 = multiply(%464, %459) /* ty=Tensor[(8, 7, 7, 1824), float16] */;
  %466 = @tvmgen_default_cutlass_main_518(%465, meta[relay.Constant][386] /* ty=Tensor[(304, 1, 1, 1824), float16] */, meta[relay.Constant][387] /* ty=Tensor[(1, 1, 1, 304), float16] */, %453) /* ty=Tensor[(8, 7, 7, 304), float16] */;
  %467 = @tvmgen_default_cutlass_main_522(%466, meta[relay.Constant][388] /* ty=Tensor[(1824, 1, 1, 304), float16] */, meta[relay.Constant][389] /* ty=Tensor[(1, 1, 1, 1824), float16] */) /* ty=Tensor[(8, 7, 7, 1824), float16] */;
  %468 = layout_transform(meta[relay.Constant][390] /* ty=Tensor[(1824, 3, 3, 1), float16] */, src_layout="OHWI", dst_layout="HWOI") /* ty=Tensor[(3, 3, 1824, 1), float16] */;
  %469 = nn.conv2d(%467, %468, padding=[1, 1, 1, 1], groups=1824, channels=1824, kernel_size=[3, 3], data_layout="NHWC", kernel_layout="HWOI", out_dtype="float16") /* ty=Tensor[(8, 7, 7, 1824), float16] */;
  %470 = add(%469, meta[relay.Constant][391] /* ty=Tensor[(1, 1, 1, 1824), float16] */) /* ty=Tensor[(8, 7, 7, 1824), float16] */;
  %471 = sigmoid(%470) /* ty=Tensor[(8, 7, 7, 1824), float16] */;
  %472 = multiply(%470, %471) /* ty=Tensor[(8, 7, 7, 1824), float16] */;
  %473 = cast(%472, dtype="float32") /* ty=Tensor[(8, 7, 7, 1824), float32] */;
  %474 = mean(%473, axis=[1, 2], keepdims=True) /* ty=Tensor[(8, 1, 1, 1824), float32] */;
  %475 = cast(%474, dtype="float16") /* ty=Tensor[(8, 1, 1, 1824), float16] */;
  %476 = @tvmgen_default_cutlass_main_525(%475, meta[relay.Constant][392] /* ty=Tensor[(76, 1, 1, 1824), float16] */, meta[relay.Constant][393] /* ty=Tensor[(1, 1, 1, 76), float16] */) /* ty=Tensor[(8, 1, 1, 76), float16] */;
  %477 = @tvmgen_default_cutlass_main_528(%476, meta[relay.Constant][394] /* ty=Tensor[(1824, 1, 1, 76), float16] */, meta[relay.Constant][395] /* ty=Tensor[(1, 1, 1, 1824), float16] */) /* ty=Tensor[(8, 1, 1, 1824), float16] */;
  %478 = multiply(%477, %472) /* ty=Tensor[(8, 7, 7, 1824), float16] */;
  %479 = @tvmgen_default_cutlass_main_531(%478, meta[relay.Constant][396] /* ty=Tensor[(304, 1, 1, 1824), float16] */, meta[relay.Constant][397] /* ty=Tensor[(1, 1, 1, 304), float16] */, %466) /* ty=Tensor[(8, 7, 7, 304), float16] */;
  %480 = @tvmgen_default_cutlass_main_535(%479, meta[relay.Constant][398] /* ty=Tensor[(1824, 1, 1, 304), float16] */, meta[relay.Constant][399] /* ty=Tensor[(1, 1, 1, 1824), float16] */) /* ty=Tensor[(8, 7, 7, 1824), float16] */;
  %481 = layout_transform(meta[relay.Constant][400] /* ty=Tensor[(1824, 3, 3, 1), float16] */, src_layout="OHWI", dst_layout="HWOI") /* ty=Tensor[(3, 3, 1824, 1), float16] */;
  %482 = nn.conv2d(%480, %481, padding=[1, 1, 1, 1], groups=1824, channels=1824, kernel_size=[3, 3], data_layout="NHWC", kernel_layout="HWOI", out_dtype="float16") /* ty=Tensor[(8, 7, 7, 1824), float16] */;
  %483 = add(%482, meta[relay.Constant][401] /* ty=Tensor[(1, 1, 1, 1824), float16] */) /* ty=Tensor[(8, 7, 7, 1824), float16] */;
  %484 = sigmoid(%483) /* ty=Tensor[(8, 7, 7, 1824), float16] */;
  %485 = multiply(%483, %484) /* ty=Tensor[(8, 7, 7, 1824), float16] */;
  %486 = cast(%485, dtype="float32") /* ty=Tensor[(8, 7, 7, 1824), float32] */;
  %487 = mean(%486, axis=[1, 2], keepdims=True) /* ty=Tensor[(8, 1, 1, 1824), float32] */;
  %488 = cast(%487, dtype="float16") /* ty=Tensor[(8, 1, 1, 1824), float16] */;
  %489 = @tvmgen_default_cutlass_main_538(%488, meta[relay.Constant][402] /* ty=Tensor[(76, 1, 1, 1824), float16] */, meta[relay.Constant][403] /* ty=Tensor[(1, 1, 1, 76), float16] */) /* ty=Tensor[(8, 1, 1, 76), float16] */;
  %490 = @tvmgen_default_cutlass_main_541(%489, meta[relay.Constant][404] /* ty=Tensor[(1824, 1, 1, 76), float16] */, meta[relay.Constant][405] /* ty=Tensor[(1, 1, 1, 1824), float16] */) /* ty=Tensor[(8, 1, 1, 1824), float16] */;
  %491 = multiply(%490, %485) /* ty=Tensor[(8, 7, 7, 1824), float16] */;
  %492 = @tvmgen_default_cutlass_main_544(%491, meta[relay.Constant][406] /* ty=Tensor[(304, 1, 1, 1824), float16] */, meta[relay.Constant][407] /* ty=Tensor[(1, 1, 1, 304), float16] */, %479) /* ty=Tensor[(8, 7, 7, 304), float16] */;
  %493 = @tvmgen_default_cutlass_main_548(%492, meta[relay.Constant][408] /* ty=Tensor[(1824, 1, 1, 304), float16] */, meta[relay.Constant][409] /* ty=Tensor[(1, 1, 1, 1824), float16] */) /* ty=Tensor[(8, 7, 7, 1824), float16] */;
  %494 = layout_transform(meta[relay.Constant][410] /* ty=Tensor[(1824, 3, 3, 1), float16] */, src_layout="OHWI", dst_layout="HWOI") /* ty=Tensor[(3, 3, 1824, 1), float16] */;
  %495 = nn.conv2d(%493, %494, padding=[1, 1, 1, 1], groups=1824, channels=1824, kernel_size=[3, 3], data_layout="NHWC", kernel_layout="HWOI", out_dtype="float16") /* ty=Tensor[(8, 7, 7, 1824), float16] */;
  %496 = add(%495, meta[relay.Constant][411] /* ty=Tensor[(1, 1, 1, 1824), float16] */) /* ty=Tensor[(8, 7, 7, 1824), float16] */;
  %497 = sigmoid(%496) /* ty=Tensor[(8, 7, 7, 1824), float16] */;
  %498 = multiply(%496, %497) /* ty=Tensor[(8, 7, 7, 1824), float16] */;
  %499 = cast(%498, dtype="float32") /* ty=Tensor[(8, 7, 7, 1824), float32] */;
  %500 = mean(%499, axis=[1, 2], keepdims=True) /* ty=Tensor[(8, 1, 1, 1824), float32] */;
  %501 = cast(%500, dtype="float16") /* ty=Tensor[(8, 1, 1, 1824), float16] */;
  %502 = @tvmgen_default_cutlass_main_551(%501, meta[relay.Constant][412] /* ty=Tensor[(76, 1, 1, 1824), float16] */, meta[relay.Constant][413] /* ty=Tensor[(1, 1, 1, 76), float16] */) /* ty=Tensor[(8, 1, 1, 76), float16] */;
  %503 = @tvmgen_default_cutlass_main_554(%502, meta[relay.Constant][414] /* ty=Tensor[(1824, 1, 1, 76), float16] */, meta[relay.Constant][415] /* ty=Tensor[(1, 1, 1, 1824), float16] */) /* ty=Tensor[(8, 1, 1, 1824), float16] */;
  %504 = multiply(%503, %498) /* ty=Tensor[(8, 7, 7, 1824), float16] */;
  %505 = @tvmgen_default_cutlass_main_557(%504, meta[relay.Constant][416] /* ty=Tensor[(304, 1, 1, 1824), float16] */, meta[relay.Constant][417] /* ty=Tensor[(1, 1, 1, 304), float16] */, %492) /* ty=Tensor[(8, 7, 7, 304), float16] */;
  %506 = @tvmgen_default_cutlass_main_561(%505, meta[relay.Constant][418] /* ty=Tensor[(1824, 1, 1, 304), float16] */, meta[relay.Constant][419] /* ty=Tensor[(1, 1, 1, 1824), float16] */) /* ty=Tensor[(8, 7, 7, 1824), float16] */;
  %507 = layout_transform(meta[relay.Constant][420] /* ty=Tensor[(1824, 3, 3, 1), float16] */, src_layout="OHWI", dst_layout="HWOI") /* ty=Tensor[(3, 3, 1824, 1), float16] */;
  %508 = nn.conv2d(%506, %507, padding=[1, 1, 1, 1], groups=1824, channels=1824, kernel_size=[3, 3], data_layout="NHWC", kernel_layout="HWOI", out_dtype="float16") /* ty=Tensor[(8, 7, 7, 1824), float16] */;
  %509 = add(%508, meta[relay.Constant][421] /* ty=Tensor[(1, 1, 1, 1824), float16] */) /* ty=Tensor[(8, 7, 7, 1824), float16] */;
  %510 = sigmoid(%509) /* ty=Tensor[(8, 7, 7, 1824), float16] */;
  %511 = multiply(%509, %510) /* ty=Tensor[(8, 7, 7, 1824), float16] */;
  %512 = cast(%511, dtype="float32") /* ty=Tensor[(8, 7, 7, 1824), float32] */;
  %513 = mean(%512, axis=[1, 2], keepdims=True) /* ty=Tensor[(8, 1, 1, 1824), float32] */;
  %514 = cast(%513, dtype="float16") /* ty=Tensor[(8, 1, 1, 1824), float16] */;
  %515 = @tvmgen_default_cutlass_main_564(%514, meta[relay.Constant][422] /* ty=Tensor[(76, 1, 1, 1824), float16] */, meta[relay.Constant][423] /* ty=Tensor[(1, 1, 1, 76), float16] */) /* ty=Tensor[(8, 1, 1, 76), float16] */;
  %516 = @tvmgen_default_cutlass_main_567(%515, meta[relay.Constant][424] /* ty=Tensor[(1824, 1, 1, 76), float16] */, meta[relay.Constant][425] /* ty=Tensor[(1, 1, 1, 1824), float16] */) /* ty=Tensor[(8, 1, 1, 1824), float16] */;
  %517 = multiply(%516, %511) /* ty=Tensor[(8, 7, 7, 1824), float16] */;
  %518 = @tvmgen_default_cutlass_main_570(%517, meta[relay.Constant][426] /* ty=Tensor[(304, 1, 1, 1824), float16] */, meta[relay.Constant][427] /* ty=Tensor[(1, 1, 1, 304), float16] */, %505) /* ty=Tensor[(8, 7, 7, 304), float16] */;
  %519 = @tvmgen_default_cutlass_main_574(%518, meta[relay.Constant][428] /* ty=Tensor[(1824, 1, 1, 304), float16] */, meta[relay.Constant][429] /* ty=Tensor[(1, 1, 1, 1824), float16] */) /* ty=Tensor[(8, 7, 7, 1824), float16] */;
  %520 = layout_transform(meta[relay.Constant][430] /* ty=Tensor[(1824, 3, 3, 1), float16] */, src_layout="OHWI", dst_layout="HWOI") /* ty=Tensor[(3, 3, 1824, 1), float16] */;
  %521 = nn.conv2d(%519, %520, padding=[1, 1, 1, 1], groups=1824, channels=1824, kernel_size=[3, 3], data_layout="NHWC", kernel_layout="HWOI", out_dtype="float16") /* ty=Tensor[(8, 7, 7, 1824), float16] */;
  %522 = add(%521, meta[relay.Constant][431] /* ty=Tensor[(1, 1, 1, 1824), float16] */) /* ty=Tensor[(8, 7, 7, 1824), float16] */;
  %523 = sigmoid(%522) /* ty=Tensor[(8, 7, 7, 1824), float16] */;
  %524 = multiply(%522, %523) /* ty=Tensor[(8, 7, 7, 1824), float16] */;
  %525 = cast(%524, dtype="float32") /* ty=Tensor[(8, 7, 7, 1824), float32] */;
  %526 = mean(%525, axis=[1, 2], keepdims=True) /* ty=Tensor[(8, 1, 1, 1824), float32] */;
  %527 = cast(%526, dtype="float16") /* ty=Tensor[(8, 1, 1, 1824), float16] */;
  %528 = @tvmgen_default_cutlass_main_577(%527, meta[relay.Constant][432] /* ty=Tensor[(76, 1, 1, 1824), float16] */, meta[relay.Constant][433] /* ty=Tensor[(1, 1, 1, 76), float16] */) /* ty=Tensor[(8, 1, 1, 76), float16] */;
  %529 = @tvmgen_default_cutlass_main_580(%528, meta[relay.Constant][434] /* ty=Tensor[(1824, 1, 1, 76), float16] */, meta[relay.Constant][435] /* ty=Tensor[(1, 1, 1, 1824), float16] */) /* ty=Tensor[(8, 1, 1, 1824), float16] */;
  %530 = multiply(%529, %524) /* ty=Tensor[(8, 7, 7, 1824), float16] */;
  %531 = @tvmgen_default_cutlass_main_583(%530, meta[relay.Constant][436] /* ty=Tensor[(304, 1, 1, 1824), float16] */, meta[relay.Constant][437] /* ty=Tensor[(1, 1, 1, 304), float16] */, %518) /* ty=Tensor[(8, 7, 7, 304), float16] */;
  %532 = @tvmgen_default_cutlass_main_587(%531, meta[relay.Constant][438] /* ty=Tensor[(1824, 1, 1, 304), float16] */, meta[relay.Constant][439] /* ty=Tensor[(1, 1, 1, 1824), float16] */) /* ty=Tensor[(8, 7, 7, 1824), float16] */;
  %533 = layout_transform(meta[relay.Constant][440] /* ty=Tensor[(1824, 3, 3, 1), float16] */, src_layout="OHWI", dst_layout="HWOI") /* ty=Tensor[(3, 3, 1824, 1), float16] */;
  %534 = nn.conv2d(%532, %533, padding=[1, 1, 1, 1], groups=1824, channels=1824, kernel_size=[3, 3], data_layout="NHWC", kernel_layout="HWOI", out_dtype="float16") /* ty=Tensor[(8, 7, 7, 1824), float16] */;
  %535 = add(%534, meta[relay.Constant][441] /* ty=Tensor[(1, 1, 1, 1824), float16] */) /* ty=Tensor[(8, 7, 7, 1824), float16] */;
  %536 = sigmoid(%535) /* ty=Tensor[(8, 7, 7, 1824), float16] */;
  %537 = multiply(%535, %536) /* ty=Tensor[(8, 7, 7, 1824), float16] */;
  %538 = cast(%537, dtype="float32") /* ty=Tensor[(8, 7, 7, 1824), float32] */;
  %539 = mean(%538, axis=[1, 2], keepdims=True) /* ty=Tensor[(8, 1, 1, 1824), float32] */;
  %540 = cast(%539, dtype="float16") /* ty=Tensor[(8, 1, 1, 1824), float16] */;
  %541 = @tvmgen_default_cutlass_main_590(%540, meta[relay.Constant][442] /* ty=Tensor[(76, 1, 1, 1824), float16] */, meta[relay.Constant][443] /* ty=Tensor[(1, 1, 1, 76), float16] */) /* ty=Tensor[(8, 1, 1, 76), float16] */;
  %542 = @tvmgen_default_cutlass_main_593(%541, meta[relay.Constant][444] /* ty=Tensor[(1824, 1, 1, 76), float16] */, meta[relay.Constant][445] /* ty=Tensor[(1, 1, 1, 1824), float16] */) /* ty=Tensor[(8, 1, 1, 1824), float16] */;
  %543 = multiply(%542, %537) /* ty=Tensor[(8, 7, 7, 1824), float16] */;
  %544 = @tvmgen_default_cutlass_main_596(%543, meta[relay.Constant][446] /* ty=Tensor[(512, 1, 1, 1824), float16] */, meta[relay.Constant][447] /* ty=Tensor[(1, 1, 1, 512), float16] */) /* ty=Tensor[(8, 7, 7, 512), float16] */;
  %545 = @tvmgen_default_cutlass_main_599(%544, meta[relay.Constant][448] /* ty=Tensor[(3072, 1, 1, 512), float16] */, meta[relay.Constant][449] /* ty=Tensor[(3072), float16] */) /* ty=Tensor[(8, 7, 7, 3072), float16] */;
  %546 = layout_transform(meta[relay.Constant][450] /* ty=Tensor[(3072, 3, 3, 1), float16] */, src_layout="OHWI", dst_layout="HWOI") /* ty=Tensor[(3, 3, 3072, 1), float16] */;
  %547 = nn.conv2d(%545, %546, padding=[1, 1, 1, 1], groups=3072, channels=3072, kernel_size=[3, 3], data_layout="NHWC", kernel_layout="HWOI", out_dtype="float16") /* ty=Tensor[(8, 7, 7, 3072), float16] */;
  %548 = add(%547, meta[relay.Constant][451] /* ty=Tensor[(1, 1, 1, 3072), float16] */) /* ty=Tensor[(8, 7, 7, 3072), float16] */;
  %549 = sigmoid(%548) /* ty=Tensor[(8, 7, 7, 3072), float16] */;
  %550 = multiply(%548, %549) /* ty=Tensor[(8, 7, 7, 3072), float16] */;
  %551 = cast(%550, dtype="float32") /* ty=Tensor[(8, 7, 7, 3072), float32] */;
  %552 = mean(%551, axis=[1, 2], keepdims=True) /* ty=Tensor[(8, 1, 1, 3072), float32] */;
  %553 = cast(%552, dtype="float16") /* ty=Tensor[(8, 1, 1, 3072), float16] */;
  %554 = @tvmgen_default_cutlass_main_602(%553, meta[relay.Constant][452] /* ty=Tensor[(128, 1, 1, 3072), float16] */, meta[relay.Constant][453] /* ty=Tensor[(1, 1, 1, 128), float16] */) /* ty=Tensor[(8, 1, 1, 128), float16] */;
  %555 = @tvmgen_default_cutlass_main_605(%554, meta[relay.Constant][454] /* ty=Tensor[(3072, 1, 1, 128), float16] */, meta[relay.Constant][455] /* ty=Tensor[(1, 1, 1, 3072), float16] */) /* ty=Tensor[(8, 1, 1, 3072), float16] */;
  %556 = multiply(%555, %550) /* ty=Tensor[(8, 7, 7, 3072), float16] */;
  %557 = @tvmgen_default_cutlass_main_608(%556, meta[relay.Constant][456] /* ty=Tensor[(512, 1, 1, 3072), float16] */, meta[relay.Constant][457] /* ty=Tensor[(1, 1, 1, 512), float16] */, %544) /* ty=Tensor[(8, 7, 7, 512), float16] */;
  %558 = @tvmgen_default_cutlass_main_612(%557, meta[relay.Constant][458] /* ty=Tensor[(3072, 1, 1, 512), float16] */, meta[relay.Constant][459] /* ty=Tensor[(1, 1, 1, 3072), float16] */) /* ty=Tensor[(8, 7, 7, 3072), float16] */;
  %559 = layout_transform(meta[relay.Constant][460] /* ty=Tensor[(3072, 3, 3, 1), float16] */, src_layout="OHWI", dst_layout="HWOI") /* ty=Tensor[(3, 3, 3072, 1), float16] */;
  %560 = nn.conv2d(%558, %559, padding=[1, 1, 1, 1], groups=3072, channels=3072, kernel_size=[3, 3], data_layout="NHWC", kernel_layout="HWOI", out_dtype="float16") /* ty=Tensor[(8, 7, 7, 3072), float16] */;
  %561 = add(%560, meta[relay.Constant][461] /* ty=Tensor[(1, 1, 1, 3072), float16] */) /* ty=Tensor[(8, 7, 7, 3072), float16] */;
  %562 = sigmoid(%561) /* ty=Tensor[(8, 7, 7, 3072), float16] */;
  %563 = multiply(%561, %562) /* ty=Tensor[(8, 7, 7, 3072), float16] */;
  %564 = cast(%563, dtype="float32") /* ty=Tensor[(8, 7, 7, 3072), float32] */;
  %565 = mean(%564, axis=[1, 2], keepdims=True) /* ty=Tensor[(8, 1, 1, 3072), float32] */;
  %566 = cast(%565, dtype="float16") /* ty=Tensor[(8, 1, 1, 3072), float16] */;
  %567 = @tvmgen_default_cutlass_main_615(%566, meta[relay.Constant][462] /* ty=Tensor[(128, 1, 1, 3072), float16] */, meta[relay.Constant][463] /* ty=Tensor[(1, 1, 1, 128), float16] */) /* ty=Tensor[(8, 1, 1, 128), float16] */;
  %568 = @tvmgen_default_cutlass_main_618(%567, meta[relay.Constant][464] /* ty=Tensor[(3072, 1, 1, 128), float16] */, meta[relay.Constant][465] /* ty=Tensor[(1, 1, 1, 3072), float16] */) /* ty=Tensor[(8, 1, 1, 3072), float16] */;
  %569 = multiply(%568, %563) /* ty=Tensor[(8, 7, 7, 3072), float16] */;
  %570 = @tvmgen_default_cutlass_main_621(%569, meta[relay.Constant][466] /* ty=Tensor[(512, 1, 1, 3072), float16] */, meta[relay.Constant][467] /* ty=Tensor[(1, 1, 1, 512), float16] */, %557) /* ty=Tensor[(8, 7, 7, 512), float16] */;
  %571 = @tvmgen_default_cutlass_main_625(%570, meta[relay.Constant][468] /* ty=Tensor[(3072, 1, 1, 512), float16] */, meta[relay.Constant][469] /* ty=Tensor[(1, 1, 1, 3072), float16] */) /* ty=Tensor[(8, 7, 7, 3072), float16] */;
  %572 = layout_transform(meta[relay.Constant][470] /* ty=Tensor[(3072, 3, 3, 1), float16] */, src_layout="OHWI", dst_layout="HWOI") /* ty=Tensor[(3, 3, 3072, 1), float16] */;
  %573 = nn.conv2d(%571, %572, padding=[1, 1, 1, 1], groups=3072, channels=3072, kernel_size=[3, 3], data_layout="NHWC", kernel_layout="HWOI", out_dtype="float16") /* ty=Tensor[(8, 7, 7, 3072), float16] */;
  %574 = add(%573, meta[relay.Constant][471] /* ty=Tensor[(1, 1, 1, 3072), float16] */) /* ty=Tensor[(8, 7, 7, 3072), float16] */;
  %575 = sigmoid(%574) /* ty=Tensor[(8, 7, 7, 3072), float16] */;
  %576 = multiply(%574, %575) /* ty=Tensor[(8, 7, 7, 3072), float16] */;
  %577 = cast(%576, dtype="float32") /* ty=Tensor[(8, 7, 7, 3072), float32] */;
  %578 = mean(%577, axis=[1, 2], keepdims=True) /* ty=Tensor[(8, 1, 1, 3072), float32] */;
  %579 = cast(%578, dtype="float16") /* ty=Tensor[(8, 1, 1, 3072), float16] */;
  %580 = @tvmgen_default_cutlass_main_628(%579, meta[relay.Constant][472] /* ty=Tensor[(128, 1, 1, 3072), float16] */, meta[relay.Constant][473] /* ty=Tensor[(1, 1, 1, 128), float16] */) /* ty=Tensor[(8, 1, 1, 128), float16] */;
  %581 = @tvmgen_default_cutlass_main_631(%580, meta[relay.Constant][474] /* ty=Tensor[(3072, 1, 1, 128), float16] */, meta[relay.Constant][475] /* ty=Tensor[(1, 1, 1, 3072), float16] */) /* ty=Tensor[(8, 1, 1, 3072), float16] */;
  %582 = multiply(%581, %576) /* ty=Tensor[(8, 7, 7, 3072), float16] */;
  %583 = @tvmgen_default_cutlass_main_634(%582, meta[relay.Constant][476] /* ty=Tensor[(512, 1, 1, 3072), float16] */, meta[relay.Constant][477] /* ty=Tensor[(1, 1, 1, 512), float16] */, %570) /* ty=Tensor[(8, 7, 7, 512), float16] */;
  %584 = @tvmgen_default_cutlass_main_638(%583, meta[relay.Constant][478] /* ty=Tensor[(3072, 1, 1, 512), float16] */, meta[relay.Constant][479] /* ty=Tensor[(1, 1, 1, 3072), float16] */) /* ty=Tensor[(8, 7, 7, 3072), float16] */;
  %585 = layout_transform(meta[relay.Constant][480] /* ty=Tensor[(3072, 3, 3, 1), float16] */, src_layout="OHWI", dst_layout="HWOI") /* ty=Tensor[(3, 3, 3072, 1), float16] */;
  %586 = nn.conv2d(%584, %585, padding=[1, 1, 1, 1], groups=3072, channels=3072, kernel_size=[3, 3], data_layout="NHWC", kernel_layout="HWOI", out_dtype="float16") /* ty=Tensor[(8, 7, 7, 3072), float16] */;
  %587 = add(%586, meta[relay.Constant][481] /* ty=Tensor[(1, 1, 1, 3072), float16] */) /* ty=Tensor[(8, 7, 7, 3072), float16] */;
  %588 = sigmoid(%587) /* ty=Tensor[(8, 7, 7, 3072), float16] */;
  %589 = multiply(%587, %588) /* ty=Tensor[(8, 7, 7, 3072), float16] */;
  %590 = cast(%589, dtype="float32") /* ty=Tensor[(8, 7, 7, 3072), float32] */;
  %591 = mean(%590, axis=[1, 2], keepdims=True) /* ty=Tensor[(8, 1, 1, 3072), float32] */;
  %592 = cast(%591, dtype="float16") /* ty=Tensor[(8, 1, 1, 3072), float16] */;
  %593 = @tvmgen_default_cutlass_main_641(%592, meta[relay.Constant][482] /* ty=Tensor[(128, 1, 1, 3072), float16] */, meta[relay.Constant][483] /* ty=Tensor[(1, 1, 1, 128), float16] */) /* ty=Tensor[(8, 1, 1, 128), float16] */;
  %594 = @tvmgen_default_cutlass_main_644(%593, meta[relay.Constant][484] /* ty=Tensor[(3072, 1, 1, 128), float16] */, meta[relay.Constant][485] /* ty=Tensor[(1, 1, 1, 3072), float16] */) /* ty=Tensor[(8, 1, 1, 3072), float16] */;
  %595 = multiply(%594, %589) /* ty=Tensor[(8, 7, 7, 3072), float16] */;
  %596 = @tvmgen_default_cutlass_main_647(%595, meta[relay.Constant][486] /* ty=Tensor[(512, 1, 1, 3072), float16] */, meta[relay.Constant][487] /* ty=Tensor[(1, 1, 1, 512), float16] */, %583) /* ty=Tensor[(8, 7, 7, 512), float16] */;
  %597 = @tvmgen_default_cutlass_main_651(%596, meta[relay.Constant][488] /* ty=Tensor[(1280, 1, 1, 512), float16] */, meta[relay.Constant][489] /* ty=Tensor[(1, 1, 1, 1280), float16] */) /* ty=Tensor[(8, 7, 7, 1280), float16] */;
  %598 = transpose(%597, axes=[0, 1, 2, 3]) /* ty=Tensor[(8, 7, 7, 1280), float16] */;
  %599 = cast(%598, dtype="float32") /* ty=Tensor[(8, 7, 7, 1280), float32] */;
  %600 = mean(%599, axis=[1, 2]) /* ty=Tensor[(8, 1280), float32] */;
  %601 = cast(%600, dtype="float16") /* ty=Tensor[(8, 1280), float16] */;
  @tvmgen_default_cutlass_main_654(%601, meta[relay.Constant][490] /* ty=Tensor[(1000, 1280), float16] */, meta[relay.Constant][491] /* ty=Tensor[(1, 1000), float16] */) /* ty=Tensor[(8, 1000), float16] */
}

def @tvmgen_default_cutlass_main_0(%cutlass_0_i0: Tensor[(8, 224, 224, 3), float16], %cutlass_0_i1: Tensor[(24, 3, 3, 3), float16], %cutlass_0_i2: Tensor[(1, 1, 1, 24), float16], Inline=1, Compiler="cutlass", global_symbol="tvmgen_default_cutlass_main_0", Primitive=1) -> Tensor[(8, 112, 112, 24), float16] {
  %605 = fn (%FunctionVar_143_0: Tensor[(8, 224, 224, 3), float16], %FunctionVar_143_1: Tensor[(24, 3, 3, 3), float16], %FunctionVar_143_2: Tensor[(1, 1, 1, 24), float16], PartitionedFromPattern="nn.conv2d_add_sigmoid_multiply_", Composite="cutlass.conv2d_bias_silu") -> Tensor[(8, 112, 112, 24), float16] {
    %602 = nn.conv2d(%FunctionVar_143_0, %FunctionVar_143_1, strides=[2, 2], padding=[0, 0, 1, 1], channels=24, kernel_size=[3, 3], data_layout="NHWC", kernel_layout="OHWI", out_dtype="float16") /* ty=Tensor[(8, 112, 112, 24), float16] */;
    %603 = add(%602, %FunctionVar_143_2) /* ty=Tensor[(8, 112, 112, 24), float16] */;
    %604 = sigmoid(%603) /* ty=Tensor[(8, 112, 112, 24), float16] */;
    multiply(%603, %604) /* ty=Tensor[(8, 112, 112, 24), float16] */
  };
  %605(%cutlass_0_i0, %cutlass_0_i1, %cutlass_0_i2) /* ty=Tensor[(8, 112, 112, 24), float16] */
}

def @tvmgen_default_cutlass_main_101(%cutlass_101_i0: Tensor[(8, 1, 1, 40), float16], %cutlass_101_i1: Tensor[(640, 1, 1, 40), float16], %cutlass_101_i2: Tensor[(1, 1, 1, 640), float16], Inline=1, Compiler="cutlass", global_symbol="tvmgen_default_cutlass_main_101", Primitive=1) -> Tensor[(8, 1, 1, 640), float16] {
  %608 = fn (%FunctionVar_84_0: Tensor[(8, 1, 1, 40), float16], %FunctionVar_84_1: Tensor[(640, 1, 1, 40), float16], %FunctionVar_84_2: Tensor[(1, 1, 1, 640), float16], PartitionedFromPattern="nn.conv2d_add_sigmoid_", Composite="cutlass.conv2d_bias_sigmoid") -> Tensor[(8, 1, 1, 640), float16] {
    %606 = nn.conv2d(%FunctionVar_84_0, %FunctionVar_84_1, padding=[0, 0, 0, 0], channels=640, kernel_size=[1, 1], data_layout="NHWC", kernel_layout="OHWI", out_dtype="float16") /* ty=Tensor[(8, 1, 1, 640), float16] */;
    %607 = add(%606, %FunctionVar_84_2) /* ty=Tensor[(8, 1, 1, 640), float16] */;
    sigmoid(%607) /* ty=Tensor[(8, 1, 1, 640), float16] */
  };
  %608(%cutlass_101_i0, %cutlass_101_i1, %cutlass_101_i2) /* ty=Tensor[(8, 1, 1, 640), float16] */
}

def @tvmgen_default_cutlass_main_104(%cutlass_104_i0: Tensor[(8, 14, 14, 640), float16], %cutlass_104_i1: Tensor[(160, 1, 1, 640), float16], %cutlass_104_i2: Tensor[(1, 1, 1, 160), float16], %cutlass_104_i3: Tensor[(8, 14, 14, 160), float16], Inline=1, Compiler="cutlass", global_symbol="tvmgen_default_cutlass_main_104", Primitive=1) -> Tensor[(8, 14, 14, 160), float16] {
  %611 = fn (%FunctionVar_39_0: Tensor[(8, 14, 14, 640), float16], %FunctionVar_39_1: Tensor[(160, 1, 1, 640), float16], %FunctionVar_39_2: Tensor[(1, 1, 1, 160), float16], %FunctionVar_39_3: Tensor[(8, 14, 14, 160), float16], PartitionedFromPattern="nn.conv2d_add_add_", Composite="cutlass.conv2d_bias_residual_add") -> Tensor[(8, 14, 14, 160), float16] {
    %609 = nn.conv2d(%FunctionVar_39_0, %FunctionVar_39_1, padding=[0, 0, 0, 0], channels=160, kernel_size=[1, 1], data_layout="NHWC", kernel_layout="OHWI", out_dtype="float16") /* ty=Tensor[(8, 14, 14, 160), float16] */;
    %610 = add(%609, %FunctionVar_39_2) /* ty=Tensor[(8, 14, 14, 160), float16] */;
    add(%610, %FunctionVar_39_3) /* ty=Tensor[(8, 14, 14, 160), float16] */
  };
  %611(%cutlass_104_i0, %cutlass_104_i1, %cutlass_104_i2, %cutlass_104_i3) /* ty=Tensor[(8, 14, 14, 160), float16] */
}

def @tvmgen_default_cutlass_main_108(%cutlass_108_i0: Tensor[(8, 14, 14, 160), float16], %cutlass_108_i1: Tensor[(640, 1, 1, 160), float16], %cutlass_108_i2: Tensor[(1, 1, 1, 640), float16], Inline=1, Compiler="cutlass", global_symbol="tvmgen_default_cutlass_main_108", Primitive=1) -> Tensor[(8, 14, 14, 640), float16] {
  %615 = fn (%FunctionVar_126_0: Tensor[(8, 14, 14, 160), float16], %FunctionVar_126_1: Tensor[(640, 1, 1, 160), float16], %FunctionVar_126_2: Tensor[(1, 1, 1, 640), float16], PartitionedFromPattern="nn.conv2d_add_sigmoid_multiply_", Composite="cutlass.conv2d_bias_silu") -> Tensor[(8, 14, 14, 640), float16] {
    %612 = nn.conv2d(%FunctionVar_126_0, %FunctionVar_126_1, padding=[0, 0, 0, 0], channels=640, kernel_size=[1, 1], data_layout="NHWC", kernel_layout="OHWI", out_dtype="float16") /* ty=Tensor[(8, 14, 14, 640), float16] */;
    %613 = add(%612, %FunctionVar_126_2) /* ty=Tensor[(8, 14, 14, 640), float16] */;
    %614 = sigmoid(%613) /* ty=Tensor[(8, 14, 14, 640), float16] */;
    multiply(%613, %614) /* ty=Tensor[(8, 14, 14, 640), float16] */
  };
  %615(%cutlass_108_i0, %cutlass_108_i1, %cutlass_108_i2) /* ty=Tensor[(8, 14, 14, 640), float16] */
}

def @tvmgen_default_cutlass_main_11(%cutlass_11_i0: Tensor[(8, 112, 112, 24), float16], %cutlass_11_i1: Tensor[(24, 3, 3, 24), float16], %cutlass_11_i2: Tensor[(1, 1, 1, 24), float16], Inline=1, Compiler="cutlass", global_symbol="tvmgen_default_cutlass_main_11", Primitive=1) -> Tensor[(8, 112, 112, 24), float16] {
  %620 = fn (%FunctionVar_0_0: Tensor[(8, 112, 112, 24), float16], %FunctionVar_0_1: Tensor[(24, 3, 3, 24), float16], %FunctionVar_0_2: Tensor[(1, 1, 1, 24), float16], %FunctionVar_0_3: Tensor[(8, 112, 112, 24), float16], PartitionedFromPattern="nn.conv2d_add_sigmoid_multiply_add_", Composite="cutlass.conv2d_bias_silu_residual_add") -> Tensor[(8, 112, 112, 24), float16] {
    %616 = nn.conv2d(%FunctionVar_0_3, %FunctionVar_0_1, padding=[1, 1, 1, 1], channels=24, kernel_size=[3, 3], data_layout="NHWC", kernel_layout="OHWI", out_dtype="float16") /* ty=Tensor[(8, 112, 112, 24), float16] */;
    %617 = add(%616, %FunctionVar_0_2) /* ty=Tensor[(8, 112, 112, 24), float16] */;
    %618 = sigmoid(%617) /* ty=Tensor[(8, 112, 112, 24), float16] */;
    %619 = multiply(%617, %618) /* ty=Tensor[(8, 112, 112, 24), float16] */;
    add(%619, %FunctionVar_0_3) /* ty=Tensor[(8, 112, 112, 24), float16] */
  };
  %620(%cutlass_11_i0, %cutlass_11_i1, %cutlass_11_i2, %cutlass_11_i0) /* ty=Tensor[(8, 112, 112, 24), float16] */
}

def @tvmgen_default_cutlass_main_111(%cutlass_111_i0: Tensor[(8, 1, 1, 640), float16], %cutlass_111_i1: Tensor[(40, 1, 1, 640), float16], %cutlass_111_i2: Tensor[(1, 1, 1, 40), float16], Inline=1, Compiler="cutlass", global_symbol="tvmgen_default_cutlass_main_111", Primitive=1) -> Tensor[(8, 1, 1, 40), float16] {
  %624 = fn (%FunctionVar_124_0: Tensor[(8, 1, 1, 640), float16], %FunctionVar_124_1: Tensor[(40, 1, 1, 640), float16], %FunctionVar_124_2: Tensor[(1, 1, 1, 40), float16], PartitionedFromPattern="nn.conv2d_add_sigmoid_multiply_", Composite="cutlass.conv2d_bias_silu") -> Tensor[(8, 1, 1, 40), float16] {
    %621 = nn.conv2d(%FunctionVar_124_0, %FunctionVar_124_1, padding=[0, 0, 0, 0], channels=40, kernel_size=[1, 1], data_layout="NHWC", kernel_layout="OHWI", out_dtype="float16") /* ty=Tensor[(8, 1, 1, 40), float16] */;
    %622 = add(%621, %FunctionVar_124_2) /* ty=Tensor[(8, 1, 1, 40), float16] */;
    %623 = sigmoid(%622) /* ty=Tensor[(8, 1, 1, 40), float16] */;
    multiply(%622, %623) /* ty=Tensor[(8, 1, 1, 40), float16] */
  };
  %624(%cutlass_111_i0, %cutlass_111_i1, %cutlass_111_i2) /* ty=Tensor[(8, 1, 1, 40), float16] */
}

def @tvmgen_default_cutlass_main_114(%cutlass_114_i0: Tensor[(8, 1, 1, 40), float16], %cutlass_114_i1: Tensor[(640, 1, 1, 40), float16], %cutlass_114_i2: Tensor[(1, 1, 1, 640), float16], Inline=1, Compiler="cutlass", global_symbol="tvmgen_default_cutlass_main_114", Primitive=1) -> Tensor[(8, 1, 1, 640), float16] {
  %627 = fn (%FunctionVar_82_0: Tensor[(8, 1, 1, 40), float16], %FunctionVar_82_1: Tensor[(640, 1, 1, 40), float16], %FunctionVar_82_2: Tensor[(1, 1, 1, 640), float16], PartitionedFromPattern="nn.conv2d_add_sigmoid_", Composite="cutlass.conv2d_bias_sigmoid") -> Tensor[(8, 1, 1, 640), float16] {
    %625 = nn.conv2d(%FunctionVar_82_0, %FunctionVar_82_1, padding=[0, 0, 0, 0], channels=640, kernel_size=[1, 1], data_layout="NHWC", kernel_layout="OHWI", out_dtype="float16") /* ty=Tensor[(8, 1, 1, 640), float16] */;
    %626 = add(%625, %FunctionVar_82_2) /* ty=Tensor[(8, 1, 1, 640), float16] */;
    sigmoid(%626) /* ty=Tensor[(8, 1, 1, 640), float16] */
  };
  %627(%cutlass_114_i0, %cutlass_114_i1, %cutlass_114_i2) /* ty=Tensor[(8, 1, 1, 640), float16] */
}

def @tvmgen_default_cutlass_main_117(%cutlass_117_i0: Tensor[(8, 14, 14, 640), float16], %cutlass_117_i1: Tensor[(160, 1, 1, 640), float16], %cutlass_117_i2: Tensor[(1, 1, 1, 160), float16], %cutlass_117_i3: Tensor[(8, 14, 14, 160), float16], Inline=1, Compiler="cutlass", global_symbol="tvmgen_default_cutlass_main_117", Primitive=1) -> Tensor[(8, 14, 14, 160), float16] {
  %630 = fn (%FunctionVar_38_0: Tensor[(8, 14, 14, 640), float16], %FunctionVar_38_1: Tensor[(160, 1, 1, 640), float16], %FunctionVar_38_2: Tensor[(1, 1, 1, 160), float16], %FunctionVar_38_3: Tensor[(8, 14, 14, 160), float16], PartitionedFromPattern="nn.conv2d_add_add_", Composite="cutlass.conv2d_bias_residual_add") -> Tensor[(8, 14, 14, 160), float16] {
    %628 = nn.conv2d(%FunctionVar_38_0, %FunctionVar_38_1, padding=[0, 0, 0, 0], channels=160, kernel_size=[1, 1], data_layout="NHWC", kernel_layout="OHWI", out_dtype="float16") /* ty=Tensor[(8, 14, 14, 160), float16] */;
    %629 = add(%628, %FunctionVar_38_2) /* ty=Tensor[(8, 14, 14, 160), float16] */;
    add(%629, %FunctionVar_38_3) /* ty=Tensor[(8, 14, 14, 160), float16] */
  };
  %630(%cutlass_117_i0, %cutlass_117_i1, %cutlass_117_i2, %cutlass_117_i3) /* ty=Tensor[(8, 14, 14, 160), float16] */
}

def @tvmgen_default_cutlass_main_121(%cutlass_121_i0: Tensor[(8, 14, 14, 160), float16], %cutlass_121_i1: Tensor[(640, 1, 1, 160), float16], %cutlass_121_i2: Tensor[(1, 1, 1, 640), float16], Inline=1, Compiler="cutlass", global_symbol="tvmgen_default_cutlass_main_121", Primitive=1) -> Tensor[(8, 14, 14, 640), float16] {
  %634 = fn (%FunctionVar_123_0: Tensor[(8, 14, 14, 160), float16], %FunctionVar_123_1: Tensor[(640, 1, 1, 160), float16], %FunctionVar_123_2: Tensor[(1, 1, 1, 640), float16], PartitionedFromPattern="nn.conv2d_add_sigmoid_multiply_", Composite="cutlass.conv2d_bias_silu") -> Tensor[(8, 14, 14, 640), float16] {
    %631 = nn.conv2d(%FunctionVar_123_0, %FunctionVar_123_1, padding=[0, 0, 0, 0], channels=640, kernel_size=[1, 1], data_layout="NHWC", kernel_layout="OHWI", out_dtype="float16") /* ty=Tensor[(8, 14, 14, 640), float16] */;
    %632 = add(%631, %FunctionVar_123_2) /* ty=Tensor[(8, 14, 14, 640), float16] */;
    %633 = sigmoid(%632) /* ty=Tensor[(8, 14, 14, 640), float16] */;
    multiply(%632, %633) /* ty=Tensor[(8, 14, 14, 640), float16] */
  };
  %634(%cutlass_121_i0, %cutlass_121_i1, %cutlass_121_i2) /* ty=Tensor[(8, 14, 14, 640), float16] */
}

def @tvmgen_default_cutlass_main_124(%cutlass_124_i0: Tensor[(8, 1, 1, 640), float16], %cutlass_124_i1: Tensor[(40, 1, 1, 640), float16], %cutlass_124_i2: Tensor[(1, 1, 1, 40), float16], Inline=1, Compiler="cutlass", global_symbol="tvmgen_default_cutlass_main_124", Primitive=1) -> Tensor[(8, 1, 1, 40), float16] {
  %638 = fn (%FunctionVar_121_0: Tensor[(8, 1, 1, 640), float16], %FunctionVar_121_1: Tensor[(40, 1, 1, 640), float16], %FunctionVar_121_2: Tensor[(1, 1, 1, 40), float16], PartitionedFromPattern="nn.conv2d_add_sigmoid_multiply_", Composite="cutlass.conv2d_bias_silu") -> Tensor[(8, 1, 1, 40), float16] {
    %635 = nn.conv2d(%FunctionVar_121_0, %FunctionVar_121_1, padding=[0, 0, 0, 0], channels=40, kernel_size=[1, 1], data_layout="NHWC", kernel_layout="OHWI", out_dtype="float16") /* ty=Tensor[(8, 1, 1, 40), float16] */;
    %636 = add(%635, %FunctionVar_121_2) /* ty=Tensor[(8, 1, 1, 40), float16] */;
    %637 = sigmoid(%636) /* ty=Tensor[(8, 1, 1, 40), float16] */;
    multiply(%636, %637) /* ty=Tensor[(8, 1, 1, 40), float16] */
  };
  %638(%cutlass_124_i0, %cutlass_124_i1, %cutlass_124_i2) /* ty=Tensor[(8, 1, 1, 40), float16] */
}

def @tvmgen_default_cutlass_main_127(%cutlass_127_i0: Tensor[(8, 1, 1, 40), float16], %cutlass_127_i1: Tensor[(640, 1, 1, 40), float16], %cutlass_127_i2: Tensor[(1, 1, 1, 640), float16], Inline=1, Compiler="cutlass", global_symbol="tvmgen_default_cutlass_main_127", Primitive=1) -> Tensor[(8, 1, 1, 640), float16] {
  %641 = fn (%FunctionVar_80_0: Tensor[(8, 1, 1, 40), float16], %FunctionVar_80_1: Tensor[(640, 1, 1, 40), float16], %FunctionVar_80_2: Tensor[(1, 1, 1, 640), float16], PartitionedFromPattern="nn.conv2d_add_sigmoid_", Composite="cutlass.conv2d_bias_sigmoid") -> Tensor[(8, 1, 1, 640), float16] {
    %639 = nn.conv2d(%FunctionVar_80_0, %FunctionVar_80_1, padding=[0, 0, 0, 0], channels=640, kernel_size=[1, 1], data_layout="NHWC", kernel_layout="OHWI", out_dtype="float16") /* ty=Tensor[(8, 1, 1, 640), float16] */;
    %640 = add(%639, %FunctionVar_80_2) /* ty=Tensor[(8, 1, 1, 640), float16] */;
    sigmoid(%640) /* ty=Tensor[(8, 1, 1, 640), float16] */
  };
  %641(%cutlass_127_i0, %cutlass_127_i1, %cutlass_127_i2) /* ty=Tensor[(8, 1, 1, 640), float16] */
}

def @tvmgen_default_cutlass_main_130(%cutlass_130_i0: Tensor[(8, 14, 14, 640), float16], %cutlass_130_i1: Tensor[(160, 1, 1, 640), float16], %cutlass_130_i2: Tensor[(1, 1, 1, 160), float16], %cutlass_130_i3: Tensor[(8, 14, 14, 160), float16], Inline=1, Compiler="cutlass", global_symbol="tvmgen_default_cutlass_main_130", Primitive=1) -> Tensor[(8, 14, 14, 160), float16] {
  %644 = fn (%FunctionVar_37_0: Tensor[(8, 14, 14, 640), float16], %FunctionVar_37_1: Tensor[(160, 1, 1, 640), float16], %FunctionVar_37_2: Tensor[(1, 1, 1, 160), float16], %FunctionVar_37_3: Tensor[(8, 14, 14, 160), float16], PartitionedFromPattern="nn.conv2d_add_add_", Composite="cutlass.conv2d_bias_residual_add") -> Tensor[(8, 14, 14, 160), float16] {
    %642 = nn.conv2d(%FunctionVar_37_0, %FunctionVar_37_1, padding=[0, 0, 0, 0], channels=160, kernel_size=[1, 1], data_layout="NHWC", kernel_layout="OHWI", out_dtype="float16") /* ty=Tensor[(8, 14, 14, 160), float16] */;
    %643 = add(%642, %FunctionVar_37_2) /* ty=Tensor[(8, 14, 14, 160), float16] */;
    add(%643, %FunctionVar_37_3) /* ty=Tensor[(8, 14, 14, 160), float16] */
  };
  %644(%cutlass_130_i0, %cutlass_130_i1, %cutlass_130_i2, %cutlass_130_i3) /* ty=Tensor[(8, 14, 14, 160), float16] */
}

def @tvmgen_default_cutlass_main_134(%cutlass_134_i0: Tensor[(8, 14, 14, 160), float16], %cutlass_134_i1: Tensor[(640, 1, 1, 160), float16], %cutlass_134_i2: Tensor[(1, 1, 1, 640), float16], Inline=1, Compiler="cutlass", global_symbol="tvmgen_default_cutlass_main_134", Primitive=1) -> Tensor[(8, 14, 14, 640), float16] {
  %648 = fn (%FunctionVar_120_0: Tensor[(8, 14, 14, 160), float16], %FunctionVar_120_1: Tensor[(640, 1, 1, 160), float16], %FunctionVar_120_2: Tensor[(1, 1, 1, 640), float16], PartitionedFromPattern="nn.conv2d_add_sigmoid_multiply_", Composite="cutlass.conv2d_bias_silu") -> Tensor[(8, 14, 14, 640), float16] {
    %645 = nn.conv2d(%FunctionVar_120_0, %FunctionVar_120_1, padding=[0, 0, 0, 0], channels=640, kernel_size=[1, 1], data_layout="NHWC", kernel_layout="OHWI", out_dtype="float16") /* ty=Tensor[(8, 14, 14, 640), float16] */;
    %646 = add(%645, %FunctionVar_120_2) /* ty=Tensor[(8, 14, 14, 640), float16] */;
    %647 = sigmoid(%646) /* ty=Tensor[(8, 14, 14, 640), float16] */;
    multiply(%646, %647) /* ty=Tensor[(8, 14, 14, 640), float16] */
  };
  %648(%cutlass_134_i0, %cutlass_134_i1, %cutlass_134_i2) /* ty=Tensor[(8, 14, 14, 640), float16] */
}

def @tvmgen_default_cutlass_main_137(%cutlass_137_i0: Tensor[(8, 1, 1, 640), float16], %cutlass_137_i1: Tensor[(40, 1, 1, 640), float16], %cutlass_137_i2: Tensor[(1, 1, 1, 40), float16], Inline=1, Compiler="cutlass", global_symbol="tvmgen_default_cutlass_main_137", Primitive=1) -> Tensor[(8, 1, 1, 40), float16] {
  %652 = fn (%FunctionVar_118_0: Tensor[(8, 1, 1, 640), float16], %FunctionVar_118_1: Tensor[(40, 1, 1, 640), float16], %FunctionVar_118_2: Tensor[(1, 1, 1, 40), float16], PartitionedFromPattern="nn.conv2d_add_sigmoid_multiply_", Composite="cutlass.conv2d_bias_silu") -> Tensor[(8, 1, 1, 40), float16] {
    %649 = nn.conv2d(%FunctionVar_118_0, %FunctionVar_118_1, padding=[0, 0, 0, 0], channels=40, kernel_size=[1, 1], data_layout="NHWC", kernel_layout="OHWI", out_dtype="float16") /* ty=Tensor[(8, 1, 1, 40), float16] */;
    %650 = add(%649, %FunctionVar_118_2) /* ty=Tensor[(8, 1, 1, 40), float16] */;
    %651 = sigmoid(%650) /* ty=Tensor[(8, 1, 1, 40), float16] */;
    multiply(%650, %651) /* ty=Tensor[(8, 1, 1, 40), float16] */
  };
  %652(%cutlass_137_i0, %cutlass_137_i1, %cutlass_137_i2) /* ty=Tensor[(8, 1, 1, 40), float16] */
}

def @tvmgen_default_cutlass_main_140(%cutlass_140_i0: Tensor[(8, 1, 1, 40), float16], %cutlass_140_i1: Tensor[(640, 1, 1, 40), float16], %cutlass_140_i2: Tensor[(1, 1, 1, 640), float16], Inline=1, Compiler="cutlass", global_symbol="tvmgen_default_cutlass_main_140", Primitive=1) -> Tensor[(8, 1, 1, 640), float16] {
  %655 = fn (%FunctionVar_78_0: Tensor[(8, 1, 1, 40), float16], %FunctionVar_78_1: Tensor[(640, 1, 1, 40), float16], %FunctionVar_78_2: Tensor[(1, 1, 1, 640), float16], PartitionedFromPattern="nn.conv2d_add_sigmoid_", Composite="cutlass.conv2d_bias_sigmoid") -> Tensor[(8, 1, 1, 640), float16] {
    %653 = nn.conv2d(%FunctionVar_78_0, %FunctionVar_78_1, padding=[0, 0, 0, 0], channels=640, kernel_size=[1, 1], data_layout="NHWC", kernel_layout="OHWI", out_dtype="float16") /* ty=Tensor[(8, 1, 1, 640), float16] */;
    %654 = add(%653, %FunctionVar_78_2) /* ty=Tensor[(8, 1, 1, 640), float16] */;
    sigmoid(%654) /* ty=Tensor[(8, 1, 1, 640), float16] */
  };
  %655(%cutlass_140_i0, %cutlass_140_i1, %cutlass_140_i2) /* ty=Tensor[(8, 1, 1, 640), float16] */
}

def @tvmgen_default_cutlass_main_143(%cutlass_143_i0: Tensor[(8, 14, 14, 640), float16], %cutlass_143_i1: Tensor[(160, 1, 1, 640), float16], %cutlass_143_i2: Tensor[(1, 1, 1, 160), float16], %cutlass_143_i3: Tensor[(8, 14, 14, 160), float16], Inline=1, Compiler="cutlass", global_symbol="tvmgen_default_cutlass_main_143", Primitive=1) -> Tensor[(8, 14, 14, 160), float16] {
  %658 = fn (%FunctionVar_36_0: Tensor[(8, 14, 14, 640), float16], %FunctionVar_36_1: Tensor[(160, 1, 1, 640), float16], %FunctionVar_36_2: Tensor[(1, 1, 1, 160), float16], %FunctionVar_36_3: Tensor[(8, 14, 14, 160), float16], PartitionedFromPattern="nn.conv2d_add_add_", Composite="cutlass.conv2d_bias_residual_add") -> Tensor[(8, 14, 14, 160), float16] {
    %656 = nn.conv2d(%FunctionVar_36_0, %FunctionVar_36_1, padding=[0, 0, 0, 0], channels=160, kernel_size=[1, 1], data_layout="NHWC", kernel_layout="OHWI", out_dtype="float16") /* ty=Tensor[(8, 14, 14, 160), float16] */;
    %657 = add(%656, %FunctionVar_36_2) /* ty=Tensor[(8, 14, 14, 160), float16] */;
    add(%657, %FunctionVar_36_3) /* ty=Tensor[(8, 14, 14, 160), float16] */
  };
  %658(%cutlass_143_i0, %cutlass_143_i1, %cutlass_143_i2, %cutlass_143_i3) /* ty=Tensor[(8, 14, 14, 160), float16] */
}

def @tvmgen_default_cutlass_main_147(%cutlass_147_i0: Tensor[(8, 14, 14, 160), float16], %cutlass_147_i1: Tensor[(640, 1, 1, 160), float16], %cutlass_147_i2: Tensor[(1, 1, 1, 640), float16], Inline=1, Compiler="cutlass", global_symbol="tvmgen_default_cutlass_main_147", Primitive=1) -> Tensor[(8, 14, 14, 640), float16] {
  %662 = fn (%FunctionVar_117_0: Tensor[(8, 14, 14, 160), float16], %FunctionVar_117_1: Tensor[(640, 1, 1, 160), float16], %FunctionVar_117_2: Tensor[(1, 1, 1, 640), float16], PartitionedFromPattern="nn.conv2d_add_sigmoid_multiply_", Composite="cutlass.conv2d_bias_silu") -> Tensor[(8, 14, 14, 640), float16] {
    %659 = nn.conv2d(%FunctionVar_117_0, %FunctionVar_117_1, padding=[0, 0, 0, 0], channels=640, kernel_size=[1, 1], data_layout="NHWC", kernel_layout="OHWI", out_dtype="float16") /* ty=Tensor[(8, 14, 14, 640), float16] */;
    %660 = add(%659, %FunctionVar_117_2) /* ty=Tensor[(8, 14, 14, 640), float16] */;
    %661 = sigmoid(%660) /* ty=Tensor[(8, 14, 14, 640), float16] */;
    multiply(%660, %661) /* ty=Tensor[(8, 14, 14, 640), float16] */
  };
  %662(%cutlass_147_i0, %cutlass_147_i1, %cutlass_147_i2) /* ty=Tensor[(8, 14, 14, 640), float16] */
}

def @tvmgen_default_cutlass_main_15(%cutlass_15_i0: Tensor[(8, 112, 112, 24), float16], %cutlass_15_i1: Tensor[(96, 3, 3, 24), float16], %cutlass_15_i2: Tensor[(1, 1, 1, 96), float16], Inline=1, Compiler="cutlass", global_symbol="tvmgen_default_cutlass_main_15", Primitive=1) -> Tensor[(8, 56, 56, 96), float16] {
  %666 = fn (%FunctionVar_142_0: Tensor[(8, 112, 112, 24), float16], %FunctionVar_142_1: Tensor[(96, 3, 3, 24), float16], %FunctionVar_142_2: Tensor[(1, 1, 1, 96), float16], PartitionedFromPattern="nn.conv2d_add_sigmoid_multiply_", Composite="cutlass.conv2d_bias_silu") -> Tensor[(8, 56, 56, 96), float16] {
    %663 = nn.conv2d(%FunctionVar_142_0, %FunctionVar_142_1, strides=[2, 2], padding=[0, 0, 1, 1], channels=96, kernel_size=[3, 3], data_layout="NHWC", kernel_layout="OHWI", out_dtype="float16") /* ty=Tensor[(8, 56, 56, 96), float16] */;
    %664 = add(%663, %FunctionVar_142_2) /* ty=Tensor[(8, 56, 56, 96), float16] */;
    %665 = sigmoid(%664) /* ty=Tensor[(8, 56, 56, 96), float16] */;
    multiply(%664, %665) /* ty=Tensor[(8, 56, 56, 96), float16] */
  };
  %666(%cutlass_15_i0, %cutlass_15_i1, %cutlass_15_i2) /* ty=Tensor[(8, 56, 56, 96), float16] */
}

def @tvmgen_default_cutlass_main_150(%cutlass_150_i0: Tensor[(8, 1, 1, 640), float16], %cutlass_150_i1: Tensor[(40, 1, 1, 640), float16], %cutlass_150_i2: Tensor[(1, 1, 1, 40), float16], Inline=1, Compiler="cutlass", global_symbol="tvmgen_default_cutlass_main_150", Primitive=1) -> Tensor[(8, 1, 1, 40), float16] {
  %670 = fn (%FunctionVar_115_0: Tensor[(8, 1, 1, 640), float16], %FunctionVar_115_1: Tensor[(40, 1, 1, 640), float16], %FunctionVar_115_2: Tensor[(1, 1, 1, 40), float16], PartitionedFromPattern="nn.conv2d_add_sigmoid_multiply_", Composite="cutlass.conv2d_bias_silu") -> Tensor[(8, 1, 1, 40), float16] {
    %667 = nn.conv2d(%FunctionVar_115_0, %FunctionVar_115_1, padding=[0, 0, 0, 0], channels=40, kernel_size=[1, 1], data_layout="NHWC", kernel_layout="OHWI", out_dtype="float16") /* ty=Tensor[(8, 1, 1, 40), float16] */;
    %668 = add(%667, %FunctionVar_115_2) /* ty=Tensor[(8, 1, 1, 40), float16] */;
    %669 = sigmoid(%668) /* ty=Tensor[(8, 1, 1, 40), float16] */;
    multiply(%668, %669) /* ty=Tensor[(8, 1, 1, 40), float16] */
  };
  %670(%cutlass_150_i0, %cutlass_150_i1, %cutlass_150_i2) /* ty=Tensor[(8, 1, 1, 40), float16] */
}

def @tvmgen_default_cutlass_main_153(%cutlass_153_i0: Tensor[(8, 1, 1, 40), float16], %cutlass_153_i1: Tensor[(640, 1, 1, 40), float16], %cutlass_153_i2: Tensor[(1, 1, 1, 640), float16], Inline=1, Compiler="cutlass", global_symbol="tvmgen_default_cutlass_main_153", Primitive=1) -> Tensor[(8, 1, 1, 640), float16] {
  %673 = fn (%FunctionVar_76_0: Tensor[(8, 1, 1, 40), float16], %FunctionVar_76_1: Tensor[(640, 1, 1, 40), float16], %FunctionVar_76_2: Tensor[(1, 1, 1, 640), float16], PartitionedFromPattern="nn.conv2d_add_sigmoid_", Composite="cutlass.conv2d_bias_sigmoid") -> Tensor[(8, 1, 1, 640), float16] {
    %671 = nn.conv2d(%FunctionVar_76_0, %FunctionVar_76_1, padding=[0, 0, 0, 0], channels=640, kernel_size=[1, 1], data_layout="NHWC", kernel_layout="OHWI", out_dtype="float16") /* ty=Tensor[(8, 1, 1, 640), float16] */;
    %672 = add(%671, %FunctionVar_76_2) /* ty=Tensor[(8, 1, 1, 640), float16] */;
    sigmoid(%672) /* ty=Tensor[(8, 1, 1, 640), float16] */
  };
  %673(%cutlass_153_i0, %cutlass_153_i1, %cutlass_153_i2) /* ty=Tensor[(8, 1, 1, 640), float16] */
}

def @tvmgen_default_cutlass_main_156(%cutlass_156_i0: Tensor[(8, 14, 14, 640), float16], %cutlass_156_i1: Tensor[(160, 1, 1, 640), float16], %cutlass_156_i2: Tensor[(1, 1, 1, 160), float16], %cutlass_156_i3: Tensor[(8, 14, 14, 160), float16], Inline=1, Compiler="cutlass", global_symbol="tvmgen_default_cutlass_main_156", Primitive=1) -> Tensor[(8, 14, 14, 160), float16] {
  %676 = fn (%FunctionVar_35_0: Tensor[(8, 14, 14, 640), float16], %FunctionVar_35_1: Tensor[(160, 1, 1, 640), float16], %FunctionVar_35_2: Tensor[(1, 1, 1, 160), float16], %FunctionVar_35_3: Tensor[(8, 14, 14, 160), float16], PartitionedFromPattern="nn.conv2d_add_add_", Composite="cutlass.conv2d_bias_residual_add") -> Tensor[(8, 14, 14, 160), float16] {
    %674 = nn.conv2d(%FunctionVar_35_0, %FunctionVar_35_1, padding=[0, 0, 0, 0], channels=160, kernel_size=[1, 1], data_layout="NHWC", kernel_layout="OHWI", out_dtype="float16") /* ty=Tensor[(8, 14, 14, 160), float16] */;
    %675 = add(%674, %FunctionVar_35_2) /* ty=Tensor[(8, 14, 14, 160), float16] */;
    add(%675, %FunctionVar_35_3) /* ty=Tensor[(8, 14, 14, 160), float16] */
  };
  %676(%cutlass_156_i0, %cutlass_156_i1, %cutlass_156_i2, %cutlass_156_i3) /* ty=Tensor[(8, 14, 14, 160), float16] */
}

def @tvmgen_default_cutlass_main_160(%cutlass_160_i0: Tensor[(8, 14, 14, 160), float16], %cutlass_160_i1: Tensor[(640, 1, 1, 160), float16], %cutlass_160_i2: Tensor[(1, 1, 1, 640), float16], Inline=1, Compiler="cutlass", global_symbol="tvmgen_default_cutlass_main_160", Primitive=1) -> Tensor[(8, 14, 14, 640), float16] {
  %680 = fn (%FunctionVar_114_0: Tensor[(8, 14, 14, 160), float16], %FunctionVar_114_1: Tensor[(640, 1, 1, 160), float16], %FunctionVar_114_2: Tensor[(1, 1, 1, 640), float16], PartitionedFromPattern="nn.conv2d_add_sigmoid_multiply_", Composite="cutlass.conv2d_bias_silu") -> Tensor[(8, 14, 14, 640), float16] {
    %677 = nn.conv2d(%FunctionVar_114_0, %FunctionVar_114_1, padding=[0, 0, 0, 0], channels=640, kernel_size=[1, 1], data_layout="NHWC", kernel_layout="OHWI", out_dtype="float16") /* ty=Tensor[(8, 14, 14, 640), float16] */;
    %678 = add(%677, %FunctionVar_114_2) /* ty=Tensor[(8, 14, 14, 640), float16] */;
    %679 = sigmoid(%678) /* ty=Tensor[(8, 14, 14, 640), float16] */;
    multiply(%678, %679) /* ty=Tensor[(8, 14, 14, 640), float16] */
  };
  %680(%cutlass_160_i0, %cutlass_160_i1, %cutlass_160_i2) /* ty=Tensor[(8, 14, 14, 640), float16] */
}

def @tvmgen_default_cutlass_main_163(%cutlass_163_i0: Tensor[(8, 1, 1, 640), float16], %cutlass_163_i1: Tensor[(40, 1, 1, 640), float16], %cutlass_163_i2: Tensor[(1, 1, 1, 40), float16], Inline=1, Compiler="cutlass", global_symbol="tvmgen_default_cutlass_main_163", Primitive=1) -> Tensor[(8, 1, 1, 40), float16] {
  %684 = fn (%FunctionVar_112_0: Tensor[(8, 1, 1, 640), float16], %FunctionVar_112_1: Tensor[(40, 1, 1, 640), float16], %FunctionVar_112_2: Tensor[(1, 1, 1, 40), float16], PartitionedFromPattern="nn.conv2d_add_sigmoid_multiply_", Composite="cutlass.conv2d_bias_silu") -> Tensor[(8, 1, 1, 40), float16] {
    %681 = nn.conv2d(%FunctionVar_112_0, %FunctionVar_112_1, padding=[0, 0, 0, 0], channels=40, kernel_size=[1, 1], data_layout="NHWC", kernel_layout="OHWI", out_dtype="float16") /* ty=Tensor[(8, 1, 1, 40), float16] */;
    %682 = add(%681, %FunctionVar_112_2) /* ty=Tensor[(8, 1, 1, 40), float16] */;
    %683 = sigmoid(%682) /* ty=Tensor[(8, 1, 1, 40), float16] */;
    multiply(%682, %683) /* ty=Tensor[(8, 1, 1, 40), float16] */
  };
  %684(%cutlass_163_i0, %cutlass_163_i1, %cutlass_163_i2) /* ty=Tensor[(8, 1, 1, 40), float16] */
}

def @tvmgen_default_cutlass_main_166(%cutlass_166_i0: Tensor[(8, 1, 1, 40), float16], %cutlass_166_i1: Tensor[(640, 1, 1, 40), float16], %cutlass_166_i2: Tensor[(1, 1, 1, 640), float16], Inline=1, Compiler="cutlass", global_symbol="tvmgen_default_cutlass_main_166", Primitive=1) -> Tensor[(8, 1, 1, 640), float16] {
  %687 = fn (%FunctionVar_74_0: Tensor[(8, 1, 1, 40), float16], %FunctionVar_74_1: Tensor[(640, 1, 1, 40), float16], %FunctionVar_74_2: Tensor[(1, 1, 1, 640), float16], PartitionedFromPattern="nn.conv2d_add_sigmoid_", Composite="cutlass.conv2d_bias_sigmoid") -> Tensor[(8, 1, 1, 640), float16] {
    %685 = nn.conv2d(%FunctionVar_74_0, %FunctionVar_74_1, padding=[0, 0, 0, 0], channels=640, kernel_size=[1, 1], data_layout="NHWC", kernel_layout="OHWI", out_dtype="float16") /* ty=Tensor[(8, 1, 1, 640), float16] */;
    %686 = add(%685, %FunctionVar_74_2) /* ty=Tensor[(8, 1, 1, 640), float16] */;
    sigmoid(%686) /* ty=Tensor[(8, 1, 1, 640), float16] */
  };
  %687(%cutlass_166_i0, %cutlass_166_i1, %cutlass_166_i2) /* ty=Tensor[(8, 1, 1, 640), float16] */
}

def @tvmgen_default_cutlass_main_169(%cutlass_169_i0: Tensor[(8, 14, 14, 640), float16], %cutlass_169_i1: Tensor[(160, 1, 1, 640), float16], %cutlass_169_i2: Tensor[(1, 1, 1, 160), float16], %cutlass_169_i3: Tensor[(8, 14, 14, 160), float16], Inline=1, Compiler="cutlass", global_symbol="tvmgen_default_cutlass_main_169", Primitive=1) -> Tensor[(8, 14, 14, 160), float16] {
  %690 = fn (%FunctionVar_34_0: Tensor[(8, 14, 14, 640), float16], %FunctionVar_34_1: Tensor[(160, 1, 1, 640), float16], %FunctionVar_34_2: Tensor[(1, 1, 1, 160), float16], %FunctionVar_34_3: Tensor[(8, 14, 14, 160), float16], PartitionedFromPattern="nn.conv2d_add_add_", Composite="cutlass.conv2d_bias_residual_add") -> Tensor[(8, 14, 14, 160), float16] {
    %688 = nn.conv2d(%FunctionVar_34_0, %FunctionVar_34_1, padding=[0, 0, 0, 0], channels=160, kernel_size=[1, 1], data_layout="NHWC", kernel_layout="OHWI", out_dtype="float16") /* ty=Tensor[(8, 14, 14, 160), float16] */;
    %689 = add(%688, %FunctionVar_34_2) /* ty=Tensor[(8, 14, 14, 160), float16] */;
    add(%689, %FunctionVar_34_3) /* ty=Tensor[(8, 14, 14, 160), float16] */
  };
  %690(%cutlass_169_i0, %cutlass_169_i1, %cutlass_169_i2, %cutlass_169_i3) /* ty=Tensor[(8, 14, 14, 160), float16] */
}

def @tvmgen_default_cutlass_main_173(%cutlass_173_i0: Tensor[(8, 14, 14, 160), float16], %cutlass_173_i1: Tensor[(960, 1, 1, 160), float16], %cutlass_173_i2: Tensor[(1, 1, 1, 960), float16], Inline=1, Compiler="cutlass", global_symbol="tvmgen_default_cutlass_main_173", Primitive=1) -> Tensor[(8, 14, 14, 960), float16] {
  %694 = fn (%FunctionVar_111_0: Tensor[(8, 14, 14, 160), float16], %FunctionVar_111_1: Tensor[(960, 1, 1, 160), float16], %FunctionVar_111_2: Tensor[(1, 1, 1, 960), float16], PartitionedFromPattern="nn.conv2d_add_sigmoid_multiply_", Composite="cutlass.conv2d_bias_silu") -> Tensor[(8, 14, 14, 960), float16] {
    %691 = nn.conv2d(%FunctionVar_111_0, %FunctionVar_111_1, padding=[0, 0, 0, 0], channels=960, kernel_size=[1, 1], data_layout="NHWC", kernel_layout="OHWI", out_dtype="float16") /* ty=Tensor[(8, 14, 14, 960), float16] */;
    %692 = add(%691, %FunctionVar_111_2) /* ty=Tensor[(8, 14, 14, 960), float16] */;
    %693 = sigmoid(%692) /* ty=Tensor[(8, 14, 14, 960), float16] */;
    multiply(%692, %693) /* ty=Tensor[(8, 14, 14, 960), float16] */
  };
  %694(%cutlass_173_i0, %cutlass_173_i1, %cutlass_173_i2) /* ty=Tensor[(8, 14, 14, 960), float16] */
}

def @tvmgen_default_cutlass_main_176(%cutlass_176_i0: Tensor[(8, 1, 1, 960), float16], %cutlass_176_i1: Tensor[(40, 1, 1, 960), float16], %cutlass_176_i2: Tensor[(1, 1, 1, 40), float16], Inline=1, Compiler="cutlass", global_symbol="tvmgen_default_cutlass_main_176", Primitive=1) -> Tensor[(8, 1, 1, 40), float16] {
  %698 = fn (%FunctionVar_109_0: Tensor[(8, 1, 1, 960), float16], %FunctionVar_109_1: Tensor[(40, 1, 1, 960), float16], %FunctionVar_109_2: Tensor[(1, 1, 1, 40), float16], PartitionedFromPattern="nn.conv2d_add_sigmoid_multiply_", Composite="cutlass.conv2d_bias_silu") -> Tensor[(8, 1, 1, 40), float16] {
    %695 = nn.conv2d(%FunctionVar_109_0, %FunctionVar_109_1, padding=[0, 0, 0, 0], channels=40, kernel_size=[1, 1], data_layout="NHWC", kernel_layout="OHWI", out_dtype="float16") /* ty=Tensor[(8, 1, 1, 40), float16] */;
    %696 = add(%695, %FunctionVar_109_2) /* ty=Tensor[(8, 1, 1, 40), float16] */;
    %697 = sigmoid(%696) /* ty=Tensor[(8, 1, 1, 40), float16] */;
    multiply(%696, %697) /* ty=Tensor[(8, 1, 1, 40), float16] */
  };
  %698(%cutlass_176_i0, %cutlass_176_i1, %cutlass_176_i2) /* ty=Tensor[(8, 1, 1, 40), float16] */
}

def @tvmgen_default_cutlass_main_179(%cutlass_179_i0: Tensor[(8, 1, 1, 40), float16], %cutlass_179_i1: Tensor[(960, 1, 1, 40), float16], %cutlass_179_i2: Tensor[(1, 1, 1, 960), float16], Inline=1, Compiler="cutlass", global_symbol="tvmgen_default_cutlass_main_179", Primitive=1) -> Tensor[(8, 1, 1, 960), float16] {
  %701 = fn (%FunctionVar_72_0: Tensor[(8, 1, 1, 40), float16], %FunctionVar_72_1: Tensor[(960, 1, 1, 40), float16], %FunctionVar_72_2: Tensor[(1, 1, 1, 960), float16], PartitionedFromPattern="nn.conv2d_add_sigmoid_", Composite="cutlass.conv2d_bias_sigmoid") -> Tensor[(8, 1, 1, 960), float16] {
    %699 = nn.conv2d(%FunctionVar_72_0, %FunctionVar_72_1, padding=[0, 0, 0, 0], channels=960, kernel_size=[1, 1], data_layout="NHWC", kernel_layout="OHWI", out_dtype="float16") /* ty=Tensor[(8, 1, 1, 960), float16] */;
    %700 = add(%699, %FunctionVar_72_2) /* ty=Tensor[(8, 1, 1, 960), float16] */;
    sigmoid(%700) /* ty=Tensor[(8, 1, 1, 960), float16] */
  };
  %701(%cutlass_179_i0, %cutlass_179_i1, %cutlass_179_i2) /* ty=Tensor[(8, 1, 1, 960), float16] */
}

def @tvmgen_default_cutlass_main_18(%cutlass_18_i0: Tensor[(8, 56, 56, 96), float16], %cutlass_18_i1: Tensor[(48, 1, 1, 96), float16], %cutlass_18_i2: Tensor[(1, 1, 1, 48), float16], Inline=1, Compiler="cutlass", global_symbol="tvmgen_default_cutlass_main_18", Primitive=1) -> Tensor[(8, 56, 56, 48), float16] {
  %703 = fn (%FunctionVar_49_0: Tensor[(8, 56, 56, 96), float16], %FunctionVar_49_1: Tensor[(48, 1, 1, 96), float16], %FunctionVar_49_2: Tensor[(1, 1, 1, 48), float16], PartitionedFromPattern="nn.conv2d_add_", Composite="cutlass.conv2d_bias") -> Tensor[(8, 56, 56, 48), float16] {
    %702 = nn.conv2d(%FunctionVar_49_0, %FunctionVar_49_1, padding=[0, 0, 0, 0], channels=48, kernel_size=[1, 1], data_layout="NHWC", kernel_layout="OHWI", out_dtype="float16") /* ty=Tensor[(8, 56, 56, 48), float16] */;
    add(%702, %FunctionVar_49_2) /* ty=Tensor[(8, 56, 56, 48), float16] */
  };
  %703(%cutlass_18_i0, %cutlass_18_i1, %cutlass_18_i2) /* ty=Tensor[(8, 56, 56, 48), float16] */
}

def @tvmgen_default_cutlass_main_182(%cutlass_182_i0: Tensor[(8, 14, 14, 960), float16], %cutlass_182_i1: Tensor[(176, 1, 1, 960), float16], %cutlass_182_i2: Tensor[(1, 1, 1, 176), float16], Inline=1, Compiler="cutlass", global_symbol="tvmgen_default_cutlass_main_182", Primitive=1) -> Tensor[(8, 14, 14, 176), float16] {
  %705 = fn (%FunctionVar_38_01: Tensor[(8, 14, 14, 960), float16], %FunctionVar_38_11: Tensor[(176, 1, 1, 960), float16], %FunctionVar_38_21: Tensor[(1, 1, 1, 176), float16], PartitionedFromPattern="nn.conv2d_add_", Composite="cutlass.conv2d_bias") -> Tensor[(8, 14, 14, 176), float16] {
    %704 = nn.conv2d(%FunctionVar_38_01, %FunctionVar_38_11, padding=[0, 0, 0, 0], channels=176, kernel_size=[1, 1], data_layout="NHWC", kernel_layout="OHWI", out_dtype="float16") /* ty=Tensor[(8, 14, 14, 176), float16] */;
    add(%704, %FunctionVar_38_21) /* ty=Tensor[(8, 14, 14, 176), float16] */
  };
  %705(%cutlass_182_i0, %cutlass_182_i1, %cutlass_182_i2) /* ty=Tensor[(8, 14, 14, 176), float16] */
}

def @tvmgen_default_cutlass_main_185(%cutlass_185_i0: Tensor[(8, 14, 14, 176), float16], %cutlass_185_i1: Tensor[(1056, 1, 1, 176), float16], %cutlass_185_i2: Tensor[(1056), float16], Inline=1, Compiler="cutlass", global_symbol="tvmgen_default_cutlass_main_185", Primitive=1) -> Tensor[(8, 14, 14, 1056), float16] {
  %709 = fn (%FunctionVar_108_0: Tensor[(8, 14, 14, 176), float16], %FunctionVar_108_1: Tensor[(1056, 1, 1, 176), float16], %FunctionVar_108_2: Tensor[(1056), float16], PartitionedFromPattern="nn.conv2d_add_sigmoid_multiply_", Composite="cutlass.conv2d_bias_silu") -> Tensor[(8, 14, 14, 1056), float16] {
    %706 = nn.conv2d(%FunctionVar_108_0, %FunctionVar_108_1, padding=[0, 0, 0, 0], channels=1056, kernel_size=[1, 1], data_layout="NHWC", kernel_layout="OHWI", out_dtype="float16") /* ty=Tensor[(8, 14, 14, 1056), float16] */;
    %707 = add(%706, %FunctionVar_108_2) /* ty=Tensor[(8, 14, 14, 1056), float16] */;
    %708 = sigmoid(%707) /* ty=Tensor[(8, 14, 14, 1056), float16] */;
    multiply(%707, %708) /* ty=Tensor[(8, 14, 14, 1056), float16] */
  };
  %709(%cutlass_185_i0, %cutlass_185_i1, %cutlass_185_i2) /* ty=Tensor[(8, 14, 14, 1056), float16] */
}

def @tvmgen_default_cutlass_main_188(%cutlass_188_i0: Tensor[(8, 1, 1, 1056), float16], %cutlass_188_i1: Tensor[(44, 1, 1, 1056), float16], %cutlass_188_i2: Tensor[(1, 1, 1, 44), float16], Inline=1, Compiler="cutlass", global_symbol="tvmgen_default_cutlass_main_188", Primitive=1) -> Tensor[(8, 1, 1, 44), float16] {
  %713 = fn (%FunctionVar_106_0: Tensor[(8, 1, 1, 1056), float16], %FunctionVar_106_1: Tensor[(44, 1, 1, 1056), float16], %FunctionVar_106_2: Tensor[(1, 1, 1, 44), float16], PartitionedFromPattern="nn.conv2d_add_sigmoid_multiply_", Composite="cutlass.conv2d_bias_silu") -> Tensor[(8, 1, 1, 44), float16] {
    %710 = nn.conv2d(%FunctionVar_106_0, %FunctionVar_106_1, padding=[0, 0, 0, 0], channels=44, kernel_size=[1, 1], data_layout="NHWC", kernel_layout="OHWI", out_dtype="float16") /* ty=Tensor[(8, 1, 1, 44), float16] */;
    %711 = add(%710, %FunctionVar_106_2) /* ty=Tensor[(8, 1, 1, 44), float16] */;
    %712 = sigmoid(%711) /* ty=Tensor[(8, 1, 1, 44), float16] */;
    multiply(%711, %712) /* ty=Tensor[(8, 1, 1, 44), float16] */
  };
  %713(%cutlass_188_i0, %cutlass_188_i1, %cutlass_188_i2) /* ty=Tensor[(8, 1, 1, 44), float16] */
}

def @tvmgen_default_cutlass_main_191(%cutlass_191_i0: Tensor[(8, 1, 1, 44), float16], %cutlass_191_i1: Tensor[(1056, 1, 1, 44), float16], %cutlass_191_i2: Tensor[(1, 1, 1, 1056), float16], Inline=1, Compiler="cutlass", global_symbol="tvmgen_default_cutlass_main_191", Primitive=1) -> Tensor[(8, 1, 1, 1056), float16] {
  %716 = fn (%FunctionVar_70_0: Tensor[(8, 1, 1, 44), float16], %FunctionVar_70_1: Tensor[(1056, 1, 1, 44), float16], %FunctionVar_70_2: Tensor[(1, 1, 1, 1056), float16], PartitionedFromPattern="nn.conv2d_add_sigmoid_", Composite="cutlass.conv2d_bias_sigmoid") -> Tensor[(8, 1, 1, 1056), float16] {
    %714 = nn.conv2d(%FunctionVar_70_0, %FunctionVar_70_1, padding=[0, 0, 0, 0], channels=1056, kernel_size=[1, 1], data_layout="NHWC", kernel_layout="OHWI", out_dtype="float16") /* ty=Tensor[(8, 1, 1, 1056), float16] */;
    %715 = add(%714, %FunctionVar_70_2) /* ty=Tensor[(8, 1, 1, 1056), float16] */;
    sigmoid(%715) /* ty=Tensor[(8, 1, 1, 1056), float16] */
  };
  %716(%cutlass_191_i0, %cutlass_191_i1, %cutlass_191_i2) /* ty=Tensor[(8, 1, 1, 1056), float16] */
}

def @tvmgen_default_cutlass_main_194(%cutlass_194_i0: Tensor[(8, 14, 14, 1056), float16], %cutlass_194_i1: Tensor[(176, 1, 1, 1056), float16], %cutlass_194_i2: Tensor[(1, 1, 1, 176), float16], %cutlass_194_i3: Tensor[(8, 14, 14, 176), float16], Inline=1, Compiler="cutlass", global_symbol="tvmgen_default_cutlass_main_194", Primitive=1) -> Tensor[(8, 14, 14, 176), float16] {
  %719 = fn (%FunctionVar_33_0: Tensor[(8, 14, 14, 1056), float16], %FunctionVar_33_1: Tensor[(176, 1, 1, 1056), float16], %FunctionVar_33_2: Tensor[(1, 1, 1, 176), float16], %FunctionVar_33_3: Tensor[(8, 14, 14, 176), float16], PartitionedFromPattern="nn.conv2d_add_add_", Composite="cutlass.conv2d_bias_residual_add") -> Tensor[(8, 14, 14, 176), float16] {
    %717 = nn.conv2d(%FunctionVar_33_0, %FunctionVar_33_1, padding=[0, 0, 0, 0], channels=176, kernel_size=[1, 1], data_layout="NHWC", kernel_layout="OHWI", out_dtype="float16") /* ty=Tensor[(8, 14, 14, 176), float16] */;
    %718 = add(%717, %FunctionVar_33_2) /* ty=Tensor[(8, 14, 14, 176), float16] */;
    add(%718, %FunctionVar_33_3) /* ty=Tensor[(8, 14, 14, 176), float16] */
  };
  %719(%cutlass_194_i0, %cutlass_194_i1, %cutlass_194_i2, %cutlass_194_i3) /* ty=Tensor[(8, 14, 14, 176), float16] */
}

def @tvmgen_default_cutlass_main_198(%cutlass_198_i0: Tensor[(8, 14, 14, 176), float16], %cutlass_198_i1: Tensor[(1056, 1, 1, 176), float16], %cutlass_198_i2: Tensor[(1, 1, 1, 1056), float16], Inline=1, Compiler="cutlass", global_symbol="tvmgen_default_cutlass_main_198", Primitive=1) -> Tensor[(8, 14, 14, 1056), float16] {
  %723 = fn (%FunctionVar_105_0: Tensor[(8, 14, 14, 176), float16], %FunctionVar_105_1: Tensor[(1056, 1, 1, 176), float16], %FunctionVar_105_2: Tensor[(1, 1, 1, 1056), float16], PartitionedFromPattern="nn.conv2d_add_sigmoid_multiply_", Composite="cutlass.conv2d_bias_silu") -> Tensor[(8, 14, 14, 1056), float16] {
    %720 = nn.conv2d(%FunctionVar_105_0, %FunctionVar_105_1, padding=[0, 0, 0, 0], channels=1056, kernel_size=[1, 1], data_layout="NHWC", kernel_layout="OHWI", out_dtype="float16") /* ty=Tensor[(8, 14, 14, 1056), float16] */;
    %721 = add(%720, %FunctionVar_105_2) /* ty=Tensor[(8, 14, 14, 1056), float16] */;
    %722 = sigmoid(%721) /* ty=Tensor[(8, 14, 14, 1056), float16] */;
    multiply(%721, %722) /* ty=Tensor[(8, 14, 14, 1056), float16] */
  };
  %723(%cutlass_198_i0, %cutlass_198_i1, %cutlass_198_i2) /* ty=Tensor[(8, 14, 14, 1056), float16] */
}

def @tvmgen_default_cutlass_main_201(%cutlass_201_i0: Tensor[(8, 1, 1, 1056), float16], %cutlass_201_i1: Tensor[(44, 1, 1, 1056), float16], %cutlass_201_i2: Tensor[(1, 1, 1, 44), float16], Inline=1, Compiler="cutlass", global_symbol="tvmgen_default_cutlass_main_201", Primitive=1) -> Tensor[(8, 1, 1, 44), float16] {
  %727 = fn (%FunctionVar_103_0: Tensor[(8, 1, 1, 1056), float16], %FunctionVar_103_1: Tensor[(44, 1, 1, 1056), float16], %FunctionVar_103_2: Tensor[(1, 1, 1, 44), float16], PartitionedFromPattern="nn.conv2d_add_sigmoid_multiply_", Composite="cutlass.conv2d_bias_silu") -> Tensor[(8, 1, 1, 44), float16] {
    %724 = nn.conv2d(%FunctionVar_103_0, %FunctionVar_103_1, padding=[0, 0, 0, 0], channels=44, kernel_size=[1, 1], data_layout="NHWC", kernel_layout="OHWI", out_dtype="float16") /* ty=Tensor[(8, 1, 1, 44), float16] */;
    %725 = add(%724, %FunctionVar_103_2) /* ty=Tensor[(8, 1, 1, 44), float16] */;
    %726 = sigmoid(%725) /* ty=Tensor[(8, 1, 1, 44), float16] */;
    multiply(%725, %726) /* ty=Tensor[(8, 1, 1, 44), float16] */
  };
  %727(%cutlass_201_i0, %cutlass_201_i1, %cutlass_201_i2) /* ty=Tensor[(8, 1, 1, 44), float16] */
}

def @tvmgen_default_cutlass_main_204(%cutlass_204_i0: Tensor[(8, 1, 1, 44), float16], %cutlass_204_i1: Tensor[(1056, 1, 1, 44), float16], %cutlass_204_i2: Tensor[(1, 1, 1, 1056), float16], Inline=1, Compiler="cutlass", global_symbol="tvmgen_default_cutlass_main_204", Primitive=1) -> Tensor[(8, 1, 1, 1056), float16] {
  %730 = fn (%FunctionVar_68_0: Tensor[(8, 1, 1, 44), float16], %FunctionVar_68_1: Tensor[(1056, 1, 1, 44), float16], %FunctionVar_68_2: Tensor[(1, 1, 1, 1056), float16], PartitionedFromPattern="nn.conv2d_add_sigmoid_", Composite="cutlass.conv2d_bias_sigmoid") -> Tensor[(8, 1, 1, 1056), float16] {
    %728 = nn.conv2d(%FunctionVar_68_0, %FunctionVar_68_1, padding=[0, 0, 0, 0], channels=1056, kernel_size=[1, 1], data_layout="NHWC", kernel_layout="OHWI", out_dtype="float16") /* ty=Tensor[(8, 1, 1, 1056), float16] */;
    %729 = add(%728, %FunctionVar_68_2) /* ty=Tensor[(8, 1, 1, 1056), float16] */;
    sigmoid(%729) /* ty=Tensor[(8, 1, 1, 1056), float16] */
  };
  %730(%cutlass_204_i0, %cutlass_204_i1, %cutlass_204_i2) /* ty=Tensor[(8, 1, 1, 1056), float16] */
}

def @tvmgen_default_cutlass_main_207(%cutlass_207_i0: Tensor[(8, 14, 14, 1056), float16], %cutlass_207_i1: Tensor[(176, 1, 1, 1056), float16], %cutlass_207_i2: Tensor[(1, 1, 1, 176), float16], %cutlass_207_i3: Tensor[(8, 14, 14, 176), float16], Inline=1, Compiler="cutlass", global_symbol="tvmgen_default_cutlass_main_207", Primitive=1) -> Tensor[(8, 14, 14, 176), float16] {
  %733 = fn (%FunctionVar_32_0: Tensor[(8, 14, 14, 1056), float16], %FunctionVar_32_1: Tensor[(176, 1, 1, 1056), float16], %FunctionVar_32_2: Tensor[(1, 1, 1, 176), float16], %FunctionVar_32_3: Tensor[(8, 14, 14, 176), float16], PartitionedFromPattern="nn.conv2d_add_add_", Composite="cutlass.conv2d_bias_residual_add") -> Tensor[(8, 14, 14, 176), float16] {
    %731 = nn.conv2d(%FunctionVar_32_0, %FunctionVar_32_1, padding=[0, 0, 0, 0], channels=176, kernel_size=[1, 1], data_layout="NHWC", kernel_layout="OHWI", out_dtype="float16") /* ty=Tensor[(8, 14, 14, 176), float16] */;
    %732 = add(%731, %FunctionVar_32_2) /* ty=Tensor[(8, 14, 14, 176), float16] */;
    add(%732, %FunctionVar_32_3) /* ty=Tensor[(8, 14, 14, 176), float16] */
  };
  %733(%cutlass_207_i0, %cutlass_207_i1, %cutlass_207_i2, %cutlass_207_i3) /* ty=Tensor[(8, 14, 14, 176), float16] */
}

def @tvmgen_default_cutlass_main_21(%cutlass_21_i0: Tensor[(8, 56, 56, 48), float16], %cutlass_21_i1: Tensor[(192, 3, 3, 48), float16], %cutlass_21_i2: Tensor[(192), float16], Inline=1, Compiler="cutlass", global_symbol="tvmgen_default_cutlass_main_21", Primitive=1) -> Tensor[(8, 56, 56, 192), float16] {
  %737 = fn (%FunctionVar_141_0: Tensor[(8, 56, 56, 48), float16], %FunctionVar_141_1: Tensor[(192, 3, 3, 48), float16], %FunctionVar_141_2: Tensor[(192), float16], PartitionedFromPattern="nn.conv2d_add_sigmoid_multiply_", Composite="cutlass.conv2d_bias_silu") -> Tensor[(8, 56, 56, 192), float16] {
    %734 = nn.conv2d(%FunctionVar_141_0, %FunctionVar_141_1, padding=[1, 1, 1, 1], channels=192, kernel_size=[3, 3], data_layout="NHWC", kernel_layout="OHWI", out_dtype="float16") /* ty=Tensor[(8, 56, 56, 192), float16] */;
    %735 = add(%734, %FunctionVar_141_2) /* ty=Tensor[(8, 56, 56, 192), float16] */;
    %736 = sigmoid(%735) /* ty=Tensor[(8, 56, 56, 192), float16] */;
    multiply(%735, %736) /* ty=Tensor[(8, 56, 56, 192), float16] */
  };
  %737(%cutlass_21_i0, %cutlass_21_i1, %cutlass_21_i2) /* ty=Tensor[(8, 56, 56, 192), float16] */
}

def @tvmgen_default_cutlass_main_211(%cutlass_211_i0: Tensor[(8, 14, 14, 176), float16], %cutlass_211_i1: Tensor[(1056, 1, 1, 176), float16], %cutlass_211_i2: Tensor[(1, 1, 1, 1056), float16], Inline=1, Compiler="cutlass", global_symbol="tvmgen_default_cutlass_main_211", Primitive=1) -> Tensor[(8, 14, 14, 1056), float16] {
  %741 = fn (%FunctionVar_102_0: Tensor[(8, 14, 14, 176), float16], %FunctionVar_102_1: Tensor[(1056, 1, 1, 176), float16], %FunctionVar_102_2: Tensor[(1, 1, 1, 1056), float16], PartitionedFromPattern="nn.conv2d_add_sigmoid_multiply_", Composite="cutlass.conv2d_bias_silu") -> Tensor[(8, 14, 14, 1056), float16] {
    %738 = nn.conv2d(%FunctionVar_102_0, %FunctionVar_102_1, padding=[0, 0, 0, 0], channels=1056, kernel_size=[1, 1], data_layout="NHWC", kernel_layout="OHWI", out_dtype="float16") /* ty=Tensor[(8, 14, 14, 1056), float16] */;
    %739 = add(%738, %FunctionVar_102_2) /* ty=Tensor[(8, 14, 14, 1056), float16] */;
    %740 = sigmoid(%739) /* ty=Tensor[(8, 14, 14, 1056), float16] */;
    multiply(%739, %740) /* ty=Tensor[(8, 14, 14, 1056), float16] */
  };
  %741(%cutlass_211_i0, %cutlass_211_i1, %cutlass_211_i2) /* ty=Tensor[(8, 14, 14, 1056), float16] */
}

def @tvmgen_default_cutlass_main_214(%cutlass_214_i0: Tensor[(8, 1, 1, 1056), float16], %cutlass_214_i1: Tensor[(44, 1, 1, 1056), float16], %cutlass_214_i2: Tensor[(1, 1, 1, 44), float16], Inline=1, Compiler="cutlass", global_symbol="tvmgen_default_cutlass_main_214", Primitive=1) -> Tensor[(8, 1, 1, 44), float16] {
  %745 = fn (%FunctionVar_100_0: Tensor[(8, 1, 1, 1056), float16], %FunctionVar_100_1: Tensor[(44, 1, 1, 1056), float16], %FunctionVar_100_2: Tensor[(1, 1, 1, 44), float16], PartitionedFromPattern="nn.conv2d_add_sigmoid_multiply_", Composite="cutlass.conv2d_bias_silu") -> Tensor[(8, 1, 1, 44), float16] {
    %742 = nn.conv2d(%FunctionVar_100_0, %FunctionVar_100_1, padding=[0, 0, 0, 0], channels=44, kernel_size=[1, 1], data_layout="NHWC", kernel_layout="OHWI", out_dtype="float16") /* ty=Tensor[(8, 1, 1, 44), float16] */;
    %743 = add(%742, %FunctionVar_100_2) /* ty=Tensor[(8, 1, 1, 44), float16] */;
    %744 = sigmoid(%743) /* ty=Tensor[(8, 1, 1, 44), float16] */;
    multiply(%743, %744) /* ty=Tensor[(8, 1, 1, 44), float16] */
  };
  %745(%cutlass_214_i0, %cutlass_214_i1, %cutlass_214_i2) /* ty=Tensor[(8, 1, 1, 44), float16] */
}

def @tvmgen_default_cutlass_main_217(%cutlass_217_i0: Tensor[(8, 1, 1, 44), float16], %cutlass_217_i1: Tensor[(1056, 1, 1, 44), float16], %cutlass_217_i2: Tensor[(1, 1, 1, 1056), float16], Inline=1, Compiler="cutlass", global_symbol="tvmgen_default_cutlass_main_217", Primitive=1) -> Tensor[(8, 1, 1, 1056), float16] {
  %748 = fn (%FunctionVar_66_0: Tensor[(8, 1, 1, 44), float16], %FunctionVar_66_1: Tensor[(1056, 1, 1, 44), float16], %FunctionVar_66_2: Tensor[(1, 1, 1, 1056), float16], PartitionedFromPattern="nn.conv2d_add_sigmoid_", Composite="cutlass.conv2d_bias_sigmoid") -> Tensor[(8, 1, 1, 1056), float16] {
    %746 = nn.conv2d(%FunctionVar_66_0, %FunctionVar_66_1, padding=[0, 0, 0, 0], channels=1056, kernel_size=[1, 1], data_layout="NHWC", kernel_layout="OHWI", out_dtype="float16") /* ty=Tensor[(8, 1, 1, 1056), float16] */;
    %747 = add(%746, %FunctionVar_66_2) /* ty=Tensor[(8, 1, 1, 1056), float16] */;
    sigmoid(%747) /* ty=Tensor[(8, 1, 1, 1056), float16] */
  };
  %748(%cutlass_217_i0, %cutlass_217_i1, %cutlass_217_i2) /* ty=Tensor[(8, 1, 1, 1056), float16] */
}

def @tvmgen_default_cutlass_main_220(%cutlass_220_i0: Tensor[(8, 14, 14, 1056), float16], %cutlass_220_i1: Tensor[(176, 1, 1, 1056), float16], %cutlass_220_i2: Tensor[(1, 1, 1, 176), float16], %cutlass_220_i3: Tensor[(8, 14, 14, 176), float16], Inline=1, Compiler="cutlass", global_symbol="tvmgen_default_cutlass_main_220", Primitive=1) -> Tensor[(8, 14, 14, 176), float16] {
  %751 = fn (%FunctionVar_31_0: Tensor[(8, 14, 14, 1056), float16], %FunctionVar_31_1: Tensor[(176, 1, 1, 1056), float16], %FunctionVar_31_2: Tensor[(1, 1, 1, 176), float16], %FunctionVar_31_3: Tensor[(8, 14, 14, 176), float16], PartitionedFromPattern="nn.conv2d_add_add_", Composite="cutlass.conv2d_bias_residual_add") -> Tensor[(8, 14, 14, 176), float16] {
    %749 = nn.conv2d(%FunctionVar_31_0, %FunctionVar_31_1, padding=[0, 0, 0, 0], channels=176, kernel_size=[1, 1], data_layout="NHWC", kernel_layout="OHWI", out_dtype="float16") /* ty=Tensor[(8, 14, 14, 176), float16] */;
    %750 = add(%749, %FunctionVar_31_2) /* ty=Tensor[(8, 14, 14, 176), float16] */;
    add(%750, %FunctionVar_31_3) /* ty=Tensor[(8, 14, 14, 176), float16] */
  };
  %751(%cutlass_220_i0, %cutlass_220_i1, %cutlass_220_i2, %cutlass_220_i3) /* ty=Tensor[(8, 14, 14, 176), float16] */
}

def @tvmgen_default_cutlass_main_224(%cutlass_224_i0: Tensor[(8, 14, 14, 176), float16], %cutlass_224_i1: Tensor[(1056, 1, 1, 176), float16], %cutlass_224_i2: Tensor[(1, 1, 1, 1056), float16], Inline=1, Compiler="cutlass", global_symbol="tvmgen_default_cutlass_main_224", Primitive=1) -> Tensor[(8, 14, 14, 1056), float16] {
  %755 = fn (%FunctionVar_99_0: Tensor[(8, 14, 14, 176), float16], %FunctionVar_99_1: Tensor[(1056, 1, 1, 176), float16], %FunctionVar_99_2: Tensor[(1, 1, 1, 1056), float16], PartitionedFromPattern="nn.conv2d_add_sigmoid_multiply_", Composite="cutlass.conv2d_bias_silu") -> Tensor[(8, 14, 14, 1056), float16] {
    %752 = nn.conv2d(%FunctionVar_99_0, %FunctionVar_99_1, padding=[0, 0, 0, 0], channels=1056, kernel_size=[1, 1], data_layout="NHWC", kernel_layout="OHWI", out_dtype="float16") /* ty=Tensor[(8, 14, 14, 1056), float16] */;
    %753 = add(%752, %FunctionVar_99_2) /* ty=Tensor[(8, 14, 14, 1056), float16] */;
    %754 = sigmoid(%753) /* ty=Tensor[(8, 14, 14, 1056), float16] */;
    multiply(%753, %754) /* ty=Tensor[(8, 14, 14, 1056), float16] */
  };
  %755(%cutlass_224_i0, %cutlass_224_i1, %cutlass_224_i2) /* ty=Tensor[(8, 14, 14, 1056), float16] */
}

def @tvmgen_default_cutlass_main_227(%cutlass_227_i0: Tensor[(8, 1, 1, 1056), float16], %cutlass_227_i1: Tensor[(44, 1, 1, 1056), float16], %cutlass_227_i2: Tensor[(1, 1, 1, 44), float16], Inline=1, Compiler="cutlass", global_symbol="tvmgen_default_cutlass_main_227", Primitive=1) -> Tensor[(8, 1, 1, 44), float16] {
  %759 = fn (%FunctionVar_97_0: Tensor[(8, 1, 1, 1056), float16], %FunctionVar_97_1: Tensor[(44, 1, 1, 1056), float16], %FunctionVar_97_2: Tensor[(1, 1, 1, 44), float16], PartitionedFromPattern="nn.conv2d_add_sigmoid_multiply_", Composite="cutlass.conv2d_bias_silu") -> Tensor[(8, 1, 1, 44), float16] {
    %756 = nn.conv2d(%FunctionVar_97_0, %FunctionVar_97_1, padding=[0, 0, 0, 0], channels=44, kernel_size=[1, 1], data_layout="NHWC", kernel_layout="OHWI", out_dtype="float16") /* ty=Tensor[(8, 1, 1, 44), float16] */;
    %757 = add(%756, %FunctionVar_97_2) /* ty=Tensor[(8, 1, 1, 44), float16] */;
    %758 = sigmoid(%757) /* ty=Tensor[(8, 1, 1, 44), float16] */;
    multiply(%757, %758) /* ty=Tensor[(8, 1, 1, 44), float16] */
  };
  %759(%cutlass_227_i0, %cutlass_227_i1, %cutlass_227_i2) /* ty=Tensor[(8, 1, 1, 44), float16] */
}

def @tvmgen_default_cutlass_main_230(%cutlass_230_i0: Tensor[(8, 1, 1, 44), float16], %cutlass_230_i1: Tensor[(1056, 1, 1, 44), float16], %cutlass_230_i2: Tensor[(1, 1, 1, 1056), float16], Inline=1, Compiler="cutlass", global_symbol="tvmgen_default_cutlass_main_230", Primitive=1) -> Tensor[(8, 1, 1, 1056), float16] {
  %762 = fn (%FunctionVar_64_0: Tensor[(8, 1, 1, 44), float16], %FunctionVar_64_1: Tensor[(1056, 1, 1, 44), float16], %FunctionVar_64_2: Tensor[(1, 1, 1, 1056), float16], PartitionedFromPattern="nn.conv2d_add_sigmoid_", Composite="cutlass.conv2d_bias_sigmoid") -> Tensor[(8, 1, 1, 1056), float16] {
    %760 = nn.conv2d(%FunctionVar_64_0, %FunctionVar_64_1, padding=[0, 0, 0, 0], channels=1056, kernel_size=[1, 1], data_layout="NHWC", kernel_layout="OHWI", out_dtype="float16") /* ty=Tensor[(8, 1, 1, 1056), float16] */;
    %761 = add(%760, %FunctionVar_64_2) /* ty=Tensor[(8, 1, 1, 1056), float16] */;
    sigmoid(%761) /* ty=Tensor[(8, 1, 1, 1056), float16] */
  };
  %762(%cutlass_230_i0, %cutlass_230_i1, %cutlass_230_i2) /* ty=Tensor[(8, 1, 1, 1056), float16] */
}

def @tvmgen_default_cutlass_main_233(%cutlass_233_i0: Tensor[(8, 14, 14, 1056), float16], %cutlass_233_i1: Tensor[(176, 1, 1, 1056), float16], %cutlass_233_i2: Tensor[(1, 1, 1, 176), float16], %cutlass_233_i3: Tensor[(8, 14, 14, 176), float16], Inline=1, Compiler="cutlass", global_symbol="tvmgen_default_cutlass_main_233", Primitive=1) -> Tensor[(8, 14, 14, 176), float16] {
  %765 = fn (%FunctionVar_30_0: Tensor[(8, 14, 14, 1056), float16], %FunctionVar_30_1: Tensor[(176, 1, 1, 1056), float16], %FunctionVar_30_2: Tensor[(1, 1, 1, 176), float16], %FunctionVar_30_3: Tensor[(8, 14, 14, 176), float16], PartitionedFromPattern="nn.conv2d_add_add_", Composite="cutlass.conv2d_bias_residual_add") -> Tensor[(8, 14, 14, 176), float16] {
    %763 = nn.conv2d(%FunctionVar_30_0, %FunctionVar_30_1, padding=[0, 0, 0, 0], channels=176, kernel_size=[1, 1], data_layout="NHWC", kernel_layout="OHWI", out_dtype="float16") /* ty=Tensor[(8, 14, 14, 176), float16] */;
    %764 = add(%763, %FunctionVar_30_2) /* ty=Tensor[(8, 14, 14, 176), float16] */;
    add(%764, %FunctionVar_30_3) /* ty=Tensor[(8, 14, 14, 176), float16] */
  };
  %765(%cutlass_233_i0, %cutlass_233_i1, %cutlass_233_i2, %cutlass_233_i3) /* ty=Tensor[(8, 14, 14, 176), float16] */
}

def @tvmgen_default_cutlass_main_237(%cutlass_237_i0: Tensor[(8, 14, 14, 176), float16], %cutlass_237_i1: Tensor[(1056, 1, 1, 176), float16], %cutlass_237_i2: Tensor[(1, 1, 1, 1056), float16], Inline=1, Compiler="cutlass", global_symbol="tvmgen_default_cutlass_main_237", Primitive=1) -> Tensor[(8, 14, 14, 1056), float16] {
  %769 = fn (%FunctionVar_96_0: Tensor[(8, 14, 14, 176), float16], %FunctionVar_96_1: Tensor[(1056, 1, 1, 176), float16], %FunctionVar_96_2: Tensor[(1, 1, 1, 1056), float16], PartitionedFromPattern="nn.conv2d_add_sigmoid_multiply_", Composite="cutlass.conv2d_bias_silu") -> Tensor[(8, 14, 14, 1056), float16] {
    %766 = nn.conv2d(%FunctionVar_96_0, %FunctionVar_96_1, padding=[0, 0, 0, 0], channels=1056, kernel_size=[1, 1], data_layout="NHWC", kernel_layout="OHWI", out_dtype="float16") /* ty=Tensor[(8, 14, 14, 1056), float16] */;
    %767 = add(%766, %FunctionVar_96_2) /* ty=Tensor[(8, 14, 14, 1056), float16] */;
    %768 = sigmoid(%767) /* ty=Tensor[(8, 14, 14, 1056), float16] */;
    multiply(%767, %768) /* ty=Tensor[(8, 14, 14, 1056), float16] */
  };
  %769(%cutlass_237_i0, %cutlass_237_i1, %cutlass_237_i2) /* ty=Tensor[(8, 14, 14, 1056), float16] */
}

def @tvmgen_default_cutlass_main_24(%cutlass_24_i0: Tensor[(8, 56, 56, 192), float16], %cutlass_24_i1: Tensor[(48, 1, 1, 192), float16], %cutlass_24_i2: Tensor[(1, 1, 1, 48), float16], %cutlass_24_i3: Tensor[(8, 56, 56, 48), float16], Inline=1, Compiler="cutlass", global_symbol="tvmgen_default_cutlass_main_24", Primitive=1) -> Tensor[(8, 56, 56, 48), float16] {
  %772 = fn (%FunctionVar_47_0: Tensor[(8, 56, 56, 192), float16], %FunctionVar_47_1: Tensor[(48, 1, 1, 192), float16], %FunctionVar_47_2: Tensor[(1, 1, 1, 48), float16], %FunctionVar_47_3: Tensor[(8, 56, 56, 48), float16], PartitionedFromPattern="nn.conv2d_add_add_", Composite="cutlass.conv2d_bias_residual_add") -> Tensor[(8, 56, 56, 48), float16] {
    %770 = nn.conv2d(%FunctionVar_47_0, %FunctionVar_47_1, padding=[0, 0, 0, 0], channels=48, kernel_size=[1, 1], data_layout="NHWC", kernel_layout="OHWI", out_dtype="float16") /* ty=Tensor[(8, 56, 56, 48), float16] */;
    %771 = add(%770, %FunctionVar_47_2) /* ty=Tensor[(8, 56, 56, 48), float16] */;
    add(%771, %FunctionVar_47_3) /* ty=Tensor[(8, 56, 56, 48), float16] */
  };
  %772(%cutlass_24_i0, %cutlass_24_i1, %cutlass_24_i2, %cutlass_24_i3) /* ty=Tensor[(8, 56, 56, 48), float16] */
}

def @tvmgen_default_cutlass_main_240(%cutlass_240_i0: Tensor[(8, 1, 1, 1056), float16], %cutlass_240_i1: Tensor[(44, 1, 1, 1056), float16], %cutlass_240_i2: Tensor[(1, 1, 1, 44), float16], Inline=1, Compiler="cutlass", global_symbol="tvmgen_default_cutlass_main_240", Primitive=1) -> Tensor[(8, 1, 1, 44), float16] {
  %776 = fn (%FunctionVar_94_0: Tensor[(8, 1, 1, 1056), float16], %FunctionVar_94_1: Tensor[(44, 1, 1, 1056), float16], %FunctionVar_94_2: Tensor[(1, 1, 1, 44), float16], PartitionedFromPattern="nn.conv2d_add_sigmoid_multiply_", Composite="cutlass.conv2d_bias_silu") -> Tensor[(8, 1, 1, 44), float16] {
    %773 = nn.conv2d(%FunctionVar_94_0, %FunctionVar_94_1, padding=[0, 0, 0, 0], channels=44, kernel_size=[1, 1], data_layout="NHWC", kernel_layout="OHWI", out_dtype="float16") /* ty=Tensor[(8, 1, 1, 44), float16] */;
    %774 = add(%773, %FunctionVar_94_2) /* ty=Tensor[(8, 1, 1, 44), float16] */;
    %775 = sigmoid(%774) /* ty=Tensor[(8, 1, 1, 44), float16] */;
    multiply(%774, %775) /* ty=Tensor[(8, 1, 1, 44), float16] */
  };
  %776(%cutlass_240_i0, %cutlass_240_i1, %cutlass_240_i2) /* ty=Tensor[(8, 1, 1, 44), float16] */
}

def @tvmgen_default_cutlass_main_243(%cutlass_243_i0: Tensor[(8, 1, 1, 44), float16], %cutlass_243_i1: Tensor[(1056, 1, 1, 44), float16], %cutlass_243_i2: Tensor[(1, 1, 1, 1056), float16], Inline=1, Compiler="cutlass", global_symbol="tvmgen_default_cutlass_main_243", Primitive=1) -> Tensor[(8, 1, 1, 1056), float16] {
  %779 = fn (%FunctionVar_62_0: Tensor[(8, 1, 1, 44), float16], %FunctionVar_62_1: Tensor[(1056, 1, 1, 44), float16], %FunctionVar_62_2: Tensor[(1, 1, 1, 1056), float16], PartitionedFromPattern="nn.conv2d_add_sigmoid_", Composite="cutlass.conv2d_bias_sigmoid") -> Tensor[(8, 1, 1, 1056), float16] {
    %777 = nn.conv2d(%FunctionVar_62_0, %FunctionVar_62_1, padding=[0, 0, 0, 0], channels=1056, kernel_size=[1, 1], data_layout="NHWC", kernel_layout="OHWI", out_dtype="float16") /* ty=Tensor[(8, 1, 1, 1056), float16] */;
    %778 = add(%777, %FunctionVar_62_2) /* ty=Tensor[(8, 1, 1, 1056), float16] */;
    sigmoid(%778) /* ty=Tensor[(8, 1, 1, 1056), float16] */
  };
  %779(%cutlass_243_i0, %cutlass_243_i1, %cutlass_243_i2) /* ty=Tensor[(8, 1, 1, 1056), float16] */
}

def @tvmgen_default_cutlass_main_246(%cutlass_246_i0: Tensor[(8, 14, 14, 1056), float16], %cutlass_246_i1: Tensor[(176, 1, 1, 1056), float16], %cutlass_246_i2: Tensor[(1, 1, 1, 176), float16], %cutlass_246_i3: Tensor[(8, 14, 14, 176), float16], Inline=1, Compiler="cutlass", global_symbol="tvmgen_default_cutlass_main_246", Primitive=1) -> Tensor[(8, 14, 14, 176), float16] {
  %782 = fn (%FunctionVar_29_0: Tensor[(8, 14, 14, 1056), float16], %FunctionVar_29_1: Tensor[(176, 1, 1, 1056), float16], %FunctionVar_29_2: Tensor[(1, 1, 1, 176), float16], %FunctionVar_29_3: Tensor[(8, 14, 14, 176), float16], PartitionedFromPattern="nn.conv2d_add_add_", Composite="cutlass.conv2d_bias_residual_add") -> Tensor[(8, 14, 14, 176), float16] {
…
def @tvmgen_default_cutlass_main_564(%cutlass_564_i0: Tensor[(8, 1, 1, 1824), float16], %cutlass_564_i1: Tensor[(76, 1, 1, 1824), float16], %cutlass_564_i2: Tensor[(1, 1, 1, 76), float16], Inline=1, Compiler="cutlass", global_symbol="tvmgen_default_cutlass_main_564", Primitive=1) -> Tensor[(8, 1, 1, 76), float16] {
  %1161 = fn (%FunctionVar_19_01: Tensor[(8, 1, 1, 1824), float16], %FunctionVar_19_11: Tensor[(76, 1, 1, 1824), float16], %FunctionVar_19_21: Tensor[(1, 1, 1, 76), float16], PartitionedFromPattern="nn.conv2d_add_sigmoid_multiply_", Composite="cutlass.conv2d_bias_silu") -> Tensor[(8, 1, 1, 76), float16] {
    %1158 = nn.conv2d(%FunctionVar_19_01, %FunctionVar_19_11, padding=[0, 0, 0, 0], channels=76, kernel_size=[1, 1], data_layout="NHWC", kernel_layout="OHWI", out_dtype="float16") /* ty=Tensor[(8, 1, 1, 76), float16] */;
    %1159 = add(%1158, %FunctionVar_19_21) /* ty=Tensor[(8, 1, 1, 76), float16] */;
    %1160 = sigmoid(%1159) /* ty=Tensor[(8, 1, 1, 76), float16] */;
    multiply(%1159, %1160) /* ty=Tensor[(8, 1, 1, 76), float16] */
  };
  %1161(%cutlass_564_i0, %cutlass_564_i1, %cutlass_564_i2) /* ty=Tensor[(8, 1, 1, 76), float16] */
}

def @tvmgen_default_cutlass_main_567(%cutlass_567_i0: Tensor[(8, 1, 1, 76), float16], %cutlass_567_i1: Tensor[(1824, 1, 1, 76), float16], %cutlass_567_i2: Tensor[(1, 1, 1, 1824), float16], Inline=1, Compiler="cutlass", global_symbol="tvmgen_default_cutlass_main_567", Primitive=1) -> Tensor[(8, 1, 1, 1824), float16] {
  %1164 = fn (%FunctionVar_12_01: Tensor[(8, 1, 1, 76), float16], %FunctionVar_12_11: Tensor[(1824, 1, 1, 76), float16], %FunctionVar_12_21: Tensor[(1, 1, 1, 1824), float16], PartitionedFromPattern="nn.conv2d_add_sigmoid_", Composite="cutlass.conv2d_bias_sigmoid") -> Tensor[(8, 1, 1, 1824), float16] {
    %1162 = nn.conv2d(%FunctionVar_12_01, %FunctionVar_12_11, padding=[0, 0, 0, 0], channels=1824, kernel_size=[1, 1], data_layout="NHWC", kernel_layout="OHWI", out_dtype="float16") /* ty=Tensor[(8, 1, 1, 1824), float16] */;
    %1163 = add(%1162, %FunctionVar_12_21) /* ty=Tensor[(8, 1, 1, 1824), float16] */;
    sigmoid(%1163) /* ty=Tensor[(8, 1, 1, 1824), float16] */
  };
  %1164(%cutlass_567_i0, %cutlass_567_i1, %cutlass_567_i2) /* ty=Tensor[(8, 1, 1, 1824), float16] */
}

def @tvmgen_default_cutlass_main_570(%cutlass_570_i0: Tensor[(8, 7, 7, 1824), float16], %cutlass_570_i1: Tensor[(304, 1, 1, 1824), float16], %cutlass_570_i2: Tensor[(1, 1, 1, 304), float16], %cutlass_570_i3: Tensor[(8, 7, 7, 304), float16], Inline=1, Compiler="cutlass", global_symbol="tvmgen_default_cutlass_main_570", Primitive=1) -> Tensor[(8, 7, 7, 304), float16] {
  %1167 = fn (%FunctionVar_5_0: Tensor[(8, 7, 7, 1824), float16], %FunctionVar_5_1: Tensor[(304, 1, 1, 1824), float16], %FunctionVar_5_2: Tensor[(1, 1, 1, 304), float16], %FunctionVar_5_3: Tensor[(8, 7, 7, 304), float16], PartitionedFromPattern="nn.conv2d_add_add_", Composite="cutlass.conv2d_bias_residual_add") -> Tensor[(8, 7, 7, 304), float16] {
    %1165 = nn.conv2d(%FunctionVar_5_0, %FunctionVar_5_1, padding=[0, 0, 0, 0], channels=304, kernel_size=[1, 1], data_layout="NHWC", kernel_layout="OHWI", out_dtype="float16") /* ty=Tensor[(8, 7, 7, 304), float16] */;
    %1166 = add(%1165, %FunctionVar_5_2) /* ty=Tensor[(8, 7, 7, 304), float16] */;
    add(%1166, %FunctionVar_5_3) /* ty=Tensor[(8, 7, 7, 304), float16] */
  };
  %1167(%cutlass_570_i0, %cutlass_570_i1, %cutlass_570_i2, %cutlass_570_i3) /* ty=Tensor[(8, 7, 7, 304), float16] */
}

def @tvmgen_default_cutlass_main_574(%cutlass_574_i0: Tensor[(8, 7, 7, 304), float16], %cutlass_574_i1: Tensor[(1824, 1, 1, 304), float16], %cutlass_574_i2: Tensor[(1, 1, 1, 1824), float16], Inline=1, Compiler="cutlass", global_symbol="tvmgen_default_cutlass_main_574", Primitive=1) -> Tensor[(8, 7, 7, 1824), float16] {
  %1171 = fn (%FunctionVar_18_02: Tensor[(8, 7, 7, 304), float16], %FunctionVar_18_12: Tensor[(1824, 1, 1, 304), float16], %FunctionVar_18_22: Tensor[(1, 1, 1, 1824), float16], PartitionedFromPattern="nn.conv2d_add_sigmoid_multiply_", Composite="cutlass.conv2d_bias_silu") -> Tensor[(8, 7, 7, 1824), float16] {
    %1168 = nn.conv2d(%FunctionVar_18_02, %FunctionVar_18_12, padding=[0, 0, 0, 0], channels=1824, kernel_size=[1, 1], data_layout="NHWC", kernel_layout="OHWI", out_dtype="float16") /* ty=Tensor[(8, 7, 7, 1824), float16] */;
    %1169 = add(%1168, %FunctionVar_18_22) /* ty=Tensor[(8, 7, 7, 1824), float16] */;
    %1170 = sigmoid(%1169) /* ty=Tensor[(8, 7, 7, 1824), float16] */;
    multiply(%1169, %1170) /* ty=Tensor[(8, 7, 7, 1824), float16] */
  };
  %1171(%cutlass_574_i0, %cutlass_574_i1, %cutlass_574_i2) /* ty=Tensor[(8, 7, 7, 1824), float16] */
}

def @tvmgen_default_cutlass_main_577(%cutlass_577_i0: Tensor[(8, 1, 1, 1824), float16], %cutlass_577_i1: Tensor[(76, 1, 1, 1824), float16], %cutlass_577_i2: Tensor[(1, 1, 1, 76), float16], Inline=1, Compiler="cutlass", global_symbol="tvmgen_default_cutlass_main_577", Primitive=1) -> Tensor[(8, 1, 1, 76), float16] {
  %1175 = fn (%FunctionVar_16_02: Tensor[(8, 1, 1, 1824), float16], %FunctionVar_16_12: Tensor[(76, 1, 1, 1824), float16], %FunctionVar_16_22: Tensor[(1, 1, 1, 76), float16], PartitionedFromPattern="nn.conv2d_add_sigmoid_multiply_", Composite="cutlass.conv2d_bias_silu") -> Tensor[(8, 1, 1, 76), float16] {
    %1172 = nn.conv2d(%FunctionVar_16_02, %FunctionVar_16_12, padding=[0, 0, 0, 0], channels=76, kernel_size=[1, 1], data_layout="NHWC", kernel_layout="OHWI", out_dtype="float16") /* ty=Tensor[(8, 1, 1, 76), float16] */;
    %1173 = add(%1172, %FunctionVar_16_22) /* ty=Tensor[(8, 1, 1, 76), float16] */;
    %1174 = sigmoid(%1173) /* ty=Tensor[(8, 1, 1, 76), float16] */;
    multiply(%1173, %1174) /* ty=Tensor[(8, 1, 1, 76), float16] */
  };
  %1175(%cutlass_577_i0, %cutlass_577_i1, %cutlass_577_i2) /* ty=Tensor[(8, 1, 1, 76), float16] */
}

def @tvmgen_default_cutlass_main_58(%cutlass_58_i0: Tensor[(8, 28, 28, 320), float16], %cutlass_58_i1: Tensor[(80, 1, 1, 320), float16], %cutlass_58_i2: Tensor[(1, 1, 1, 80), float16], %cutlass_58_i3: Tensor[(8, 28, 28, 80), float16], Inline=1, Compiler="cutlass", global_symbol="tvmgen_default_cutlass_main_58", Primitive=1) -> Tensor[(8, 28, 28, 80), float16] {
  %1178 = fn (%FunctionVar_43_01: Tensor[(8, 28, 28, 320), float16], %FunctionVar_43_11: Tensor[(80, 1, 1, 320), float16], %FunctionVar_43_21: Tensor[(1, 1, 1, 80), float16], %FunctionVar_43_3: Tensor[(8, 28, 28, 80), float16], PartitionedFromPattern="nn.conv2d_add_add_", Composite="cutlass.conv2d_bias_residual_add") -> Tensor[(8, 28, 28, 80), float16] {
    %1176 = nn.conv2d(%FunctionVar_43_01, %FunctionVar_43_11, padding=[0, 0, 0, 0], channels=80, kernel_size=[1, 1], data_layout="NHWC", kernel_layout="OHWI", out_dtype="float16") /* ty=Tensor[(8, 28, 28, 80), float16] */;
    %1177 = add(%1176, %FunctionVar_43_21) /* ty=Tensor[(8, 28, 28, 80), float16] */;
    add(%1177, %FunctionVar_43_3) /* ty=Tensor[(8, 28, 28, 80), float16] */
  };
  %1178(%cutlass_58_i0, %cutlass_58_i1, %cutlass_58_i2, %cutlass_58_i3) /* ty=Tensor[(8, 28, 28, 80), float16] */
}

def @tvmgen_default_cutlass_main_580(%cutlass_580_i0: Tensor[(8, 1, 1, 76), float16], %cutlass_580_i1: Tensor[(1824, 1, 1, 76), float16], %cutlass_580_i2: Tensor[(1, 1, 1, 1824), float16], Inline=1, Compiler="cutlass", global_symbol="tvmgen_default_cutlass_main_580", Primitive=1) -> Tensor[(8, 1, 1, 1824), float16] {
  %1181 = fn (%FunctionVar_10_01: Tensor[(8, 1, 1, 76), float16], %FunctionVar_10_11: Tensor[(1824, 1, 1, 76), float16], %FunctionVar_10_21: Tensor[(1, 1, 1, 1824), float16], PartitionedFromPattern="nn.conv2d_add_sigmoid_", Composite="cutlass.conv2d_bias_sigmoid") -> Tensor[(8, 1, 1, 1824), float16] {
    %1179 = nn.conv2d(%FunctionVar_10_01, %FunctionVar_10_11, padding=[0, 0, 0, 0], channels=1824, kernel_size=[1, 1], data_layout="NHWC", kernel_layout="OHWI", out_dtype="float16") /* ty=Tensor[(8, 1, 1, 1824), float16] */;
    %1180 = add(%1179, %FunctionVar_10_21) /* ty=Tensor[(8, 1, 1, 1824), float16] */;
    sigmoid(%1180) /* ty=Tensor[(8, 1, 1, 1824), float16] */
  };
  %1181(%cutlass_580_i0, %cutlass_580_i1, %cutlass_580_i2) /* ty=Tensor[(8, 1, 1, 1824), float16] */
}

def @tvmgen_default_cutlass_main_583(%cutlass_583_i0: Tensor[(8, 7, 7, 1824), float16], %cutlass_583_i1: Tensor[(304, 1, 1, 1824), float16], %cutlass_583_i2: Tensor[(1, 1, 1, 304), float16], %cutlass_583_i3: Tensor[(8, 7, 7, 304), float16], Inline=1, Compiler="cutlass", global_symbol="tvmgen_default_cutlass_main_583", Primitive=1) -> Tensor[(8, 7, 7, 304), float16] {
  %1184 = fn (%FunctionVar_4_0: Tensor[(8, 7, 7, 1824), float16], %FunctionVar_4_1: Tensor[(304, 1, 1, 1824), float16], %FunctionVar_4_2: Tensor[(1, 1, 1, 304), float16], %FunctionVar_4_3: Tensor[(8, 7, 7, 304), float16], PartitionedFromPattern="nn.conv2d_add_add_", Composite="cutlass.conv2d_bias_residual_add") -> Tensor[(8, 7, 7, 304), float16] {
    %1182 = nn.conv2d(%FunctionVar_4_0, %FunctionVar_4_1, padding=[0, 0, 0, 0], channels=304, kernel_size=[1, 1], data_layout="NHWC", kernel_layout="OHWI", out_dtype="float16") /* ty=Tensor[(8, 7, 7, 304), float16] */;
    %1183 = add(%1182, %FunctionVar_4_2) /* ty=Tensor[(8, 7, 7, 304), float16] */;
    add(%1183, %FunctionVar_4_3) /* ty=Tensor[(8, 7, 7, 304), float16] */
  };
  %1184(%cutlass_583_i0, %cutlass_583_i1, %cutlass_583_i2, %cutlass_583_i3) /* ty=Tensor[(8, 7, 7, 304), float16] */
}

def @tvmgen_default_cutlass_main_587(%cutlass_587_i0: Tensor[(8, 7, 7, 304), float16], %cutlass_587_i1: Tensor[(1824, 1, 1, 304), float16], %cutlass_587_i2: Tensor[(1, 1, 1, 1824), float16], Inline=1, Compiler="cutlass", global_symbol="tvmgen_default_cutlass_main_587", Primitive=1) -> Tensor[(8, 7, 7, 1824), float16] {
  %1188 = fn (%FunctionVar_15_01: Tensor[(8, 7, 7, 304), float16], %FunctionVar_15_11: Tensor[(1824, 1, 1, 304), float16], %FunctionVar_15_21: Tensor[(1, 1, 1, 1824), float16], PartitionedFromPattern="nn.conv2d_add_sigmoid_multiply_", Composite="cutlass.conv2d_bias_silu") -> Tensor[(8, 7, 7, 1824), float16] {
    %1185 = nn.conv2d(%FunctionVar_15_01, %FunctionVar_15_11, padding=[0, 0, 0, 0], channels=1824, kernel_size=[1, 1], data_layout="NHWC", kernel_layout="OHWI", out_dtype="float16") /* ty=Tensor[(8, 7, 7, 1824), float16] */;
    %1186 = add(%1185, %FunctionVar_15_21) /* ty=Tensor[(8, 7, 7, 1824), float16] */;
    %1187 = sigmoid(%1186) /* ty=Tensor[(8, 7, 7, 1824), float16] */;
    multiply(%1186, %1187) /* ty=Tensor[(8, 7, 7, 1824), float16] */
  };
  %1188(%cutlass_587_i0, %cutlass_587_i1, %cutlass_587_i2) /* ty=Tensor[(8, 7, 7, 1824), float16] */
}

def @tvmgen_default_cutlass_main_590(%cutlass_590_i0: Tensor[(8, 1, 1, 1824), float16], %cutlass_590_i1: Tensor[(76, 1, 1, 1824), float16], %cutlass_590_i2: Tensor[(1, 1, 1, 76), float16], Inline=1, Compiler="cutlass", global_symbol="tvmgen_default_cutlass_main_590", Primitive=1) -> Tensor[(8, 1, 1, 76), float16] {
  %1192 = fn (%FunctionVar_13_01: Tensor[(8, 1, 1, 1824), float16], %FunctionVar_13_11: Tensor[(76, 1, 1, 1824), float16], %FunctionVar_13_21: Tensor[(1, 1, 1, 76), float16], PartitionedFromPattern="nn.conv2d_add_sigmoid_multiply_", Composite="cutlass.conv2d_bias_silu") -> Tensor[(8, 1, 1, 76), float16] {
    %1189 = nn.conv2d(%FunctionVar_13_01, %FunctionVar_13_11, padding=[0, 0, 0, 0], channels=76, kernel_size=[1, 1], data_layout="NHWC", kernel_layout="OHWI", out_dtype="float16") /* ty=Tensor[(8, 1, 1, 76), float16] */;
    %1190 = add(%1189, %FunctionVar_13_21) /* ty=Tensor[(8, 1, 1, 76), float16] */;
    %1191 = sigmoid(%1190) /* ty=Tensor[(8, 1, 1, 76), float16] */;
    multiply(%1190, %1191) /* ty=Tensor[(8, 1, 1, 76), float16] */
  };
  %1192(%cutlass_590_i0, %cutlass_590_i1, %cutlass_590_i2) /* ty=Tensor[(8, 1, 1, 76), float16] */
}

def @tvmgen_default_cutlass_main_593(%cutlass_593_i0: Tensor[(8, 1, 1, 76), float16], %cutlass_593_i1: Tensor[(1824, 1, 1, 76), float16], %cutlass_593_i2: Tensor[(1, 1, 1, 1824), float16], Inline=1, Compiler="cutlass", global_symbol="tvmgen_default_cutlass_main_593", Primitive=1) -> Tensor[(8, 1, 1, 1824), float16] {
  %1195 = fn (%FunctionVar_8_01: Tensor[(8, 1, 1, 76), float16], %FunctionVar_8_11: Tensor[(1824, 1, 1, 76), float16], %FunctionVar_8_21: Tensor[(1, 1, 1, 1824), float16], PartitionedFromPattern="nn.conv2d_add_sigmoid_", Composite="cutlass.conv2d_bias_sigmoid") -> Tensor[(8, 1, 1, 1824), float16] {
    %1193 = nn.conv2d(%FunctionVar_8_01, %FunctionVar_8_11, padding=[0, 0, 0, 0], channels=1824, kernel_size=[1, 1], data_layout="NHWC", kernel_layout="OHWI", out_dtype="float16") /* ty=Tensor[(8, 1, 1, 1824), float16] */;
    %1194 = add(%1193, %FunctionVar_8_21) /* ty=Tensor[(8, 1, 1, 1824), float16] */;
    sigmoid(%1194) /* ty=Tensor[(8, 1, 1, 1824), float16] */
  };
  %1195(%cutlass_593_i0, %cutlass_593_i1, %cutlass_593_i2) /* ty=Tensor[(8, 1, 1, 1824), float16] */
}

def @tvmgen_default_cutlass_main_596(%cutlass_596_i0: Tensor[(8, 7, 7, 1824), float16], %cutlass_596_i1: Tensor[(512, 1, 1, 1824), float16], %cutlass_596_i2: Tensor[(1, 1, 1, 512), float16], Inline=1, Compiler="cutlass", global_symbol="tvmgen_default_cutlass_main_596", Primitive=1) -> Tensor[(8, 7, 7, 512), float16] {
  %1197 = fn (%FunctionVar_4_01: Tensor[(8, 7, 7, 1824), float16], %FunctionVar_4_11: Tensor[(512, 1, 1, 1824), float16], %FunctionVar_4_21: Tensor[(1, 1, 1, 512), float16], PartitionedFromPattern="nn.conv2d_add_", Composite="cutlass.conv2d_bias") -> Tensor[(8, 7, 7, 512), float16] {
    %1196 = nn.conv2d(%FunctionVar_4_01, %FunctionVar_4_11, padding=[0, 0, 0, 0], channels=512, kernel_size=[1, 1], data_layout="NHWC", kernel_layout="OHWI", out_dtype="float16") /* ty=Tensor[(8, 7, 7, 512), float16] */;
    add(%1196, %FunctionVar_4_21) /* ty=Tensor[(8, 7, 7, 512), float16] */
  };
  %1197(%cutlass_596_i0, %cutlass_596_i1, %cutlass_596_i2) /* ty=Tensor[(8, 7, 7, 512), float16] */
}

def @tvmgen_default_cutlass_main_599(%cutlass_599_i0: Tensor[(8, 7, 7, 512), float16], %cutlass_599_i1: Tensor[(3072, 1, 1, 512), float16], %cutlass_599_i2: Tensor[(3072), float16], Inline=1, Compiler="cutlass", global_symbol="tvmgen_default_cutlass_main_599", Primitive=1) -> Tensor[(8, 7, 7, 3072), float16] {
  %1201 = fn (%FunctionVar_12_02: Tensor[(8, 7, 7, 512), float16], %FunctionVar_12_12: Tensor[(3072, 1, 1, 512), float16], %FunctionVar_12_22: Tensor[(3072), float16], PartitionedFromPattern="nn.conv2d_add_sigmoid_multiply_", Composite="cutlass.conv2d_bias_silu") -> Tensor[(8, 7, 7, 3072), float16] {
    %1198 = nn.conv2d(%FunctionVar_12_02, %FunctionVar_12_12, padding=[0, 0, 0, 0], channels=3072, kernel_size=[1, 1], data_layout="NHWC", kernel_layout="OHWI", out_dtype="float16") /* ty=Tensor[(8, 7, 7, 3072), float16] */;
    %1199 = add(%1198, %FunctionVar_12_22) /* ty=Tensor[(8, 7, 7, 3072), float16] */;
    %1200 = sigmoid(%1199) /* ty=Tensor[(8, 7, 7, 3072), float16] */;
    multiply(%1199, %1200) /* ty=Tensor[(8, 7, 7, 3072), float16] */
  };
  %1201(%cutlass_599_i0, %cutlass_599_i1, %cutlass_599_i2) /* ty=Tensor[(8, 7, 7, 3072), float16] */
}

def @tvmgen_default_cutlass_main_602(%cutlass_602_i0: Tensor[(8, 1, 1, 3072), float16], %cutlass_602_i1: Tensor[(128, 1, 1, 3072), float16], %cutlass_602_i2: Tensor[(1, 1, 1, 128), float16], Inline=1, Compiler="cutlass", global_symbol="tvmgen_default_cutlass_main_602", Primitive=1) -> Tensor[(8, 1, 1, 128), float16] {
  %1205 = fn (%FunctionVar_10_02: Tensor[(8, 1, 1, 3072), float16], %FunctionVar_10_12: Tensor[(128, 1, 1, 3072), float16], %FunctionVar_10_22: Tensor[(1, 1, 1, 128), float16], PartitionedFromPattern="nn.conv2d_add_sigmoid_multiply_", Composite="cutlass.conv2d_bias_silu") -> Tensor[(8, 1, 1, 128), float16] {
    %1202 = nn.conv2d(%FunctionVar_10_02, %FunctionVar_10_12, padding=[0, 0, 0, 0], channels=128, kernel_size=[1, 1], data_layout="NHWC", kernel_layout="OHWI", out_dtype="float16") /* ty=Tensor[(8, 1, 1, 128), float16] */;
    %1203 = add(%1202, %FunctionVar_10_22) /* ty=Tensor[(8, 1, 1, 128), float16] */;
    %1204 = sigmoid(%1203) /* ty=Tensor[(8, 1, 1, 128), float16] */;
    multiply(%1203, %1204) /* ty=Tensor[(8, 1, 1, 128), float16] */
  };
  %1205(%cutlass_602_i0, %cutlass_602_i1, %cutlass_602_i2) /* ty=Tensor[(8, 1, 1, 128), float16] */
}

def @tvmgen_default_cutlass_main_605(%cutlass_605_i0: Tensor[(8, 1, 1, 128), float16], %cutlass_605_i1: Tensor[(3072, 1, 1, 128), float16], %cutlass_605_i2: Tensor[(1, 1, 1, 3072), float16], Inline=1, Compiler="cutlass", global_symbol="tvmgen_default_cutlass_main_605", Primitive=1) -> Tensor[(8, 1, 1, 3072), float16] {
  %1208 = fn (%FunctionVar_6_01: Tensor[(8, 1, 1, 128), float16], %FunctionVar_6_11: Tensor[(3072, 1, 1, 128), float16], %FunctionVar_6_21: Tensor[(1, 1, 1, 3072), float16], PartitionedFromPattern="nn.conv2d_add_sigmoid_", Composite="cutlass.conv2d_bias_sigmoid") -> Tensor[(8, 1, 1, 3072), float16] {
    %1206 = nn.conv2d(%FunctionVar_6_01, %FunctionVar_6_11, padding=[0, 0, 0, 0], channels=3072, kernel_size=[1, 1], data_layout="NHWC", kernel_layout="OHWI", out_dtype="float16") /* ty=Tensor[(8, 1, 1, 3072), float16] */;
    %1207 = add(%1206, %FunctionVar_6_21) /* ty=Tensor[(8, 1, 1, 3072), float16] */;
    sigmoid(%1207) /* ty=Tensor[(8, 1, 1, 3072), float16] */
  };
  %1208(%cutlass_605_i0, %cutlass_605_i1, %cutlass_605_i2) /* ty=Tensor[(8, 1, 1, 3072), float16] */
}

def @tvmgen_default_cutlass_main_608(%cutlass_608_i0: Tensor[(8, 7, 7, 3072), float16], %cutlass_608_i1: Tensor[(512, 1, 1, 3072), float16], %cutlass_608_i2: Tensor[(1, 1, 1, 512), float16], %cutlass_608_i3: Tensor[(8, 7, 7, 512), float16], Inline=1, Compiler="cutlass", global_symbol="tvmgen_default_cutlass_main_608", Primitive=1) -> Tensor[(8, 7, 7, 512), float16] {
  %1211 = fn (%FunctionVar_3_0: Tensor[(8, 7, 7, 3072), float16], %FunctionVar_3_1: Tensor[(512, 1, 1, 3072), float16], %FunctionVar_3_2: Tensor[(1, 1, 1, 512), float16], %FunctionVar_3_3: Tensor[(8, 7, 7, 512), float16], PartitionedFromPattern="nn.conv2d_add_add_", Composite="cutlass.conv2d_bias_residual_add") -> Tensor[(8, 7, 7, 512), float16] {
    %1209 = nn.conv2d(%FunctionVar_3_0, %FunctionVar_3_1, padding=[0, 0, 0, 0], channels=512, kernel_size=[1, 1], data_layout="NHWC", kernel_layout="OHWI", out_dtype="float16") /* ty=Tensor[(8, 7, 7, 512), float16] */;
    %1210 = add(%1209, %FunctionVar_3_2) /* ty=Tensor[(8, 7, 7, 512), float16] */;
    add(%1210, %FunctionVar_3_3) /* ty=Tensor[(8, 7, 7, 512), float16] */
  };
  %1211(%cutlass_608_i0, %cutlass_608_i1, %cutlass_608_i2, %cutlass_608_i3) /* ty=Tensor[(8, 7, 7, 512), float16] */
}

def @tvmgen_default_cutlass_main_612(%cutlass_612_i0: Tensor[(8, 7, 7, 512), float16], %cutlass_612_i1: Tensor[(3072, 1, 1, 512), float16], %cutlass_612_i2: Tensor[(1, 1, 1, 3072), float16], Inline=1, Compiler="cutlass", global_symbol="tvmgen_default_cutlass_main_612", Primitive=1) -> Tensor[(8, 7, 7, 3072), float16] {
  %1215 = fn (%FunctionVar_9_01: Tensor[(8, 7, 7, 512), float16], %FunctionVar_9_11: Tensor[(3072, 1, 1, 512), float16], %FunctionVar_9_21: Tensor[(1, 1, 1, 3072), float16], PartitionedFromPattern="nn.conv2d_add_sigmoid_multiply_", Composite="cutlass.conv2d_bias_silu") -> Tensor[(8, 7, 7, 3072), float16] {
    %1212 = nn.conv2d(%FunctionVar_9_01, %FunctionVar_9_11, padding=[0, 0, 0, 0], channels=3072, kernel_size=[1, 1], data_layout="NHWC", kernel_layout="OHWI", out_dtype="float16") /* ty=Tensor[(8, 7, 7, 3072), float16] */;
    %1213 = add(%1212, %FunctionVar_9_21) /* ty=Tensor[(8, 7, 7, 3072), float16] */;
    %1214 = sigmoid(%1213) /* ty=Tensor[(8, 7, 7, 3072), float16] */;
    multiply(%1213, %1214) /* ty=Tensor[(8, 7, 7, 3072), float16] */
  };
  %1215(%cutlass_612_i0, %cutlass_612_i1, %cutlass_612_i2) /* ty=Tensor[(8, 7, 7, 3072), float16] */
}

def @tvmgen_default_cutlass_main_615(%cutlass_615_i0: Tensor[(8, 1, 1, 3072), float16], %cutlass_615_i1: Tensor[(128, 1, 1, 3072), float16], %cutlass_615_i2: Tensor[(1, 1, 1, 128), float16], Inline=1, Compiler="cutlass", global_symbol="tvmgen_default_cutlass_main_615", Primitive=1) -> Tensor[(8, 1, 1, 128), float16] {
  %1219 = fn (%FunctionVar_7_01: Tensor[(8, 1, 1, 3072), float16], %FunctionVar_7_11: Tensor[(128, 1, 1, 3072), float16], %FunctionVar_7_21: Tensor[(1, 1, 1, 128), float16], PartitionedFromPattern="nn.conv2d_add_sigmoid_multiply_", Composite="cutlass.conv2d_bias_silu") -> Tensor[(8, 1, 1, 128), float16] {
    %1216 = nn.conv2d(%FunctionVar_7_01, %FunctionVar_7_11, padding=[0, 0, 0, 0], channels=128, kernel_size=[1, 1], data_layout="NHWC", kernel_layout="OHWI", out_dtype="float16") /* ty=Tensor[(8, 1, 1, 128), float16] */;
    %1217 = add(%1216, %FunctionVar_7_21) /* ty=Tensor[(8, 1, 1, 128), float16] */;
    %1218 = sigmoid(%1217) /* ty=Tensor[(8, 1, 1, 128), float16] */;
    multiply(%1217, %1218) /* ty=Tensor[(8, 1, 1, 128), float16] */
  };
  %1219(%cutlass_615_i0, %cutlass_615_i1, %cutlass_615_i2) /* ty=Tensor[(8, 1, 1, 128), float16] */
}

def @tvmgen_default_cutlass_main_618(%cutlass_618_i0: Tensor[(8, 1, 1, 128), float16], %cutlass_618_i1: Tensor[(3072, 1, 1, 128), float16], %cutlass_618_i2: Tensor[(1, 1, 1, 3072), float16], Inline=1, Compiler="cutlass", global_symbol="tvmgen_default_cutlass_main_618", Primitive=1) -> Tensor[(8, 1, 1, 3072), float16] {
  %1222 = fn (%FunctionVar_4_02: Tensor[(8, 1, 1, 128), float16], %FunctionVar_4_12: Tensor[(3072, 1, 1, 128), float16], %FunctionVar_4_22: Tensor[(1, 1, 1, 3072), float16], PartitionedFromPattern="nn.conv2d_add_sigmoid_", Composite="cutlass.conv2d_bias_sigmoid") -> Tensor[(8, 1, 1, 3072), float16] {
    %1220 = nn.conv2d(%FunctionVar_4_02, %FunctionVar_4_12, padding=[0, 0, 0, 0], channels=3072, kernel_size=[1, 1], data_layout="NHWC", kernel_layout="OHWI", out_dtype="float16") /* ty=Tensor[(8, 1, 1, 3072), float16] */;
    %1221 = add(%1220, %FunctionVar_4_22) /* ty=Tensor[(8, 1, 1, 3072), float16] */;
    sigmoid(%1221) /* ty=Tensor[(8, 1, 1, 3072), float16] */
  };
  %1222(%cutlass_618_i0, %cutlass_618_i1, %cutlass_618_i2) /* ty=Tensor[(8, 1, 1, 3072), float16] */
}

def @tvmgen_default_cutlass_main_62(%cutlass_62_i0: Tensor[(8, 28, 28, 80), float16], %cutlass_62_i1: Tensor[(320, 3, 3, 80), float16], %cutlass_62_i2: Tensor[(1, 1, 1, 320), float16], Inline=1, Compiler="cutlass", global_symbol="tvmgen_default_cutlass_main_62", Primitive=1) -> Tensor[(8, 28, 28, 320), float16] {
  %1226 = fn (%FunctionVar_135_0: Tensor[(8, 28, 28, 80), float16], %FunctionVar_135_1: Tensor[(320, 3, 3, 80), float16], %FunctionVar_135_2: Tensor[(1, 1, 1, 320), float16], PartitionedFromPattern="nn.conv2d_add_sigmoid_multiply_", Composite="cutlass.conv2d_bias_silu") -> Tensor[(8, 28, 28, 320), float16] {
    %1223 = nn.conv2d(%FunctionVar_135_0, %FunctionVar_135_1, padding=[1, 1, 1, 1], channels=320, kernel_size=[3, 3], data_layout="NHWC", kernel_layout="OHWI", out_dtype="float16") /* ty=Tensor[(8, 28, 28, 320), float16] */;
    %1224 = add(%1223, %FunctionVar_135_2) /* ty=Tensor[(8, 28, 28, 320), float16] */;
    %1225 = sigmoid(%1224) /* ty=Tensor[(8, 28, 28, 320), float16] */;
    multiply(%1224, %1225) /* ty=Tensor[(8, 28, 28, 320), float16] */
  };
  %1226(%cutlass_62_i0, %cutlass_62_i1, %cutlass_62_i2) /* ty=Tensor[(8, 28, 28, 320), float16] */
}

def @tvmgen_default_cutlass_main_621(%cutlass_621_i0: Tensor[(8, 7, 7, 3072), float16], %cutlass_621_i1: Tensor[(512, 1, 1, 3072), float16], %cutlass_621_i2: Tensor[(1, 1, 1, 512), float16], %cutlass_621_i3: Tensor[(8, 7, 7, 512), float16], Inline=1, Compiler="cutlass", global_symbol="tvmgen_default_cutlass_main_621", Primitive=1) -> Tensor[(8, 7, 7, 512), float16] {
  %1229 = fn (%FunctionVar_2_01: Tensor[(8, 7, 7, 3072), float16], %FunctionVar_2_11: Tensor[(512, 1, 1, 3072), float16], %FunctionVar_2_21: Tensor[(1, 1, 1, 512), float16], %FunctionVar_2_31: Tensor[(8, 7, 7, 512), float16], PartitionedFromPattern="nn.conv2d_add_add_", Composite="cutlass.conv2d_bias_residual_add") -> Tensor[(8, 7, 7, 512), float16] {
    %1227 = nn.conv2d(%FunctionVar_2_01, %FunctionVar_2_11, padding=[0, 0, 0, 0], channels=512, kernel_size=[1, 1], data_layout="NHWC", kernel_layout="OHWI", out_dtype="float16") /* ty=Tensor[(8, 7, 7, 512), float16] */;
    %1228 = add(%1227, %FunctionVar_2_21) /* ty=Tensor[(8, 7, 7, 512), float16] */;
    add(%1228, %FunctionVar_2_31) /* ty=Tensor[(8, 7, 7, 512), float16] */
  };
  %1229(%cutlass_621_i0, %cutlass_621_i1, %cutlass_621_i2, %cutlass_621_i3) /* ty=Tensor[(8, 7, 7, 512), float16] */
}

def @tvmgen_default_cutlass_main_625(%cutlass_625_i0: Tensor[(8, 7, 7, 512), float16], %cutlass_625_i1: Tensor[(3072, 1, 1, 512), float16], %cutlass_625_i2: Tensor[(1, 1, 1, 3072), float16], Inline=1, Compiler="cutlass", global_symbol="tvmgen_default_cutlass_main_625", Primitive=1) -> Tensor[(8, 7, 7, 3072), float16] {
  %1233 = fn (%FunctionVar_6_02: Tensor[(8, 7, 7, 512), float16], %FunctionVar_6_12: Tensor[(3072, 1, 1, 512), float16], %FunctionVar_6_22: Tensor[(1, 1, 1, 3072), float16], PartitionedFromPattern="nn.conv2d_add_sigmoid_multiply_", Composite="cutlass.conv2d_bias_silu") -> Tensor[(8, 7, 7, 3072), float16] {
    %1230 = nn.conv2d(%FunctionVar_6_02, %FunctionVar_6_12, padding=[0, 0, 0, 0], channels=3072, kernel_size=[1, 1], data_layout="NHWC", kernel_layout="OHWI", out_dtype="float16") /* ty=Tensor[(8, 7, 7, 3072), float16] */;
    %1231 = add(%1230, %FunctionVar_6_22) /* ty=Tensor[(8, 7, 7, 3072), float16] */;
    %1232 = sigmoid(%1231) /* ty=Tensor[(8, 7, 7, 3072), float16] */;
    multiply(%1231, %1232) /* ty=Tensor[(8, 7, 7, 3072), float16] */
  };
  %1233(%cutlass_625_i0, %cutlass_625_i1, %cutlass_625_i2) /* ty=Tensor[(8, 7, 7, 3072), float16] */
}

def @tvmgen_default_cutlass_main_628(%cutlass_628_i0: Tensor[(8, 1, 1, 3072), float16], %cutlass_628_i1: Tensor[(128, 1, 1, 3072), float16], %cutlass_628_i2: Tensor[(1, 1, 1, 128), float16], Inline=1, Compiler="cutlass", global_symbol="tvmgen_default_cutlass_main_628", Primitive=1) -> Tensor[(8, 1, 1, 128), float16] {
  %1237 = fn (%FunctionVar_4_03: Tensor[(8, 1, 1, 3072), float16], %FunctionVar_4_13: Tensor[(128, 1, 1, 3072), float16], %FunctionVar_4_23: Tensor[(1, 1, 1, 128), float16], PartitionedFromPattern="nn.conv2d_add_sigmoid_multiply_", Composite="cutlass.conv2d_bias_silu") -> Tensor[(8, 1, 1, 128), float16] {
    %1234 = nn.conv2d(%FunctionVar_4_03, %FunctionVar_4_13, padding=[0, 0, 0, 0], channels=128, kernel_size=[1, 1], data_layout="NHWC", kernel_layout="OHWI", out_dtype="float16") /* ty=Tensor[(8, 1, 1, 128), float16] */;
    %1235 = add(%1234, %FunctionVar_4_23) /* ty=Tensor[(8, 1, 1, 128), float16] */;
    %1236 = sigmoid(%1235) /* ty=Tensor[(8, 1, 1, 128), float16] */;
    multiply(%1235, %1236) /* ty=Tensor[(8, 1, 1, 128), float16] */
  };
  %1237(%cutlass_628_i0, %cutlass_628_i1, %cutlass_628_i2) /* ty=Tensor[(8, 1, 1, 128), float16] */
}

def @tvmgen_default_cutlass_main_631(%cutlass_631_i0: Tensor[(8, 1, 1, 128), float16], %cutlass_631_i1: Tensor[(3072, 1, 1, 128), float16], %cutlass_631_i2: Tensor[(1, 1, 1, 3072), float16], Inline=1, Compiler="cutlass", global_symbol="tvmgen_default_cutlass_main_631", Primitive=1) -> Tensor[(8, 1, 1, 3072), float16] {
  %1240 = fn (%FunctionVar_2_02: Tensor[(8, 1, 1, 128), float16], %FunctionVar_2_12: Tensor[(3072, 1, 1, 128), float16], %FunctionVar_2_22: Tensor[(1, 1, 1, 3072), float16], PartitionedFromPattern="nn.conv2d_add_sigmoid_", Composite="cutlass.conv2d_bias_sigmoid") -> Tensor[(8, 1, 1, 3072), float16] {
    %1238 = nn.conv2d(%FunctionVar_2_02, %FunctionVar_2_12, padding=[0, 0, 0, 0], channels=3072, kernel_size=[1, 1], data_layout="NHWC", kernel_layout="OHWI", out_dtype="float16") /* ty=Tensor[(8, 1, 1, 3072), float16] */;
    %1239 = add(%1238, %FunctionVar_2_22) /* ty=Tensor[(8, 1, 1, 3072), float16] */;
    sigmoid(%1239) /* ty=Tensor[(8, 1, 1, 3072), float16] */
  };
  %1240(%cutlass_631_i0, %cutlass_631_i1, %cutlass_631_i2) /* ty=Tensor[(8, 1, 1, 3072), float16] */
}

def @tvmgen_default_cutlass_main_634(%cutlass_634_i0: Tensor[(8, 7, 7, 3072), float16], %cutlass_634_i1: Tensor[(512, 1, 1, 3072), float16], %cutlass_634_i2: Tensor[(1, 1, 1, 512), float16], %cutlass_634_i3: Tensor[(8, 7, 7, 512), float16], Inline=1, Compiler="cutlass", global_symbol="tvmgen_default_cutlass_main_634", Primitive=1) -> Tensor[(8, 7, 7, 512), float16] {
  %1243 = fn (%FunctionVar_1_0: Tensor[(8, 7, 7, 3072), float16], %FunctionVar_1_1: Tensor[(512, 1, 1, 3072), float16], %FunctionVar_1_2: Tensor[(1, 1, 1, 512), float16], %FunctionVar_1_3: Tensor[(8, 7, 7, 512), float16], PartitionedFromPattern="nn.conv2d_add_add_", Composite="cutlass.conv2d_bias_residual_add") -> Tensor[(8, 7, 7, 512), float16] {
    %1241 = nn.conv2d(%FunctionVar_1_0, %FunctionVar_1_1, padding=[0, 0, 0, 0], channels=512, kernel_size=[1, 1], data_layout="NHWC", kernel_layout="OHWI", out_dtype="float16") /* ty=Tensor[(8, 7, 7, 512), float16] */;
    %1242 = add(%1241, %FunctionVar_1_2) /* ty=Tensor[(8, 7, 7, 512), float16] */;
    add(%1242, %FunctionVar_1_3) /* ty=Tensor[(8, 7, 7, 512), float16] */
  };
  %1243(%cutlass_634_i0, %cutlass_634_i1, %cutlass_634_i2, %cutlass_634_i3) /* ty=Tensor[(8, 7, 7, 512), float16] */
}

def @tvmgen_default_cutlass_main_638(%cutlass_638_i0: Tensor[(8, 7, 7, 512), float16], %cutlass_638_i1: Tensor[(3072, 1, 1, 512), float16], %cutlass_638_i2: Tensor[(1, 1, 1, 3072), float16], Inline=1, Compiler="cutlass", global_symbol="tvmgen_default_cutlass_main_638", Primitive=1) -> Tensor[(8, 7, 7, 3072), float16] {
  %1247 = fn (%FunctionVar_3_01: Tensor[(8, 7, 7, 512), float16], %FunctionVar_3_11: Tensor[(3072, 1, 1, 512), float16], %FunctionVar_3_21: Tensor[(1, 1, 1, 3072), float16], PartitionedFromPattern="nn.conv2d_add_sigmoid_multiply_", Composite="cutlass.conv2d_bias_silu") -> Tensor[(8, 7, 7, 3072), float16] {
    %1244 = nn.conv2d(%FunctionVar_3_01, %FunctionVar_3_11, padding=[0, 0, 0, 0], channels=3072, kernel_size=[1, 1], data_layout="NHWC", kernel_layout="OHWI", out_dtype="float16") /* ty=Tensor[(8, 7, 7, 3072), float16] */;
    %1245 = add(%1244, %FunctionVar_3_21) /* ty=Tensor[(8, 7, 7, 3072), float16] */;
    %1246 = sigmoid(%1245) /* ty=Tensor[(8, 7, 7, 3072), float16] */;
    multiply(%1245, %1246) /* ty=Tensor[(8, 7, 7, 3072), float16] */
  };
  %1247(%cutlass_638_i0, %cutlass_638_i1, %cutlass_638_i2) /* ty=Tensor[(8, 7, 7, 3072), float16] */
}

def @tvmgen_default_cutlass_main_641(%cutlass_641_i0: Tensor[(8, 1, 1, 3072), float16], %cutlass_641_i1: Tensor[(128, 1, 1, 3072), float16], %cutlass_641_i2: Tensor[(1, 1, 1, 128), float16], Inline=1, Compiler="cutlass", global_symbol="tvmgen_default_cutlass_main_641", Primitive=1) -> Tensor[(8, 1, 1, 128), float16] {
  %1251 = fn (%FunctionVar_1_01: Tensor[(8, 1, 1, 3072), float16], %FunctionVar_1_11: Tensor[(128, 1, 1, 3072), float16], %FunctionVar_1_21: Tensor[(1, 1, 1, 128), float16], PartitionedFromPattern="nn.conv2d_add_sigmoid_multiply_", Composite="cutlass.conv2d_bias_silu") -> Tensor[(8, 1, 1, 128), float16] {
    %1248 = nn.conv2d(%FunctionVar_1_01, %FunctionVar_1_11, padding=[0, 0, 0, 0], channels=128, kernel_size=[1, 1], data_layout="NHWC", kernel_layout="OHWI", out_dtype="float16") /* ty=Tensor[(8, 1, 1, 128), float16] */;
    %1249 = add(%1248, %FunctionVar_1_21) /* ty=Tensor[(8, 1, 1, 128), float16] */;
    %1250 = sigmoid(%1249) /* ty=Tensor[(8, 1, 1, 128), float16] */;
    multiply(%1249, %1250) /* ty=Tensor[(8, 1, 1, 128), float16] */
  };
  %1251(%cutlass_641_i0, %cutlass_641_i1, %cutlass_641_i2) /* ty=Tensor[(8, 1, 1, 128), float16] */
}

def @tvmgen_default_cutlass_main_644(%cutlass_644_i0: Tensor[(8, 1, 1, 128), float16], %cutlass_644_i1: Tensor[(3072, 1, 1, 128), float16], %cutlass_644_i2: Tensor[(1, 1, 1, 3072), float16], Inline=1, Compiler="cutlass", global_symbol="tvmgen_default_cutlass_main_644", Primitive=1) -> Tensor[(8, 1, 1, 3072), float16] {
  %1254 = fn (%FunctionVar_0_01: Tensor[(8, 1, 1, 128), float16], %FunctionVar_0_11: Tensor[(3072, 1, 1, 128), float16], %FunctionVar_0_21: Tensor[(1, 1, 1, 3072), float16], PartitionedFromPattern="nn.conv2d_add_sigmoid_", Composite="cutlass.conv2d_bias_sigmoid") -> Tensor[(8, 1, 1, 3072), float16] {
    %1252 = nn.conv2d(%FunctionVar_0_01, %FunctionVar_0_11, padding=[0, 0, 0, 0], channels=3072, kernel_size=[1, 1], data_layout="NHWC", kernel_layout="OHWI", out_dtype="float16") /* ty=Tensor[(8, 1, 1, 3072), float16] */;
    %1253 = add(%1252, %FunctionVar_0_21) /* ty=Tensor[(8, 1, 1, 3072), float16] */;
    sigmoid(%1253) /* ty=Tensor[(8, 1, 1, 3072), float16] */
  };
  %1254(%cutlass_644_i0, %cutlass_644_i1, %cutlass_644_i2) /* ty=Tensor[(8, 1, 1, 3072), float16] */
}

def @tvmgen_default_cutlass_main_647(%cutlass_647_i0: Tensor[(8, 7, 7, 3072), float16], %cutlass_647_i1: Tensor[(512, 1, 1, 3072), float16], %cutlass_647_i2: Tensor[(1, 1, 1, 512), float16], %cutlass_647_i3: Tensor[(8, 7, 7, 512), float16], Inline=1, Compiler="cutlass", global_symbol="tvmgen_default_cutlass_main_647", Primitive=1) -> Tensor[(8, 7, 7, 512), float16] {
  %1257 = fn (%FunctionVar_0_02: Tensor[(8, 7, 7, 3072), float16], %FunctionVar_0_12: Tensor[(512, 1, 1, 3072), float16], %FunctionVar_0_22: Tensor[(1, 1, 1, 512), float16], %FunctionVar_0_31: Tensor[(8, 7, 7, 512), float16], PartitionedFromPattern="nn.conv2d_add_add_", Composite="cutlass.conv2d_bias_residual_add") -> Tensor[(8, 7, 7, 512), float16] {
    %1255 = nn.conv2d(%FunctionVar_0_02, %FunctionVar_0_12, padding=[0, 0, 0, 0], channels=512, kernel_size=[1, 1], data_layout="NHWC", kernel_layout="OHWI", out_dtype="float16") /* ty=Tensor[(8, 7, 7, 512), float16] */;
    %1256 = add(%1255, %FunctionVar_0_22) /* ty=Tensor[(8, 7, 7, 512), float16] */;
    add(%1256, %FunctionVar_0_31) /* ty=Tensor[(8, 7, 7, 512), float16] */
  };
  %1257(%cutlass_647_i0, %cutlass_647_i1, %cutlass_647_i2, %cutlass_647_i3) /* ty=Tensor[(8, 7, 7, 512), float16] */
}

def @tvmgen_default_cutlass_main_65(%cutlass_65_i0: Tensor[(8, 28, 28, 320), float16], %cutlass_65_i1: Tensor[(80, 1, 1, 320), float16], %cutlass_65_i2: Tensor[(1, 1, 1, 80), float16], %cutlass_65_i3: Tensor[(8, 28, 28, 80), float16], Inline=1, Compiler="cutlass", global_symbol="tvmgen_default_cutlass_main_65", Primitive=1) -> Tensor[(8, 28, 28, 80), float16] {
  %1260 = fn (%FunctionVar_42_02: Tensor[(8, 28, 28, 320), float16], %FunctionVar_42_12: Tensor[(80, 1, 1, 320), float16], %FunctionVar_42_22: Tensor[(1, 1, 1, 80), float16], %FunctionVar_42_3: Tensor[(8, 28, 28, 80), float16], PartitionedFromPattern="nn.conv2d_add_add_", Composite="cutlass.conv2d_bias_residual_add") -> Tensor[(8, 28, 28, 80), float16] {
    %1258 = nn.conv2d(%FunctionVar_42_02, %FunctionVar_42_12, padding=[0, 0, 0, 0], channels=80, kernel_size=[1, 1], data_layout="NHWC", kernel_layout="OHWI", out_dtype="float16") /* ty=Tensor[(8, 28, 28, 80), float16] */;
    %1259 = add(%1258, %FunctionVar_42_22) /* ty=Tensor[(8, 28, 28, 80), float16] */;
    add(%1259, %FunctionVar_42_3) /* ty=Tensor[(8, 28, 28, 80), float16] */
  };
  %1260(%cutlass_65_i0, %cutlass_65_i1, %cutlass_65_i2, %cutlass_65_i3) /* ty=Tensor[(8, 28, 28, 80), float16] */
}

def @tvmgen_default_cutlass_main_651(%cutlass_651_i0: Tensor[(8, 7, 7, 512), float16], %cutlass_651_i1: Tensor[(1280, 1, 1, 512), float16], %cutlass_651_i2: Tensor[(1, 1, 1, 1280), float16], Inline=1, Compiler="cutlass", global_symbol="tvmgen_default_cutlass_main_651", Primitive=1) -> Tensor[(8, 7, 7, 1280), float16] {
  %1264 = fn (%FunctionVar_0_03: Tensor[(8, 7, 7, 512), float16], %FunctionVar_0_13: Tensor[(1280, 1, 1, 512), float16], %FunctionVar_0_23: Tensor[(1, 1, 1, 1280), float16], PartitionedFromPattern="nn.conv2d_add_sigmoid_multiply_", Composite="cutlass.conv2d_bias_silu") -> Tensor[(8, 7, 7, 1280), float16] {
    %1261 = nn.conv2d(%FunctionVar_0_03, %FunctionVar_0_13, padding=[0, 0, 0, 0], channels=1280, kernel_size=[1, 1], data_layout="NHWC", kernel_layout="OHWI", out_dtype="float16") /* ty=Tensor[(8, 7, 7, 1280), float16] */;
    %1262 = add(%1261, %FunctionVar_0_23) /* ty=Tensor[(8, 7, 7, 1280), float16] */;
    %1263 = sigmoid(%1262) /* ty=Tensor[(8, 7, 7, 1280), float16] */;
    multiply(%1262, %1263) /* ty=Tensor[(8, 7, 7, 1280), float16] */
  };
  %1264(%cutlass_651_i0, %cutlass_651_i1, %cutlass_651_i2) /* ty=Tensor[(8, 7, 7, 1280), float16] */
}

def @tvmgen_default_cutlass_main_654(%cutlass_654_i0: Tensor[(8, 1280), float16], %cutlass_654_i1: Tensor[(1000, 1280), float16], %cutlass_654_i2: Tensor[(1, 1000), float16], Inline=1, Compiler="cutlass", global_symbol="tvmgen_default_cutlass_main_654", Primitive=1) -> Tensor[(8, 1000), float16] {
  %1266 = fn (%FunctionVar_0_04: Tensor[(8, 1280), float16], %FunctionVar_0_14: Tensor[(1000, 1280), float16], %FunctionVar_0_24: Tensor[(1, 1000), float16], PartitionedFromPattern="nn.dense_add_", Composite="cutlass.dense_bias") -> Tensor[(8, 1000), float16] {
    %1265 = nn.dense(%FunctionVar_0_04, %FunctionVar_0_14, units=None, out_dtype="float16") /* ty=Tensor[(8, 1000), float16] */;
    add(%1265, %FunctionVar_0_24) /* ty=Tensor[(8, 1000), float16] */
  };
  %1266(%cutlass_654_i0, %cutlass_654_i1, %cutlass_654_i2) /* ty=Tensor[(8, 1000), float16] */
}

def @tvmgen_default_cutlass_main_69(%cutlass_69_i0: Tensor[(8, 28, 28, 80), float16], %cutlass_69_i1: Tensor[(320, 3, 3, 80), float16], %cutlass_69_i2: Tensor[(1, 1, 1, 320), float16], Inline=1, Compiler="cutlass", global_symbol="tvmgen_default_cutlass_main_69", Primitive=1) -> Tensor[(8, 28, 28, 320), float16] {
  %1270 = fn (%FunctionVar_134_0: Tensor[(8, 28, 28, 80), float16], %FunctionVar_134_1: Tensor[(320, 3, 3, 80), float16], %FunctionVar_134_2: Tensor[(1, 1, 1, 320), float16], PartitionedFromPattern="nn.conv2d_add_sigmoid_multiply_", Composite="cutlass.conv2d_bias_silu") -> Tensor[(8, 28, 28, 320), float16] {
    %1267 = nn.conv2d(%FunctionVar_134_0, %FunctionVar_134_1, padding=[1, 1, 1, 1], channels=320, kernel_size=[3, 3], data_layout="NHWC", kernel_layout="OHWI", out_dtype="float16") /* ty=Tensor[(8, 28, 28, 320), float16] */;
    %1268 = add(%1267, %FunctionVar_134_2) /* ty=Tensor[(8, 28, 28, 320), float16] */;
    %1269 = sigmoid(%1268) /* ty=Tensor[(8, 28, 28, 320), float16] */;
    multiply(%1268, %1269) /* ty=Tensor[(8, 28, 28, 320), float16] */
  };
  %1270(%cutlass_69_i0, %cutlass_69_i1, %cutlass_69_i2) /* ty=Tensor[(8, 28, 28, 320), float16] */
}

def @tvmgen_default_cutlass_main_7(%cutlass_7_i0: Tensor[(8, 112, 112, 24), float16], %cutlass_7_i1: Tensor[(24, 3, 3, 24), float16], %cutlass_7_i2: Tensor[(1, 1, 1, 24), float16], Inline=1, Compiler="cutlass", global_symbol="tvmgen_default_cutlass_main_7", Primitive=1) -> Tensor[(8, 112, 112, 24), float16] {
  %1275 = fn (%FunctionVar_1_02: Tensor[(8, 112, 112, 24), float16], %FunctionVar_1_12: Tensor[(24, 3, 3, 24), float16], %FunctionVar_1_22: Tensor[(1, 1, 1, 24), float16], %FunctionVar_1_31: Tensor[(8, 112, 112, 24), float16], PartitionedFromPattern="nn.conv2d_add_sigmoid_multiply_add_", Composite="cutlass.conv2d_bias_silu_residual_add") -> Tensor[(8, 112, 112, 24), float16] {
    %1271 = nn.conv2d(%FunctionVar_1_31, %FunctionVar_1_12, padding=[1, 1, 1, 1], channels=24, kernel_size=[3, 3], data_layout="NHWC", kernel_layout="OHWI", out_dtype="float16") /* ty=Tensor[(8, 112, 112, 24), float16] */;
    %1272 = add(%1271, %FunctionVar_1_22) /* ty=Tensor[(8, 112, 112, 24), float16] */;
    %1273 = sigmoid(%1272) /* ty=Tensor[(8, 112, 112, 24), float16] */;
    %1274 = multiply(%1272, %1273) /* ty=Tensor[(8, 112, 112, 24), float16] */;
    add(%1274, %FunctionVar_1_31) /* ty=Tensor[(8, 112, 112, 24), float16] */
  };
  %1275(%cutlass_7_i0, %cutlass_7_i1, %cutlass_7_i2, %cutlass_7_i0) /* ty=Tensor[(8, 112, 112, 24), float16] */
}

def @tvmgen_default_cutlass_main_72(%cutlass_72_i0: Tensor[(8, 28, 28, 320), float16], %cutlass_72_i1: Tensor[(80, 1, 1, 320), float16], %cutlass_72_i2: Tensor[(1, 1, 1, 80), float16], %cutlass_72_i3: Tensor[(8, 28, 28, 80), float16], Inline=1, Compiler="cutlass", global_symbol="tvmgen_default_cutlass_main_72", Primitive=1) -> Tensor[(8, 28, 28, 80), float16] {
  %1278 = fn (%FunctionVar_41_0: Tensor[(8, 28, 28, 320), float16], %FunctionVar_41_1: Tensor[(80, 1, 1, 320), float16], %FunctionVar_41_2: Tensor[(1, 1, 1, 80), float16], %FunctionVar_41_3: Tensor[(8, 28, 28, 80), float16], PartitionedFromPattern="nn.conv2d_add_add_", Composite="cutlass.conv2d_bias_residual_add") -> Tensor[(8, 28, 28, 80), float16] {
    %1276 = nn.conv2d(%FunctionVar_41_0, %FunctionVar_41_1, padding=[0, 0, 0, 0], channels=80, kernel_size=[1, 1], data_layout="NHWC", kernel_layout="OHWI", out_dtype="float16") /* ty=Tensor[(8, 28, 28, 80), float16] */;
    %1277 = add(%1276, %FunctionVar_41_2) /* ty=Tensor[(8, 28, 28, 80), float16] */;
    add(%1277, %FunctionVar_41_3) /* ty=Tensor[(8, 28, 28, 80), float16] */
  };
  %1278(%cutlass_72_i0, %cutlass_72_i1, %cutlass_72_i2, %cutlass_72_i3) /* ty=Tensor[(8, 28, 28, 80), float16] */
}

def @tvmgen_default_cutlass_main_76(%cutlass_76_i0: Tensor[(8, 28, 28, 80), float16], %cutlass_76_i1: Tensor[(320, 3, 3, 80), float16], %cutlass_76_i2: Tensor[(1, 1, 1, 320), float16], Inline=1, Compiler="cutlass", global_symbol="tvmgen_default_cutlass_main_76", Primitive=1) -> Tensor[(8, 28, 28, 320), float16] {
  %1282 = fn (%FunctionVar_133_0: Tensor[(8, 28, 28, 80), float16], %FunctionVar_133_1: Tensor[(320, 3, 3, 80), float16], %FunctionVar_133_2: Tensor[(1, 1, 1, 320), float16], PartitionedFromPattern="nn.conv2d_add_sigmoid_multiply_", Composite="cutlass.conv2d_bias_silu") -> Tensor[(8, 28, 28, 320), float16] {
    %1279 = nn.conv2d(%FunctionVar_133_0, %FunctionVar_133_1, padding=[1, 1, 1, 1], channels=320, kernel_size=[3, 3], data_layout="NHWC", kernel_layout="OHWI", out_dtype="float16") /* ty=Tensor[(8, 28, 28, 320), float16] */;
    %1280 = add(%1279, %FunctionVar_133_2) /* ty=Tensor[(8, 28, 28, 320), float16] */;
    %1281 = sigmoid(%1280) /* ty=Tensor[(8, 28, 28, 320), float16] */;
    multiply(%1280, %1281) /* ty=Tensor[(8, 28, 28, 320), float16] */
  };
  %1282(%cutlass_76_i0, %cutlass_76_i1, %cutlass_76_i2) /* ty=Tensor[(8, 28, 28, 320), float16] */
}

def @tvmgen_default_cutlass_main_79(%cutlass_79_i0: Tensor[(8, 28, 28, 320), float16], %cutlass_79_i1: Tensor[(80, 1, 1, 320), float16], %cutlass_79_i2: Tensor[(1, 1, 1, 80), float16], %cutlass_79_i3: Tensor[(8, 28, 28, 80), float16], Inline=1, Compiler="cutlass", global_symbol="tvmgen_default_cutlass_main_79", Primitive=1) -> Tensor[(8, 28, 28, 80), float16] {
  %1285 = fn (%FunctionVar_40_02: Tensor[(8, 28, 28, 320), float16], %FunctionVar_40_12: Tensor[(80, 1, 1, 320), float16], %FunctionVar_40_22: Tensor[(1, 1, 1, 80), float16], %FunctionVar_40_3: Tensor[(8, 28, 28, 80), float16], PartitionedFromPattern="nn.conv2d_add_add_", Composite="cutlass.conv2d_bias_residual_add") -> Tensor[(8, 28, 28, 80), float16] {
    %1283 = nn.conv2d(%FunctionVar_40_02, %FunctionVar_40_12, padding=[0, 0, 0, 0], channels=80, kernel_size=[1, 1], data_layout="NHWC", kernel_layout="OHWI", out_dtype="float16") /* ty=Tensor[(8, 28, 28, 80), float16] */;
    %1284 = add(%1283, %FunctionVar_40_22) /* ty=Tensor[(8, 28, 28, 80), float16] */;
    add(%1284, %FunctionVar_40_3) /* ty=Tensor[(8, 28, 28, 80), float16] */
  };
  %1285(%cutlass_79_i0, %cutlass_79_i1, %cutlass_79_i2, %cutlass_79_i3) /* ty=Tensor[(8, 28, 28, 80), float16] */
}

def @tvmgen_default_cutlass_main_83(%cutlass_83_i0: Tensor[(8, 28, 28, 80), float16], %cutlass_83_i1: Tensor[(320, 1, 1, 80), float16], %cutlass_83_i2: Tensor[(1, 1, 1, 320), float16], Inline=1, Compiler="cutlass", global_symbol="tvmgen_default_cutlass_main_83", Primitive=1) -> Tensor[(8, 28, 28, 320), float16] {
  %1289 = fn (%FunctionVar_132_0: Tensor[(8, 28, 28, 80), float16], %FunctionVar_132_1: Tensor[(320, 1, 1, 80), float16], %FunctionVar_132_2: Tensor[(1, 1, 1, 320), float16], PartitionedFromPattern="nn.conv2d_add_sigmoid_multiply_", Composite="cutlass.conv2d_bias_silu") -> Tensor[(8, 28, 28, 320), float16] {
    %1286 = nn.conv2d(%FunctionVar_132_0, %FunctionVar_132_1, padding=[0, 0, 0, 0], channels=320, kernel_size=[1, 1], data_layout="NHWC", kernel_layout="OHWI", out_dtype="float16") /* ty=Tensor[(8, 28, 28, 320), float16] */;
    %1287 = add(%1286, %FunctionVar_132_2) /* ty=Tensor[(8, 28, 28, 320), float16] */;
    %1288 = sigmoid(%1287) /* ty=Tensor[(8, 28, 28, 320), float16] */;
    multiply(%1287, %1288) /* ty=Tensor[(8, 28, 28, 320), float16] */
  };
  %1289(%cutlass_83_i0, %cutlass_83_i1, %cutlass_83_i2) /* ty=Tensor[(8, 28, 28, 320), float16] */
}

def @tvmgen_default_cutlass_main_86(%cutlass_86_i0: Tensor[(8, 1, 1, 320), float16], %cutlass_86_i1: Tensor[(20, 1, 1, 320), float16], %cutlass_86_i2: Tensor[(1, 1, 1, 20), float16], Inline=1, Compiler="cutlass", global_symbol="tvmgen_default_cutlass_main_86", Primitive=1) -> Tensor[(8, 1, 1, 20), float16] {
  %1293 = fn (%FunctionVar_130_0: Tensor[(8, 1, 1, 320), float16], %FunctionVar_130_1: Tensor[(20, 1, 1, 320), float16], %FunctionVar_130_2: Tensor[(1, 1, 1, 20), float16], PartitionedFromPattern="nn.conv2d_add_sigmoid_multiply_", Composite="cutlass.conv2d_bias_silu") -> Tensor[(8, 1, 1, 20), float16] {
    %1290 = nn.conv2d(%FunctionVar_130_0, %FunctionVar_130_1, padding=[0, 0, 0, 0], channels=20, kernel_size=[1, 1], data_layout="NHWC", kernel_layout="OHWI", out_dtype="float16") /* ty=Tensor[(8, 1, 1, 20), float16] */;
    %1291 = add(%1290, %FunctionVar_130_2) /* ty=Tensor[(8, 1, 1, 20), float16] */;
    %1292 = sigmoid(%1291) /* ty=Tensor[(8, 1, 1, 20), float16] */;
    multiply(%1291, %1292) /* ty=Tensor[(8, 1, 1, 20), float16] */
  };
  %1293(%cutlass_86_i0, %cutlass_86_i1, %cutlass_86_i2) /* ty=Tensor[(8, 1, 1, 20), float16] */
}

def @tvmgen_default_cutlass_main_89(%cutlass_89_i0: Tensor[(8, 1, 1, 20), float16], %cutlass_89_i1: Tensor[(320, 1, 1, 20), float16], %cutlass_89_i2: Tensor[(1, 1, 1, 320), float16], Inline=1, Compiler="cutlass", global_symbol="tvmgen_default_cutlass_main_89", Primitive=1) -> Tensor[(8, 1, 1, 320), float16] {
  %1296 = fn (%FunctionVar_86_0: Tensor[(8, 1, 1, 20), float16], %FunctionVar_86_1: Tensor[(320, 1, 1, 20), float16], %FunctionVar_86_2: Tensor[(1, 1, 1, 320), float16], PartitionedFromPattern="nn.conv2d_add_sigmoid_", Composite="cutlass.conv2d_bias_sigmoid") -> Tensor[(8, 1, 1, 320), float16] {
    %1294 = nn.conv2d(%FunctionVar_86_0, %FunctionVar_86_1, padding=[0, 0, 0, 0], channels=320, kernel_size=[1, 1], data_layout="NHWC", kernel_layout="OHWI", out_dtype="float16") /* ty=Tensor[(8, 1, 1, 320), float16] */;
    %1295 = add(%1294, %FunctionVar_86_2) /* ty=Tensor[(8, 1, 1, 320), float16] */;
    sigmoid(%1295) /* ty=Tensor[(8, 1, 1, 320), float16] */
  };
  %1296(%cutlass_89_i0, %cutlass_89_i1, %cutlass_89_i2) /* ty=Tensor[(8, 1, 1, 320), float16] */
}

def @tvmgen_default_cutlass_main_92(%cutlass_92_i0: Tensor[(8, 14, 14, 320), float16], %cutlass_92_i1: Tensor[(160, 1, 1, 320), float16], %cutlass_92_i2: Tensor[(1, 1, 1, 160), float16], Inline=1, Compiler="cutlass", global_symbol="tvmgen_default_cutlass_main_92", Primitive=1) -> Tensor[(8, 14, 14, 160), float16] {
  %1298 = fn (%FunctionVar_46_03: Tensor[(8, 14, 14, 320), float16], %FunctionVar_46_13: Tensor[(160, 1, 1, 320), float16], %FunctionVar_46_23: Tensor[(1, 1, 1, 160), float16], PartitionedFromPattern="nn.conv2d_add_", Composite="cutlass.conv2d_bias") -> Tensor[(8, 14, 14, 160), float16] {
    %1297 = nn.conv2d(%FunctionVar_46_03, %FunctionVar_46_13, padding=[0, 0, 0, 0], channels=160, kernel_size=[1, 1], data_layout="NHWC", kernel_layout="OHWI", out_dtype="float16") /* ty=Tensor[(8, 14, 14, 160), float16] */;
    add(%1297, %FunctionVar_46_23) /* ty=Tensor[(8, 14, 14, 160), float16] */
  };
  %1298(%cutlass_92_i0, %cutlass_92_i1, %cutlass_92_i2) /* ty=Tensor[(8, 14, 14, 160), float16] */
}

def @tvmgen_default_cutlass_main_95(%cutlass_95_i0: Tensor[(8, 14, 14, 160), float16], %cutlass_95_i1: Tensor[(640, 1, 1, 160), float16], %cutlass_95_i2: Tensor[(640), float16], Inline=1, Compiler="cutlass", global_symbol="tvmgen_default_cutlass_main_95", Primitive=1) -> Tensor[(8, 14, 14, 640), float16] {
  %1302 = fn (%FunctionVar_129_0: Tensor[(8, 14, 14, 160), float16], %FunctionVar_129_1: Tensor[(640, 1, 1, 160), float16], %FunctionVar_129_2: Tensor[(640), float16], PartitionedFromPattern="nn.conv2d_add_sigmoid_multiply_", Composite="cutlass.conv2d_bias_silu") -> Tensor[(8, 14, 14, 640), float16] {
    %1299 = nn.conv2d(%FunctionVar_129_0, %FunctionVar_129_1, padding=[0, 0, 0, 0], channels=640, kernel_size=[1, 1], data_layout="NHWC", kernel_layout="OHWI", out_dtype="float16") /* ty=Tensor[(8, 14, 14, 640), float16] */;
    %1300 = add(%1299, %FunctionVar_129_2) /* ty=Tensor[(8, 14, 14, 640), float16] */;
    %1301 = sigmoid(%1300) /* ty=Tensor[(8, 14, 14, 640), float16] */;
    multiply(%1300, %1301) /* ty=Tensor[(8, 14, 14, 640), float16] */
  };
  %1302(%cutlass_95_i0, %cutlass_95_i1, %cutlass_95_i2) /* ty=Tensor[(8, 14, 14, 640), float16] */
}

def @tvmgen_default_cutlass_main_98(%cutlass_98_i0: Tensor[(8, 1, 1, 640), float16], %cutlass_98_i1: Tensor[(40, 1, 1, 640), float16], %cutlass_98_i2: Tensor[(1, 1, 1, 40), float16], Inline=1, Compiler="cutlass", global_symbol="tvmgen_default_cutlass_main_98", Primitive=1) -> Tensor[(8, 1, 1, 40), float16] {
  %1306 = fn (%FunctionVar_127_0: Tensor[(8, 1, 1, 640), float16], %FunctionVar_127_1: Tensor[(40, 1, 1, 640), float16], %FunctionVar_127_2: Tensor[(1, 1, 1, 40), float16], PartitionedFromPattern="nn.conv2d_add_sigmoid_multiply_", Composite="cutlass.conv2d_bias_silu") -> Tensor[(8, 1, 1, 40), float16] {
    %1303 = nn.conv2d(%FunctionVar_127_0, %FunctionVar_127_1, padding=[0, 0, 0, 0], channels=40, kernel_size=[1, 1], data_layout="NHWC", kernel_layout="OHWI", out_dtype="float16") /* ty=Tensor[(8, 1, 1, 40), float16] */;
    %1304 = add(%1303, %FunctionVar_127_2) /* ty=Tensor[(8, 1, 1, 40), float16] */;
    %1305 = sigmoid(%1304) /* ty=Tensor[(8, 1, 1, 40), float16] */;
    multiply(%1304, %1305) /* ty=Tensor[(8, 1, 1, 40), float16] */
  };
  %1306(%cutlass_98_i0, %cutlass_98_i1, %cutlass_98_i2) /* ty=Tensor[(8, 1, 1, 40), float16] */
}


[… Evaluate inference time cost...
Execution time summary:
 mean (ms)   median (ms)    max (ms)     min (ms)     std (ms)  
   7.6202       7.5011       8.0435       7.4585       0.2005   
               
